checkpoints/model.pt (torch, 39314 bytes, 10 tensors)

mu.tmlp.net.0.weight f4 [64, 2]
0.61954546 -0.566221 -0.17591967 0.33088878 0.4050766 -0.021357708 0.24865848 -0.5319194
0.004088943 0.35287368 0.097327754 -0.34276158 -0.65376395 -0.31002012 -0.44202343 0.01018154
-0.1297292 0.03029085 0.49196702 0.6081727 0.05861362 0.078056134 -0.06334873 -0.4835292
0.33740634 -0.08668926 -0.08134352 0.048297472 0.6609552 -0.34332997 0.5508179 0.12613477
0.63305014 0.39597028 0.1710428 0.43721047 0.09083068 0.3202993 0.3716407 0.0028244534
0.41781548 0.4734542 -0.13590768 0.5345024 -0.30875096 -0.22463118 -0.65407294 0.69415003
-0.06387421 0.22649759 0.3974267 0.1039651 -0.06928143 -0.026736908 -0.057495784 0.11136254
0.66530776 0.7131704 -0.26385954 0.63771707 -0.27371156 -0.4877798 -0.26729143 0.00020339538
0.5365872 -0.22837985 0.52179193 0.0019396694 -0.1328456 0.08687814 0.064044885 0.68536603
0.33817723 0.2041316 -0.4691858 0.46087438 -0.33916333 -0.51896006 0.5043623 -0.040787008
-0.22118402 0.5523312 -0.31359297 0.48852372 0.21727474 -0.43942186 0.38930258 -0.2433388
-0.59920925 0.0028685918 -0.43704334 0.008229409 0.4031449 -0.49768692 0.082538955 0.4212859
-0.27666417 0.54488736 -0.18624887 0.0040276763 -0.14559408 -0.68777114 -0.11298841 -0.12637112
-0.49509832 -0.23706067 -0.32639354 -0.4515976 -0.47518992 0.6878214 0.5023776 0.34327948
0.6565508 -0.099051 -0.5213837 0.68952715 0.10121984 0.42997134 0.272581 -0.57004344
-0.7125394 -0.66261125 0.6973437 -0.54658717 -0.3845704 -0.68016523 -0.5155969 -0.40018612
00000000: 889a 1e3f dcf3 10bf 4924 34be 416a a93e
00000010: 3366 cf3e 5cf6 aebc 54a0 7e3e df2b 08bf
00000020: 8afc 853b dcab b43e c653 c73d 727e afbe
00000030: 135d 27bf f5ba 9ebe e550 e2be 79d0 263c
00000040: bbd7 04be 8424 f83c 1ae3 fb3e 35b1 1b3f
00000050: d614 703d e5db 9f3d fbbc 81bd 2491 f7be
00000060: 86c0 ac3e 248a b1bd 6e97 a6bd 92d3 453d
00000070: 5c34 293f f2c8 afbe 6702 0d3f 7929 013e
00000080: 930f 223f 9ebc ca3e d825 2f3e 0dda df3e
00000090: 7005 ba3d 45fe a33e b147 be3e 771a 393b
000000a0: e9eb d53e 9768 f23e 622b 0bbe 26d5 083f
000000b0: 9b14 9ebe b705 66be 5371 27bf d1b3 313f
000000c0: 7bd0 82bd fcee 673e 837b cb3e a8eb d43d
000000d0: 6ce3 8dbd 5c07 dbbc b380 6bbd 0b12 e43d
000000e0: 9c51 2a3f 5692 363f 9918 87be 6d41 233f
000000f0: ec23 8cbe 46be f9be 6cda 88be 8846 5539
00000100: c75d 093f 68dc 69be 2894 053f 813c fe3a
00000110: ad08 08be 2bed b13d f729 833d 2674 2f3f
00000120: 9125 ad3e e007 513e 1f39 f0be baf7 eb3e
00000130: d1a6 adbe 91da 04bf e31d 013f 4710 27bd
00000140: 107e 62be 9465 0d3f 428f a0be c81f fa3e
00000150: 457d 5e3e e7fb e0be ab52 c73e ce2d 79be
00000160: c765 19bf fcfe 3b3b 25c4 dfbe a5d4 063c
00000170: 0269 ce3e d2d0 febe 2f0a a93d c9b2 d73e
00000180: eda6 8dbe bd7d 0b3f 06b8 3ebe 99fa 833b
00000190: 9d16 15be c511 30bf 7866 e7bd 6e67 01be
000001a0: 877d fdbe 08c0 72be 0e1d a7be cd37 e7be
000001b0: 184c f3be 1015 303f d29b 003f 54c2 af3e
000001c0: b713 283f 40db cabd 6779 05bf da84 303f
000001d0: 594c cf3d 3425 dc3e bd8f 8b3e 5eee 11bf
000001e0: fb68 36bf e4a0 29bf 1e85 323f 23ed 0bbf
000001f0: 69e6 c4be 4f1f 2ebf 29fe 03bf 32e5 ccbe

mu.tmlp.net.0.bias f4 [64]
0.24918497 -0.57835436 0.6428691 -0.6286991 0.23946986 0.52725446 0.6256457 -0.42903325
-0.21696134 -0.6772755 -0.40102422 -0.27352336 -0.31460106 0.32091174 -0.0448783 0.24907106
0.54407895 -0.41972977 -0.5111192 0.10462668 0.11256011 0.47090942 0.27206597 -0.033638906
-0.21829532 -0.18375032 0.60257924 -0.076791115 0.35208228 -0.41494307 0.6758297 0.012129022
0.49171475 -0.024543388 -0.386458 0.61259884 0.41953847 -0.22107942 -0.046410523 0.6037108
-0.46017003 0.5893425 0.38720375 -0.68789226 -0.54568166 -0.6877969 -0.3853401 -0.679003
-0.15933758 -0.29572338 0.29586765 0.36220828 0.045461565 -0.5008051 0.61059046 0.21733887
-0.39639604 -0.4483989 0.25012633 0.56792915 -0.02249627 -0.3709451 0.48583958 0.22839424
00000000: 582a 7f3e 080f 14bf 1293 243f 6df2 20bf
00000010: 9637 753e 26fa 063f 512a 203f 3faa dbbe
00000020: 1d2b 5ebe ed61 2dbf 0c53 cdbe 410b 8cbe
00000030: 6413 a1be 8b4e a43e 4fd2 37bd 7c0c 7f3e
00000040: c248 0b3f d2e6 d6be b5d8 02bf 8346 d63d
00000050: ea85 e63d 0a1b f13e 3b4c 8b3e f3c8 09bd
00000060: cf88 5fbe 0b29 3cbe a242 1a3f a944 9dbd
00000070: 2144 b43e 6b73 d4be 2d03 2d3f ceb8 463c
00000080: 09c2 fb3e 370f c9bc d3dd c5be 47d3 1c3f
00000090: bfcd d63e a562 62be f618 3ebd ca8c 1a3f
000000a0: 689b ebbe 26df 163f 923f c63e b519 30bf
000000b0: cbb1 0bbf 7513 30bf 4c4b c5be 24d3 2dbf
000000c0: 6429 23be 0e69 97be f77b 973e 5d73 b93e
000000d0: e835 3a3d c334 00bf a84f 1c3f 158e 5e3e
000000e0: 6cf4 cabe 8a94 e5be 8f10 803e ce63 113f
000000f0: 194a b8bc 84ec bdbe f7bf f83e 2ee0 693e

mu.tmlp.net.2.weight f4 [64, 64]
-0.14955859 -0.044952262 -0.0060395612 -0.04168175 0.014542705 0.133925 -0.049902882 0.04720312
0.00233971 -0.058894575 0.009912789 -0.05331108 -0.061283484 -0.09075361 0.053603623 -0.3884299
-0.11238828 -0.09792891 -0.07957822 0.03557697 -0.05360956 0.07572777 0.12660213 -0.051049516
-0.02981842 0.06499515 -0.036899727 0.080991164 -0.07445091 0.06985297 -0.06245781 0.0006890347
-0.2964987 -0.011284481 0.0039598793 -0.09395048 0.0009932849 0.09478661 0.11695461 -0.043083057
0.057360746 0.043625485 0.042061225 -0.12083408 -0.04350117 -0.102873914 0.06255661 -0.03804691
0.010837414 -0.08709401 0.07269874 0.1121933 0.09672344 0.005075079 0.11194756 -0.09668275
0.06798512 0.08274612 0.07051568 0.032762848 0.11326818 -0.028905317 -0.08772373 -0.040220052
0.018074483 0.12277141 -0.09787056 -0.007747084 -0.07468429 0.03880912 -0.11003773 0.091820285
-0.087953836 0.023499548 -0.12260084 0.07839361 -0.11748804 -0.09652057 0.09593092 0.03898047
-0.04397431 0.05861415 -0.03407803 -0.093743 -0.08874576 -0.101690024 0.07547061 0.10659909
-0.10345563 0.083580226 0.1079407 -0.040311664 -0.094555125 -0.055610344 -0.10374655 0.09603681
0.05759342 0.054126322 0.11578663 -0.0026915371 -0.083571196 -0.117403 -0.06493378 -0.11224237
-0.027976453 -0.10259427 -0.10362956 0.10632163 0.019237235 0.0010325462 0.08054325 0.06160924
-0.09337528 -0.03384337 0.11561182 -0.11816183 -0.09846054 0.1213326 0.082782954 0.043032423
0.019964784 -0.039159402 0.01656565 0.02073066 0.06244567 -0.041363508 -0.029766887 -0.062417522
0.0009691788 -0.053504974 -0.042737953 0.080489635 0.044192232 -0.0134272175 -0.25779107 0.120785564
-0.070861906 0.098805465 -0.058260933 0.012033403 -0.118428685 -0.092766464 0.04669424 0.048599407
0.016068023 -0.035969164 0.11681947 -0.004204854 0.11132173 0.080564395 -0.20618178 -0.3018884
0.008518059 0.060980998 -0.019197045 -0.06658552 0.046748865 0.030875677 -0.112078056 0.08922735
-0.06513903 0.018634506 0.02798903 -0.08820272 0.12593338 0.057889793 0.050148606 0.13509418
-0.06902978 -0.11487368 0.0027822382 -0.00028853118 0.0016704947 0.04973489 -0.050252825 0.095003426
0.0010718431 0.12285349 -0.047844492 0.012111124 0.046945408 -0.0814348 -0.17152628 -0.07523103
0.061256498 -0.091047496 -0.016558543 0.015173084 -0.016586915 0.079199106 -0.04447668 -0.03755781
0.015304556 0.06794138 -0.04339225 0.0404782 -0.05727861 0.0954502 -0.122012764 0.026841417
0.1204122 0.048260745 -0.059441566 -0.055426896 0.13131618 -0.06747129 -0.12179515 -0.082770556
-0.017425159 -0.08751521 -0.02981571 0.09938479 -0.05315438 0.05354605 -0.10814633 -0.095408686
-0.05047098 -0.10178014 0.1183417 0.09332967 0.09111323 -0.059508882 -0.05029197 -0.5855732
0.07912066 -0.09676586 0.02202478 0.090855695 0.093813516 0.020184299 -0.056103718 0.10951625
0.0038703023 -0.04795033 0.11346456 0.022071525 0.05102852 0.070304036 0.10992327 0.052363366
0.015700465 -0.10916908 -0.043810695 0.1087509 -0.28039953 -0.04480757 -0.07890665 -0.008250508
-0.057807706 -0.13461435 0.026536092 0.09562504 -0.06425082 -0.023000835 -0.08858562 -0.15098831
00000000: e325 19be dd1f 38bd 83e7 c5bb 7cba 2abd
00000010: 8744 6e3c a323 093e f766 4cbd 0f58 413d
00000020: d255 193b 703b 71bd 4069 223c b85c 5abd
00000030: 6404 7bbd 07dd b9bd 798f 5b3d 49e0 c6be
00000040: d42b e6bd f48e c8bd e8f9 a2bd 28b9 113d
00000050: b395 5bbd 2917 9b3d fda3 013e 4c19 51bd
00000060: c245 f4bc 2d1c 853d 2b24 17bd b2de a53d
00000070: b879 98bd 130f 8f3d c3d3 7fbd 56a0 343a
00000080: adce 97be 8be2 38bc e0c1 813b 1c69 c0bd
00000090: 1c31 823a 7b1f c23d e685 ef3d dc77 30bd
000000a0: 1af3 6a3d a3b0 323d 6448 2c3d dc77 f7bd
000000b0: 482e 32bd 8faf d2bd ae1d 803d 14d7 1bbd
000000c0: 698f 313c 585e b2bd 14e3 943d 9ac5 e53d
000000d0: f016 c63d d94c a63b c344 e53d 9b01 c6bd
000000e0: c83b 8b3d cc76 a93d 866a 903d 5632 063d
000000f0: 26f9 e73d d8ca ecbc 80a8 b3bd c8bd 24bd
00000100: f010 943c 946f fb3d 5c70 c8bd 40db fdbb
00000110: 14f4 98bd 50f6 1e3d 765b e1bd 460c bc3d
00000120: 2421 b4bd 2082 c03c 2616 fbbd d48c a03d
00000130: 929d f0bd 94ac c5bd 6e77 c43d fca9 1f3d
00000140: 681e 34bd 6415 703d 6895 0bbd 54fc bfbd
00000150: 56c0 b5bd dc42 d0bd 5690 9a3d a050 da3d
00000160: 8ce0 d3bd 1c2c ab3d 0410 dd3d d81d 25bd
00000170: 1ea6 c1bd acc7 63bd 1279 d4bd f2ae c43d
00000180: 14e7 6b3d 90b3 5d3d 8a21 ed3d 8064 30bb
00000190: 6027 abbd fc70 f0bd 00fc 84bd 54df e5bd
000001a0: e02e e5bc f21c d2bd bc3b d4bd 28bf d93d
000001b0: 6897 9d3c 8056 873a dcf3 a43d f859 7c3d
000001c0: 8a3b bfbd 589f 0abd e4c5 ec3d d4fe f1bd
000001d0: aea5 c9bd 3a7d f83d 1c8a a93d c442 303d
000001e0: 308d a33c 9c65 20bd b0b4 873c 58d3 a93c
000001f0: 08c7 7f3d c86c 29bd b0d9 f3bc 84a9 7fbd
00000200: 7d10 7e3a 0828 5bbd fe0d 2fbd c0d7 a43d
00000210: ea02 353d d5fd 5bbc 31fd 83be 6c5e f73d
00000220: 0c20 91bd 855a ca3d 04a3 6ebd c027 453c
00000230: bd8a f2bd 58fc bdbd 7642 3f3d 2c10 473d
00000240: 16a1 833c 6754 13bd 0c3f ef3d dfc8 89bb
00000250: a6fc e33d f2fe a43d 5121 53be 1e91 9abe
00000260: 548f 0b3c 36c7 793d 1f43 9dbc fd5d 88bd
00000270: bd7b 3f3d fdee fc3c 2e89 e5bd d4bc b63d
00000280: 9d67 85bd 64a7 983c 4049 e53c a1a3 b4bd
00000290: aef4 003e d91d 6d3d a068 4d3d 2156 0a3e
000002a0: 7c5f 8dbd e442 ebbd 3656 363b 0046 97b9
000002b0: 80f4 da3a d0b6 4b3d e8d5 4dbd 2891 c23d
000002c0: 167d 8c3a 9c9a fb3d 96f8 43bd bc6d 463c
000002d0: d449 403d 4ac7 a6bd 96a4 2fbe ba12 9abd
000002e0: 18e8 7a3d 1c77 babd c8a5 87bc 8798 783c
000002f0: 48e1 87bc 2433 a23d 2e2d 36bd 38d6 19bd
00000300: f6bf 7a3c da24 8b3d 12bc 31bd 78cc 253d
00000310: fa9c 6abd 657b c33d d4e1 f9bd 88e2 db3c
00000320: ac9a f63d 0fad 453d 0079 73bd 5007 63bd
00000330: c077 063e 632e 8abd bc6f f9bd 9c83 a9bd
00000340: 35bf 8ebc 2d3b b3bd 1340 f4bc 418a cb3d
00000350: 68b8 59bd 1a53 5b3d d37b ddbd a165 c3bd
00000360: a9ba 4ebd 1b72 d0bd 225d f23d a023 bf3d
00000370: 9399 ba3d 96bf 73bd f4fe 4dbd 20e8 15bf
00000380: 030a a23d 2e2d c6bd 506d b43c 8d12 ba3d
00000390: 4d21 c03d 8b59 a53c 03cd 65bd 0e4a e03d
000003a0: e6a4 7d3b 9167 44bd 1b60 e83d 58cf b43c
000003b0: 4803 513d 90fb 8f3d 741f e13d f87a 563d
000003c0: 439e 803c 0a94 dfbd d872 33bd cbb8 de3d
000003d0: 8790 8fbe 2488 37bd cf99 a1bd 242d 07bc
000003e0: c6c7 6cbd 58d8 09be 3862 d93c 10d7 c33d
000003f0: ef95 83bd 3f6c bcbc 616c b5bd ae9c 1abe

mu.tmlp.net.2.bias f4 [64]
0.1271483 -0.0899532 -0.00679312 0.047517046 0.004728928 -0.08760244 0.081802666 -0.121086694
-0.06255227 -0.048057117 -0.0034018292 -0.016663024 -0.09966117 -0.09297548 -0.06072686 0.13154107
0.040116586 -0.008995712 -0.024137825 0.032128006 0.11286643 -0.013552734 0.12347212 0.11383338
-0.13255924 -0.11490869 0.07192423 -0.0996084 0.013115997 0.06678241 -0.05547232 0.09216415
-0.07370424 -0.09830867 0.05668566 -0.047347035 0.08218874 0.05267951 -0.024457512 -0.04233563
0.08270224 0.016650824 -0.06280777 -0.06356326 0.11025607 -0.09011909 0.04901699 0.013706355
-0.0714263 0.06806147 -0.024192382 0.052180037 0.06901315 -0.008457012 0.024339767 -0.00969318
-0.087264225 0.028001145 -0.09168012 0.023582105 -0.09733789 0.10957404 -0.12449062 0.05697797
00000000: 2a33 023e 6239 b8bd d298 debb 3ca1 423d
00000010: 20f5 9a3b e868 b3bd 2888 a73d 4dfc f7bd
00000020: 681b 80bd 8ad7 44bd 39f1 5ebb e580 88bc
00000030: 281b ccbd ee69 bebd babc 78bd b4b2 063e
00000040: 4a51 243d c062 13bc b0bc c5bc a898 033d
00000050: 8426 e73d 490c 5ebc f3de fc3d 7a21 e93d
00000060: 9cbd 07be 3f55 ebbd 034d 933d 7dff cbbd
00000070: 7be4 563c 37c5 883d f236 63bd 8fc0 bc3d
00000080: 40f2 96bd 0e56 c9bd 392f 683d f7ee 41bd
00000090: 9252 a83d 78c6 573d 1f5b c8bc 2068 2dbd
000000a0: cb5f a93d 4f67 883c 5ca1 80bd 742d 82bd
000000b0: efcd e13d 5c90 b8bd 0ac6 483d 9f90 603c
000000c0: f447 92bd d063 8b3d 1a2f c6bc bcba 553d
000000d0: c456 8d3d 478f 0abc 3164 c73c 25d0 1ebc
000000e0: 96b7 b2bd a862 e53c c9c2 bbbd 422f c13c
000000f0: 1659 c7bd 5b68 e03d f0f4 febd bb61 693d

mu.tmlp.net.4.weight f4 [1, 64]
-0.10328933 0.04468608 0.041649878 -0.13748352 0.03524697 0.09211296 0.06941776 -0.11008917
-0.11534534 -0.05307604 0.009687176 0.04622547 -0.03570629 -0.10205548 -0.029457353 0.11639445
-0.08883677 0.050495803 -0.12259218 -0.09325339 0.026504578 -0.07956497 0.07148121 -0.0063857883
-0.10705235 -0.08673034 -0.0071903416 -0.09885154 0.12845477 -0.00653238 0.007098936 -0.094318494
0.036950372 -0.095888235 -0.013288745 0.025672581 -0.009155777 -0.07506809 -0.12094756 -0.0054279566
-0.099213704 0.045130037 -0.002918439 -0.052305147 0.13664612 0.057415266 0.1591817 0.07163575
0.06860167 -0.07268729 -0.049396615 -0.10512642 0.08260611 -0.0031518422 -0.07360665 0.061095633
0.05371228 -0.11959648 0.04523388 -0.1241963 0.06247919 0.06510374 0.083920226 -0.038812276
00000000: 5b89 d3bd c008 373d 1099 2a3d 7bc8 0cbe
00000010: 205f 103d b8a5 bc3d e62a 8e3d 6e76 e1bd
00000020: 2d3a ecbd 4366 59bd f6b6 1e3c eb56 3d3d
00000030: c240 12bd 7702 d1bd 8c50 f1bc 3760 ee3d
00000040: 0df0 b5bd b0d4 4e3d 9c11 fbbd a2fb bebd
00000050: 2120 d93c f6f2 a2bd be64 923d e03f d1bb
00000060: 433e dbbd ad9f b1bd f59c ebbb ad72 cabd
00000070: a689 033e 930d d6bb 319e e83b 0e2a c1bd
00000080: 4659 173d 0d61 c4bd 09b9 59bc 4e4f d23c
00000090: 1d02 16bc 4cbd 99bd 5bb3 f7bd 00dd b1bb
000000a0: 8e30 cbbd 46da 383d 4843 3fbb ec3d 56bd
000000b0: f6ec 0b3e 452c 6b3d 8700 233e c4b5 923d
000000c0: 087f 8c3d 13dd 94bd 1b54 4abd 854c d7bd
000000d0: 642d a93d 238f 4ebb 15bf 96bd 6a3f 7a3d
000000e0: 6801 5c3d 00ef f4bd 2947 393d a15a febd
000000f0: 2eea 7f3d 1c55 853d 5ede ab3d 9ff9 1ebd

sigma.tmlp.net.0.weight f4 [64, 2]
-0.43872136 0.10537836 -0.39421484 0.3081687 0.4427421 0.34902418 0.0044057076 -0.42967469
0.4521115 -0.34809196 -0.32210556 -0.044188682 -0.5302378 0.4048109 -0.58011484 0.5229005
-0.22724451 0.68238074 0.5513917 -0.26759058 -0.54636353 -0.46789473 0.47825232 0.29724672
0.12582925 -0.17062671 -0.6172499 -0.08139733 -0.5146517 -0.16731079 0.17156409 0.18455322
0.5010382 0.5000421 -0.4384108 0.263941 0.49120474 -0.6865581 -0.002171237 -0.55285543
-0.18197212 0.20030029 0.3296869 -0.32956976 0.26621413 -0.048776828 0.34893513 -0.07239618
-0.0073753246 0.5636714 0.6442538 -0.41602919 0.04043194 0.2559187 -0.630857 0.1510843
0.38287458 0.22741604 0.30667484 -0.3136411 0.26132408 0.08088579 -0.4628224 0.1048001
0.36015028 0.3758653 0.47137833 0.5340121 -0.26138788 -0.2784175 -0.08264831 -0.5317608
-0.55355686 0.36834678 0.62254435 0.30460066 0.41811687 0.5056059 -0.6728511 0.08723187
-0.40847874 -0.3842841 -0.7151301 0.3344877 0.72539335 -0.53607243 0.46483916 0.052169062
0.6733652 -0.5270651 0.7419557 0.15840772 -0.6069535 0.42871517 -0.121872835 -0.54130906
-0.51405895 0.059726685 0.5936154 0.30530944 -0.16348474 -0.2561515 -0.13736585 -0.43875247
0.15458548 0.46837553 0.6688138 0.029812487 -0.008361092 0.073814474 -0.760501 -0.16268183
0.7793582 -0.03097352 -0.23694456 -0.24462749 0.003864866 -0.47032553 -0.17857227 0.1252923
-0.545317 -0.0016476163 -0.021325331 0.59941936 -0.12687708 -0.01654509 0.61139816 0.5228476
00000000: 16a0 e0be 9cd0 d73d 87d6 c9be 4ac8 9d3e
00000010: 18af e23e 4cb3 b23e c15d 903b 52fe dbbe
00000020: 297b e73e 1c39 b2be 05eb a4be 31ff 34bd
00000030: aabd 07bf 6043 cf3e 6882 14bf cfdc 053f
00000040: c9b2 68be 81b0 2e3f 0228 0d3f a201 89be
00000050: 7bde 0bbf e68f efbe 7ddd f43e b930 983e
00000060: 62d9 003e c5b8 2ebe 1704 1ebf a5b3 a6bd
00000070: 37c0 03bf 8553 2bbe 7fae 2f3e 85fb 3c3e
00000080: 0a44 003f c202 003f 6177 e0be 4623 873e
00000090: 307f fb3e 46c2 2fbf 504b 0ebb ef87 0dbf
000000a0: e656 3abe 851b 4d3e b9cc a83e 5ebd a8be
000000b0: 384d 883e 36ca 47bd a0a7 b23e 7344 94bd
000000c0: b5ac f1bb c54c 103f d1ed 243f c701 d5be
000000d0: f69b 253d c707 833e d87f 21bf d8b5 1a3e
000000e0: 2308 c43e c0df 683e 7c04 9d3e 9195 a0be
000000f0: 45cc 853e 73a7 a53d 0ff7 ecbe 6fa1 d63d
00000100: 9e65 b83e 6b71 c03e 8058 f13e 04b5 083f
00000110: a2d4 85be bd8c 8ebe 8443 a9bd 7a21 08bf
00000120: e7b5 0dbf f397 bc3e 115f 1f3f 9ef4 9b3e
00000130: 6a13 d63e 636f 013f f83f 2cbf 9fa6 b23d
00000140: 2024 d1be e3c0 c4be c412 37bf f941 ab3e
00000150: 61b3 393f 0b3c 09bf 66ff ed3e 3aaf 553d
00000160: a961 2c3f bded 06bf cff0 3d3f a235 223e
00000170: 4e61 1bbf 8e80 db3e 7798 f9bd 3b93 0abf
00000180: 5e99 03bf f8a3 743d 2ef7 173f 8551 9c3e
00000190: 8b68 27be 4a26 83be a2a9 0cbe 2aa4 e0be
000001a0: a84b 1e3e ebce ef3e 6237 2b3f 5139 f43c
000001b0: f6fc 08bc 0b2c 973d 32b0 42bf 1196 26be
000001c0: 0584 473f 2ebc fdbc 98a1 72be a17f 7abe
000001d0: b149 7d3b 82ce f0be a6db 36be a04c 003e
000001e0: e599 0bbf d4f4 d7ba 76b2 aebc 8c73 193f
000001f0: 11ec 01be 9289 87bc 9784 1c3f 57d9 053f

sigma.tmlp.net.0.bias f4 [64]
-0.42248532 -0.03477682 0.16319002 0.41206142 -0.20391725 -0.09114891 0.07844568 -0.44826236
0.11161712 -0.5254742 0.5781752 -0.68789303 -0.23614153 0.2896328 -0.100684114 0.5098444
0.15139268 0.041310754 0.7199237 -0.26715773 0.6084632 0.09991641 -0.091681875 0.64757764
-0.29216278 -0.51803684 0.7152921 0.19458301 0.6130295 -0.33912086 0.5942259 0.14190958
-0.24573866 0.22663045 0.362858 0.22278878 -0.2523181 0.39266342 0.49770257 -0.5978398
-0.31342167 0.097496025 -0.063531354 0.44223714 0.32405928 -0.25183237 -0.59695226 -0.38780275
0.17639564 0.38619092 0.014388525 -0.04805705 0.334461 -0.062373508 -0.120598145 -0.48853052
-0.037416752 0.05446489 -0.5172554 -0.14368847 0.29367697 0.4538705 0.15813608 -0.09475482
00000000: ff4f d8be 2472 0ebd 491b 273e b7f9 d23e
00000010: afcf 50be 48ac babd 21a8 a03d a582 e5be
00000020: 8497 e43d 7a85 06bf 4a03 143f c219 30bf
00000030: 16cf 71be c04a 943e 7933 cebd 2a85 023f
00000040: af06 1b3e 7735 293d eb4c 383f e6c8 88be
00000050: 3fc4 1b3f faa0 cc3d b5c3 bbbd a6c7 253f
00000060: 5c96 95be 109e 04bf 621d 373f c540 473e
00000070: 80ef 1c3f 40a1 adbe 301f 183f bf50 113e
00000080: eaa2 7bbe d011 683e 86c8 b93e be22 643e
00000090: d72f 81be 2e0b c93e dfd2 fe3e 070c 19bf
000000a0: ce78 a0be ffab c73d ba1c 82bd e86c e23e
000000b0: 19eb a53e 2cf0 80be ddd1 18bf 158e c6be
000000c0: 0fa1 343e d1ba c53e d9bd 6b3c 78d7 44bd
000000d0: 793e ab3e 5d7b 7fbd 29fc f6bd ac20 fabe
000000e0: 4f42 19bd 9416 5f3d da6a 04bf 1223 13be
000000f0: d45c 963e b761 e83e 6dee 213e d10e c2bd

sigma.tmlp.net.2.weight f4 [64, 64]
-0.15556908 -0.13971993 -0.05009699 0.06817514 0.013433644 0.011871218 0.099759445 -0.08438806
0.056509472 -0.09958509 0.15433365 0.0006651271 0.11639339 -0.08803043 -0.047793154 0.09424234
-0.027562743 -0.011464433 -0.086456396 0.06619154 0.07686943 0.035946533 -0.1696887 -0.06230256
0.071231514 0.0767887 0.07909443 0.043616228 -0.09300926 0.04557769 0.14848429 -0.044337377
-0.25942236 0.07583135 0.0763776 0.0597276 0.034535706 -0.029211117 -0.07472462 0.03170705
-0.15820004 0.08799217 -0.17653655 0.03150511 -0.19098344 -0.11275069 -0.12300547 -0.10323019
0.048130088 0.039871994 -0.18514708 -0.04750522 0.05063824 -0.051151805 0.08083461 -0.064173974
-0.10121153 0.025238132 0.085337594 -0.17924823 0.1396497 -0.07629674 -0.020679442 -0.16519846
0.25009295 -0.0017165716 -0.089864306 -0.11383918 0.011577066 0.065956846 0.07159325 0.120807484
-0.09073548 0.09398658 -0.03550558 0.04706788 -0.015579224 0.0034137804 0.16031101 -0.17843059
-0.0730446 0.11431253 -0.16942897 0.08003332 -0.031837042 0.0378992 -0.08120175 -0.15211846
-0.026145 -0.07558013 -0.017036047 0.09475113 -0.1548668 0.06766203 -0.2116277 0.07265734
-0.09891775 -0.16531649 -0.026129914 -0.09824084 0.07135103 -0.26816002 -0.10556192 0.10150884
0.17904817 0.071631774 -0.11926665 -0.2724252 0.0967696 0.06493455 0.22789186 0.082027
-0.028123593 -0.0810615 0.013953591 0.12542227 -0.05753648 0.014010297 -0.08196731 0.18775886
-0.073736645 0.026568145 -0.11602086 0.05666831 0.07321713 0.08555778 0.10932364 0.07483624
-0.073122725 0.083984226 0.07687469 0.08904062 0.0047740936 -0.09671086 0.08489235 0.021592066
-0.11540967 -0.02274412 0.0061667413 -0.0656562 -0.12346263 -0.12252626 -0.106619015 -0.01959832
0.043531194 -0.09602223 -0.10118237 -0.015485853 0.02031055 0.0006874651 0.11513446 0.016790181
-0.11316389 0.03469315 -0.08283338 0.08975303 0.032042697 -0.11101565 -0.09543988 0.047694847
0.047024652 -0.021614328 -0.076136455 -0.036265373 0.082795426 -0.024877042 0.024621889 0.05394362
-0.053805396 -0.09035882 -0.0057748556 0.051548913 0.015413776 -0.075277746 0.010267749 0.098450914
0.004969567 -0.045934618 -0.07530238 -0.073658556 -0.09741333 -0.11072028 -0.06211926 0.08407651
-0.026968285 -0.09750478 0.05935362 -0.0031612217 -0.113740146 0.05123262 -0.024707064 -0.08862282
-0.022347515 -0.001304366 -0.13020657 0.109021276 0.016419744 -0.01735362 0.088817485 -0.037506845
-0.06612671 0.060773257 0.07736262 0.08696764 0.045930564 0.081181854 -0.1612137 0.09169964
0.013402536 0.076363 -0.020885559 0.03484924 0.01348238 0.00797603 -0.12132785 0.06848353
-0.10167891 0.020552916 0.039775454 -0.12979665 -0.12167857 0.101757206 0.038104035 -0.12216955
-0.014066476 -0.114515685 0.075150624 -0.044526257 -0.1877859 0.10021934 0.00059929705 -0.0073331045
-0.067756854 -0.035365105 -0.100415856 0.0805101 -0.15359896 -0.07258626 0.11022666 -0.097026914
-0.0053544138 0.103577115 -0.2640774 -0.15299566 0.093254745 -0.20728503 -0.11843194 0.0042072074
-0.11051615 -0.07883558 0.10042301 -0.02628564 -0.024787176 0.008730567 0.09373893 -0.0013524226
00000000: 804d 1fbe be12 0fbe 8032 4dbd 689f 8b3d
00000010: c918 5c3c 7f7f 423c ae4e cc3d a6d3 acbd
00000020: 7a76 673d 45f3 cbbd a409 1e3e ed5b 2e3a
00000030: a85f ee3d 4c49 b4bd c1c2 43bd 2102 c13d
00000040: 43cb e1bc 51d5 3bbc 0d10 b1bd 6e8f 873d
00000050: b86d 9d3d ac3c 133d e0c2 2dbe f830 7fbd
00000060: d4e1 913d 6543 9d3d 43fc a13d eea6 323d
00000070: a47b bebd acaf 3a3d 440c 183e 1c9b 35bd
00000080: 02d3 84be 784d 9b3d dc6b 9c3d eea4 743d
00000090: 5075 0d3d 274c efbc 3909 99bd 40df 013d
000000a0: 31ff 21be 3d35 b43d ffc5 34be 810b 013d
000000b0: 2a91 43be d5e9 e6bd 4bea fbbd 5a6a d3bd
000000c0: 0e24 453d d150 233d 3297 3dbe d594 42bd
000000d0: 0b6a 4f3d 8e84 51bd 9e8c a53d a56d 83bd
000000e0: fe47 cfbd 33c0 ce3c 7ac5 ae3d d98c 37be
000000f0: 5500 0f3e 7741 9cbd ef67 a9bc c929 29be
00000100: 2f0c 803e 96fe e0ba c70a b8bd 8424 e9bd
00000110: bcad 3d3c 6214 873d 7b9f 923d ea69 f73d
00000120: 86d3 b9bd 097c c03d 4d6e 11bd 40ca 403d
00000130: 0040 7fbc bbb9 5f3b 9228 243e 82b6 36be
00000140: 6898 95bd b01c ea3d ca7e 2dbe 82e8 a33d
00000150: 8f67 02bd 313c 1b3d 1a4d a6bd f1c4 1bbe
00000160: 0a2e d6bc c1c9 9abd 2e8f 8bbc e10c c23d
00000170: 6795 1ebe 6492 8a3d efb4 58be 5fcd 943d
00000180: 6495 cabd ba48 29be 670e d6bc 7e32 c9bd
00000190: 7d20 923d 454c 89be d930 d8bd dee3 cf3d
000001a0: 6758 373e aeb3 923d 1342 f4bd 517b 8bbe
000001b0: 242f c63d 68fc 843d 7c5c 693e c6fd a73d
000001c0: 7363 e6bc 9203 a6bd 9a9d 643c b26e 003e
000001d0: 5fab 6bbd 728b 653c 7ade a7bd dc43 403e
000001e0: 3d03 97bd 70a5 d93c 589c edbd 081d 683d
000001f0: ddf2 953d eb38 af3d 13e5 df3d be43 993d
00000200: 5ec1 95bd ecff ab3d 7a70 9d3d ee5a b63d
00000210: 0070 9c3b 5810 c6bd 0adc ad3d d8e1 b03c
00000220: e85b ecbd e051 babc 6012 ca3b c276 86bd
00000230: fad9 fcbd 0cef fabd 125b dabd a88c a0bc
00000240: c44d 323d 4ea7 c4bd b438 cfbd 60b8 7dbc
00000250: 5062 a63c 0037 343a 9ecb eb3d 908b 893c
00000260: 78c2 e7bd 681a 0e3d 8ca4 a9bd 70d0 b73d
00000270: 343f 033d 2c5c e3bd fc75 c3bd ac5b 433d
00000280: ec9c 403d 8810 b1bc 6eed 9bbd 008b 14bd
00000290: a690 a93d f0ca cbbc d8b3 c93c fcf3 5c3d
000002a0: 0c63 5cbd 0c0e b9bd 003b bdbb f424 533d
000002b0: 108a 7c3c 382b 9abd 103a 283c a2a0 c93d
000002c0: c0d7 a23b f025 3cbd 2238 9abd 4cda 96bd
000002d0: a480 c7bd 50c1 e2bd c470 7ebd 4e30 ac3d
000002e0: 98ec dcbc 96b0 c7bd c81c 733d 802c 4fbb
000002f0: 98f0 e8bd 4cd9 513d 7866 cabc e27f b5bd
00000300: 2312 b7bc 43f7 aaba df54 05be 8c46 df3d
00000310: b382 863c 2e29 8ebc f1e5 b53d c7a0 19bd
00000320: 716d 87bd 61ed 783d 4b70 9e3d 171c b23d
00000330: b021 3c3d ac42 a63d 3415 25be 05cd bb3d
00000340: 4f96 5b3c 3464 9c3d 3118 abbc 14be 0e3d
00000350: 33e5 5c3c e5ad 023c bc7a f8bd 1841 8c3d
00000360: 083d d0bd 975e a83c 96eb 223d 6ae9 04be
00000370: 9d32 f9bd 1566 d03d fa12 1c3d 0734 fabd
00000380: 1477 66bc 3387 eabd 92e8 993d 2a61 36bd
00000390: f24a 40be cc3f cd3d 251a 1d3a 8a4a f0bb
000003a0: 1bc4 8abd 00db 10bd d4a6 cdbd 7be2 a43d
000003b0: 0c49 1dbe 1ba8 94bd 84be e13d 0cb6 c6bd
000003c0: 1474 afbb 3d20 d43d 2735 87be e5aa 1cbe
000003d0: 58fc be3d 8742 54be 728c f2bd 9ddc 893b
000003e0: 4b56 e2bd 8c74 a1bd 94aa cd3d fc54 d7bc
000003f0: 7a0e cbbc a70a 0f3c 32fa bf3d c643 b1ba

sigma.tmlp.net.2.bias f4 [64]
0.05585106 -0.016277095 -0.088781685 -0.093407206 -0.039267786 0.05796925 0.04889913 0.13321126
-0.018168556 -0.079533726 0.075960875 0.1947835 -0.13493349 0.028908402 -0.067058526 -0.026665293
0.020263303 -0.08310644 0.0056706606 0.04377389 0.12943542 -0.038397837 0.07783816 0.011832329
-0.06181939 -0.047298055 0.006923929 -0.058698647 0.07956739 -0.09446123 0.019518672 0.051334225
-0.049715977 0.10081781 -0.081218965 -0.0853641 0.09629154 -0.039363746 0.08270314 -0.09785324
-0.11048631 -0.13391444 0.0894675 -0.081265405 -0.033467177 0.10903241 0.018050209 -0.023596475
0.071126424 0.13591532 0.10163684 0.14160137 0.06303623 0.10243788 -0.010918938 0.03315323
-0.10989225 0.10969791 -0.06065608 0.0784268 -0.13029766 0.09004816 -0.045519754 0.08842671
00000000: 15c4 643d 8b57 85bc 2cd3 b5bd 474c bfbd
00000010: 42d7 20bd 2a71 6d3d 744a 483d 8868 083e
00000020: 39d6 94bc 94e2 a2bd 6091 9b3d 5375 473e
00000030: 012c 0abe 50d1 ec3c fb55 89bd 2c71 dabc
00000040: 3aff a53c b633 aabd f3d0 b93b 404c 333d
00000050: b88a 043e 0d47 1dbd 9d69 9f3d 63dc 413c
00000060: 5436 7dbd 9bbb 41bd 20e2 e23b fe6d 70bd
00000070: 3af4 a23d e474 c1bd 9fe5 9f3c d643 523d
00000080: fba2 4bbd 9179 ce3d 2156 a6bd 60d3 aebd
00000090: 8034 c53d e13b 21bd 4460 a93d 4867 c8bd
000000a0: a646 e2bd de20 09be bd3a b73d 7a6e a6bd
000000b0: e114 09bd 624c df3d 08de 933c 654d c1bc
000000c0: bbaa 913d 632d 0b3e fa26 d03d f3ff 103e
000000d0: 2419 813d f4ca d13d 58e5 32bc aecb 073d
000000e0: 300f e1bd 4ca9 e03d 8272 78bd 3b9e a03d
000000f0: c06c 05be 2b6b b83d ec72 3abd 1019 b53d

sigma.tmlp.net.4.weight f4 [1, 64]
-0.03228954 0.13804649 -0.028754622 -0.037058912 -0.12071703 -0.057795353 -0.09320989 -0.13057776
-0.047962125 -0.13411868 0.102991685 -0.1542311 0.093451485 0.18124796 -0.024593534 -0.09449078
-0.13767561 0.070374385 -0.2019679 -0.028159317 0.19594164 0.00863104 0.06025256 -0.08502678
0.09481561 0.06254575 0.08892201 0.035680726 0.022860019 -0.024445709 -0.124274485 0.0019330641
-0.09681655 -0.076343685 0.098041154 -0.06410636 0.013349485 0.17163971 0.027041323 -0.06799051
-0.09884474 0.016674144 0.09143246 0.038861707 -0.113269314 -0.048340503 -0.053419366 0.0056285923
0.0069661695 -0.06925894 -0.08059653 -0.1384874 0.052627616 -0.07595656 -0.06268331 -0.18833852
-0.10199261 -0.040729806 0.093600996 0.07014179 0.090590775 0.009157657 0.098483846 -0.11874187
00000000: 0942 04bd 0f5c 0d3e d08e ebbc 16cb 17bd
00000010: 7d3a f7bd d2ba 6cbd d4e4 bebd 2db6 05be
00000020: ef73 44bd 6856 09be 4eed d23d c2ee 1dbe
00000030: 7e63 bf3d 1199 393e 6178 c9bc 6284 c1bd
00000040: d6fa 0cbe 7220 903d acd0 4ebe 5eae e6bc
00000050: eda4 483e 3569 0d3c 63cb 763d 8522 aebd
00000060: b02e c23d fc17 803d be1c b63d f425 123d
00000070: ef44 bb3c 5e42 c8bc 9f83 febd de5e fd3a
00000080: c147 c6bd 145a 9cbd cdc9 c83d 324a 83bd
00000090: ccb7 5a3c 52c2 2f3e c485 dd3c 9c3e 8bbd
000000a0: 1c6f cabd 3798 883c f140 bb3d 742d 1f3d
000000b0: bef9 e7bd b100 46bd 44ce 5abd 0e70 b83b
000000c0: 7744 e43b a2d7 8dbd cb0f a5bd a4cf 0dbe
000000d0: 0e90 573d 1d8f 9bbd 1b60 80bd d0db 40be
000000e0: 80e1 d0bd 4cd4 26bd e1b1 bf3d 80a6 8f3d
000000f0: a887 b93d ff09 163c e6b1 c93d f02e f3bd
