checkpoints/model.pt (torch, 39314 bytes, 10 tensors)

mu.tmlp.net.0.weight f4 [64, 2]
00000000: 12f7 c23e 229e 0cbc 4600 66bd b12c 56be
00000010: 086c 8e3e 7830 f63e 0a4e 08bf 420d 22bf
00000020: 0c93 e8be b409 7fbc 1f7a 883c 93dd 253f
00000030: dfaf 243e 50f2 e83e 95fd d13e bdd0 83bd
00000040: d668 033f 70ad 023e b26e 3c3f 4212 e53c
00000050: 8666 38bf de54 4e3e 721d b53e 275e e13d
00000060: ca48 afbc f302 30bf 54fe 783b bed0 05bf
00000070: 0471 033f 80eb 92be 33f9 c43c ee9a f5be
00000080: f45a ec3e 5494 ec3e 4b20 eabe 6936 ca3e
00000090: df05 443f a68e c13e dabf 42bf 5c44 643d
000000a0: a280 ca3e fd4c 4ebe 9ba4 2e3f df8d 0a3f
000000b0: 0cfa d23e 5973 8e3b 3353 1dbf 9cac 1abe
000000c0: fb03 ae3e 6527 cc3e 6fbd 87be 60e4 993e
000000d0: ed10 37bf 823d c73e 9bcc 5d3e 0ad0 a9bc
000000e0: 0203 6cbe c179 793b 6571 7bbe b48f 26bf
000000f0: af4e 873d f9c2 35bf 2342 a43d 8656 30bf
00000100: 2b37 12be bf60 f5be d297 9c3e dd6b fc3e
00000110: aebd b8bd 3374 423e 27cf d3be d221 07bf
00000120: 9f82 f2be e65d e7be a04e e83e 46ab 013f
00000130: d8ef a9be 4fd6 8abe 4b22 be3c 535e 9abe
00000140: 8598 a1bd 7b79 e9be 7e6b 193f b073 1e3b
00000150: 73bd c7be 11fb 0b3f 5261 833e 664b 233f
00000160: 2c8d 013f c55a 64be 4fea f63d 0fc4 3cbd
00000170: 8ac8 d9bc cd91 97be 0f86 de3e e883 06be
00000180: 2d96 1bbd aeeb 7e3d 3669 69be 2bc5 e93e
00000190: cc1d 4dbe 3305 0dbf 6011 273e ec85 643d
000001a0: 24ac cfbe df96 493c 72f5 133f a131 a03e
000001b0: 5a83 4dbf aa83 eabd 52c4 f1be 6988 13bd
000001c0: 06c6 a0bb eb0a 2ebf 85df 233e f011 16bf
000001d0: 69df 093f 614a 09bf 8c65 b6be cd4a b3be
000001e0: f7cc 77be 0eaf f23e 27ef a4be b659 7e3e
000001f0: 4d08 05bf 5d9b 0cbb a0e9 853e 050e 743e
0.38079125 -0.008582624 -0.056152605 -0.20915486 0.27816796 0.48083854 -0.5324408 -0.6330148
-0.45424688 -0.015566278 0.016659794 0.6479122 0.16082714 0.4549737 0.4101378 -0.06436298
0.5133184 0.12761474 0.7360641 0.027962808 -0.7203144 0.20149562 0.35374027 0.11004286
-0.021397013 -0.687545 0.0037993388 -0.5227164 0.51344323 -0.28695297 0.024044609 -0.47969764
0.46163142 0.46206915 -0.45727763 0.39494637 0.7657146 0.37804145 -0.7607399 0.055729255
0.39551264 -0.20146556 0.6821992 0.5412273 0.41206396 0.0043472466 -0.61455077 -0.15104908
0.33987412 0.39873806 -0.26511714 0.3005705 -0.715102 0.38914114 0.21660082 -0.020729084
-0.23048022 0.0038066956 -0.24554975 -0.65063024 0.066068046 -0.7100063 0.08020427 -0.68882024
-0.14278857 -0.47925374 0.3058458 0.49301043 -0.090205535 0.18989639 -0.41368982 -0.5278598
-0.4736528 -0.45188826 0.45372486 0.5065197 -0.331908 -0.2711663 0.023209712 -0.3015009
-0.07890419 -0.45600495 0.59929645 0.0024177842 -0.39011726 0.5467997 0.25660187 0.63786924
0.50606036 -0.22300251 0.120564096 -0.046085414 -0.026584882 -0.29603425 0.43461654 -0.13136256
-0.037985016 0.06223648 -0.22794041 0.4565824 -0.20030898 -0.5508606 0.16315222 0.05579178
-0.4056102 0.012304037 0.57796395 0.31287864 -0.8027855 -0.11450894 -0.47220093 -0.036018763
-0.0049064187 -0.6798541 0.16003235 -0.5862112 0.5385652 -0.5362912 -0.3562435 -0.35018006
-0.24199282 0.4739918 -0.3221371 0.2483891 -0.5196579 -0.0021454908 0.26154804 0.23833473

mu.tmlp.net.0.bias f4 [64]
00000000: efd7 d9be 492e ce3e 31a0 a4be 74b1 943c
00000010: eae7 32bf a357 82be 5e5d 153f b499 2b3f
00000020: 5060 1fbf 28a0 1dbf 145f b03e dfcc 133f
00000030: bff4 3dbd c92d 1d3e b1ba 703e 4289 17bf
00000040: 5eb9 043f 3dbb 25bf ee2e 5c3c 01eb 63be
00000050: 72f8 2ebe b0db 4ebe 32f2 a53d bf0e f83e
00000060: 5098 073f 451c aabe a284 c63e ff96 28bf
00000070: 66be b13e 0ff1 773e f61c 1f3f 5d0a 89be
00000080: 9bcb 153f 6e6b fe3d 3b62 ae3e 5626 1fbf
00000090: 3223 063f cd74 2d3f bd4a fabe bbf0 1cbd
000000a0: aac4 993e e1ea 3b3e 9554 fe3d 49b1 2abf
000000b0: 6fd4 903e 0cda 1a3d ddba f8be 9780 4f3e
000000c0: 78e0 13bf 614b f53c 128a 9cbe eb3f 5c3e
000000d0: e303 afbe e197 17bf f93b 20be 6af5 34bf
000000e0: beea f33e 852e f1be e8d2 143f 77c5 153f
000000f0: 2fa7 14bf 5610 d33e 84ef f1bd ca1c c43e
-0.42547557 0.40269688 -0.32153466 0.018151022 -0.6988512 -0.25457487 0.5834559 0.6703141
-0.62256336 -0.61572504 0.3444754 0.57734483 -0.046375986 0.15349497 0.23508717 -0.59193814
0.5184535 -0.6473883 0.013438923 -0.22257616 -0.17086962 -0.20200992 0.08102836 0.4844875
0.52966785 -0.33224693 0.38773066 -0.658554 0.34715575 0.2421305 0.62153566 -0.2676572
0.585138 0.12422834 0.3405932 -0.6216787 0.52397454 0.6775635 -0.48885146 -0.038315516
0.30032855 0.18351318 0.124184765 -0.66676766 0.28287074 0.037805602 -0.48580065 0.20263897
-0.5776439 0.02994317 -0.3057409 0.21508758 -0.34182653 -0.59216124 -0.15647878 -0.7068697
0.47640032 -0.47105804 0.5813432 0.5850443 -0.580676 0.412234 -0.11813262 0.38303214

mu.tmlp.net.2.weight f4 [64, 64]
00000000: ddae d4bc 8ec4 a6bd 9127 a33d 2b4d ed3d
00000010: 258a 09be 47e7 373d 6fd1 fabd fab2 8b3d
00000020: 557e d5bd 9d5c 903d aa5f e6ba f9ef 013d
00000030: 9378 d0bc 195f acbd a23f cebd fc5f d83d
00000040: 2805 96bd e8f0 23bd 643d c83d 35a7 883d
00000050: abb0 20be de13 313b e59d 9dbd 9480 c5bd
00000060: 4886 643d ddd4 c43c 1ec2 a53d 205d 793c
00000070: 902f 473c 25b4 b8bc 095a 34bd 568b e0bd
00000080: a08b a1bd 6c05 fabd bdd3 2fbd e5dd a3bc
00000090: 5d45 cc3d 2925 9f3c ba6a 943c e6da 54bd
000000a0: 42a7 463d 9047 373d 9ae0 1f3c a660 0dba
000000b0: 9520 94bd becb 93bd 4c49 063d 6692 763d
000000c0: 1c8b 02bd d3d8 c63d 22b2 ddbd 05c0 943d
000000d0: 0ee8 7d3d 858b 10bd a617 033c 7120 2cbe
000000e0: c5e1 80bd cea7 833d 06a6 39bd 522b 04be
000000f0: e142 e23d b980 953d 671b 723b a01b b23d
00000100: 5c55 903d 82d8 893d 6d66 a73d 46c4 cfbd
00000110: c81f 1a3d bda6 963d 38d3 61bd 28a4 b1bc
00000120: f39c 223e d04b 9cbc 7b3f 8abd 8a87 c7bc
00000130: 00b6 cabb 4c09 743d ede5 79bd 080e 8dbc
00000140: b1f5 92bd 189d da3c f4b1 513c 8e12 a03d
00000150: b385 073d ac4e 903d 911f ce3d fc35 4dbc
00000160: cc32 273d eed7 473d 0bd2 e4bd fcfa f13d
00000170: aa0a 2a3d ca3f abbd 20a9 9dbd f87b 863c
00000180: 4fd9 c7bd b18d 66bd 2d30 8abc a854 2f3d
00000190: dee9 acbd 6187 5dbc 1480 b1bd a64b c3bd
000001a0: 17b4 f53c cadc c43d e9c4 153d 2623 9ebd
000001b0: 0d30 8c3d e628 ccbd 28f2 433d a375 67bd
000001c0: 840a adbd a623 533d 008f bc3b cf3e d23d
000001d0: 983f d73d 762d 6cbd 0c2f fabd 14d1 4ebd
000001e0: f6f0 1e3d 84c4 7c3d 26fb 93bc 7045 b63b
000001f0: 55ea 223d bd35 49bd a20d e9bc 6284 a03d
00000200: 6fb0 b83c 3794 18bc 8c42 7fbd 40db 963d
00000210: bb69 353e 3ef8 e9bc e439 be3d 9eb2 793d
00000220: c394 c4bd 51d9 cb3c 4434 2b3d 15c0 9c3d
00000230: 8536 3abd 5e72 273c b000 463d 40e0 ac3d
00000240: 3c55 57bd 9605 b33d 40f7 df3c ef37 2a3c
00000250: 0b65 033e 0ba1 013d 2b29 46bd 9330 473c
00000260: 0044 de3b 972a bd3d b797 073d 8e55 be3d
00000270: d760 a1bd 4bc6 75bd ac2e aabd 6680 afbd
00000280: af81 fa3d 2584 c9bd 2a76 5abd 50fb 00bd
00000290: b109 cb3d d9bf a7bd b057 99bd d1e9 e2bd
000002a0: 58e6 be3d bd87 cb3d d4e6 813d f663 903c
000002b0: 882c 8a3d 5ba9 c73d c04b f83d 9cc0 b9bd
000002c0: 4285 d8bd 32ed 363d b555 86bd cb46 d23c
000002d0: 147f c3bd 8235 92bd fd1c a1bd dcb8 57bd
000002e0: e4fd 57bd 9af9 993d 4ac8 c23d fd59 f4bd
000002f0: f99c 69bd da8f 63bd 234d 893d 7970 bebd
00000300: aadb 883d 3862 183d 32c2 8ebd 1ab6 d33d
00000310: 04ae 14bd 307c e8bd 2c3b f33d 10b8 19bd
00000320: b0d0 f03c 84b4 9bbd aad6 a63d 28ad 74bd
00000330: 62a8 f43d 3ea0 8dbd e2cd 963d 60b4 983d
00000340: 640f 1e3d a0f8 cabb c8fd eb3c 90e4 eabd
00000350: c02a 6abc 721b b4bd a413 44bd 84d3 edbd
00000360: 52c7 d6bd 6003 47bd 74c8 d3bd e04b 76bc
00000370: 20ca 3abd 2aa9 933d 00bf 0b3c fcc6 533d
00000380: da96 b33d 005d 743d 005d 653b 42cc 91bd
00000390: 3404 39bd 08a4 a5bd 7ce8 a0bd 8855 c8bc
000003a0: 4a11 c9bd b047 683d ac89 25bd 80f3 86ba
000003b0: 7406 63bd fa2f e8bd 0acd b23d 8698 cebd
000003c0: e059 85bc 620c efbd a09f d6bb f028 873d
000003d0: 30f8 173d f054 aabc 58e7 dfbd 706c bd3c
000003e0: 80d8 bbbb f07e acbc 8014 51bb 1ccb d43d
000003f0: 8439 763d 8063 f7bb 008c 3b3a f266 82bd
-0.025962288 -0.081429586 0.07966531 0.11586984 -0.13431604 0.044898298 -0.122469775 0.068212464
-0.104244865 0.070489146 -0.0017576118 0.031722996 -0.02544812 -0.08416576 -0.10070731 0.105651826
-0.07325202 -0.040024668 0.09777334 0.06672517 -0.15692393 0.0027019898 -0.076961316 -0.09643665
0.055792123 0.024027282 0.080936655 0.015219957 0.012157336 -0.022546837 -0.044031177 -0.10964076
-0.078879595 -0.122080654 -0.04292654 -0.020003268 0.099741675 0.019426899 0.018117297 -0.05196657
0.048499353 0.04474598 0.009758139 -0.0005393125 -0.07232777 -0.07216595 0.032784745 0.06019821
-0.031870946 0.09709325 -0.10824992 0.07263187 0.061988883 -0.035289306 0.008001244 -0.1680925
-0.06293062 0.064284906 -0.045324348 -0.1290715 0.110479124 0.072999425 0.0036942603 0.08696675
0.07047531 0.06730749 0.08173833 -0.10144858 0.037627965 0.073560216 -0.055133075 -0.021684721
0.15880184 -0.019079119 -0.06750389 -0.024356622 -0.006186247 0.05957918 -0.06101029 -0.017218605
-0.07175768 0.026686236 0.012798775 0.07816039 0.03308649 0.070462555 0.100646146 -0.012525078
0.040819928 0.04878991 -0.11172875 0.118154496 0.041514076 -0.08361776 -0.07698274 0.016416535
-0.09758245 -0.05628747 -0.016868675 0.042805344 -0.08443044 -0.013521046 -0.08667007 -0.09535913
0.0299931 0.09612425 0.03656474 -0.07721548 0.068451025 -0.09968738 0.04783836 -0.05650867
-0.08449271 0.05154767 0.0057543516 0.10265886 0.105101764 -0.057660542 -0.12216005 -0.05049236
0.038804017 0.06171085 -0.018064093 0.005562477 0.039774258 -0.049123514 -0.028448883 0.0783775
0.022545068 -0.009312681 -0.062319323 0.07366037 0.17716114 -0.028560754 0.092883855 0.06096136
-0.095986865 0.024883898 0.04179789 0.07653824 -0.04546215 0.010220138 0.0483405 0.0844121
-0.05257152 0.087413 0.027339578 0.010389312 0.12831514 0.031647723 -0.048379105 0.012157577
0.0067830086 0.09236639 0.03310367 0.09293662 -0.07879799 -0.06000356 -0.08309683 -0.08569412
0.122317664 -0.09839658 -0.053335346 -0.03148967 0.09913958 -0.08190889 -0.07487428 -0.11079753
0.09321278 0.099379994 0.06342855 0.01762579 0.06746775 0.09749099 0.12123823 -0.090699404
-0.10572292 0.0446598 -0.06559316 0.025668522 -0.095457226 -0.07139112 -0.07866857 -0.05266653
-0.052732363 0.07518311 0.09510858 -0.119312264 -0.057034466 -0.05555711 0.06704166 -0.09298796
0.066825226 0.037203044 -0.069706336 0.103374675 -0.036298767 -0.11351812 0.118765205 -0.03752905
0.029396385 -0.0760279 0.08146413 -0.059735447 0.11946179 -0.069153294 0.07363488 0.07456279
0.038588896 -0.006194189 0.028807536 -0.11469376 -0.014292419 -0.08794297 -0.047870293 -0.11612609
-0.10487236 -0.048587203 -0.10340968 -0.015032738 -0.045602918 0.0721 0.008529425 0.05170344
0.08769007 0.059659004 0.003499806 -0.07119037 -0.045170024 -0.08087927 -0.07856843 -0.024454847
-0.09817751 0.05670899 -0.040414497 -0.0010295957 -0.055426076 -0.11337276 0.08730514 -0.10087685
-0.016278207 -0.11672284 -0.0065497905 0.06599605 0.037101924 -0.020792454 -0.10932797 0.023122996
-0.005732596 -0.021056622 -0.0031903088 0.103903025 0.060113445 -0.007549703 0.00071543455 -0.063672915

mu.tmlp.net.2.bias f4 [64]
00000000: d269 d83d aeb6 e1bd b526 193d 8807 debc
00000010: 8f3d b93d 9102 ba3c f369 4d3b 00b0 ac3a
00000020: 879b 3cbc cdbb 03bd 50ce abbc 49e8 8e3d
00000030: 4d77 263d 09de 7fbd 59ac 9fbd 5496 c03d
00000040: e068 2abd 996d 85bd 8630 083d b830 533d
00000050: b0f4 eebd 0b10 cabd 6800 d53d da60 ddbd
00000060: 033f b4bd f079 9bbd b3c1 733d 38c1 0f3d
00000070: bb32 f23d 3521 823d f9b8 5e3d 606a 31bd
00000080: 8ebc d03d 34d7 4e3d 9411 d9bd 1976 de3d
00000090: 78dc 483d 6017 103d 58b9 9c3d fabc 153d
000000a0: 88f6 dfbd 4f10 1c3d 6c0b 973d 505e 733d
000000b0: 336f fcbd 3f90 b13d f7ab d4bc aa37 5c3d
000000c0: c610 9abc 413e 8f3d 2b9a 4d3d c217 81bd
000000d0: 88c2 4a3d c0e8 bfbc 7bf5 e13d 66dd 3d3d
000000e0: 4156 8d3d c29e c93b fbc6 f83d e345 f2bd
000000f0: 10f4 a33d 1f81 0abc 41db 71bd 3497 f4bd
0.105670586 -0.110211715 0.03739043 -0.0271032 0.090449445 0.022706302 0.0031343668 0.0013175011
-0.01151169 -0.032161523 -0.0209724 0.06977899 0.040641118 -0.06246761 -0.077965446 0.09403673
-0.041603923 -0.06515045 0.0332494 0.051560134 -0.11667764 -0.09866341 0.10400468 -0.108094886
-0.08801081 -0.07591617 0.059510898 0.035096377 0.11826082 0.0635399 0.054375622 -0.043314338
0.10192214 0.050498202 -0.10599056 0.10862369 0.04903838 0.035178542 0.07652539 0.036557175
-0.10935694 0.03810149 0.073752254 0.059416115 -0.12325897 0.08670091 -0.025960905 0.053764023
-0.018806826 0.06994296 0.050195854 -0.063033596 0.049501926 -0.023426414 0.1103315 0.04635372
0.06901217 0.0061529586 0.121473275 -0.11829736 0.080055356 -0.008453636 -0.059046987 -0.11942902

mu.tmlp.net.4.weight f4 [1, 64]
00000000: f64d 90bd fd1b 1e3c 8429 0b3d 34f0 c3bd
00000010: 80aa 953d 12d6 fd3d c6e5 85bd aa30 b73d
00000020: 8657 f4bc 097c b23c 34de 82bd 9e3f ec3d
00000030: 9fd9 c8bc 00b5 8dbd 732b 01bd c289 853d
00000040: 50ad ae3d f388 7dbd d9e5 02be fdfc 713d
00000050: c155 6c3e 5199 b6bc 0506 ecbd 9a9b c8bd
00000060: 16ce 943d 7cca b3bd 928b 8d3d a2ce ac3d
00000070: aeae 41bd 16ae 98bd b0df ca3d c0d0 96bc
00000080: ca4c af3d 30c3 bc3d 2a07 ed3d af54 d93d
00000090: 0196 e23d 0026 4bba 3b3d 823d 0b69 c83d
000000a0: 0b41 3739 e104 07bd f06f 14bd 64fa 8abd
000000b0: e17b 32bd bd52 053e eba3 90bd 6b61 e63d
000000c0: efaf adba 832e cdbc 7984 393f 9e32 01bb
000000d0: c6a0 8ebd 40f7 d63b 91bd 39bd ffe8 a53d
000000e0: 5f90 7bbd 074a a73d b98d 9fbd e859 4a3d
000000f0: 17ef f4bb a9f9 113d b3ae a4bd af1e 4ebe
-0.0704612 0.009650228 0.03397514 -0.095672995 0.07307911 0.12394346 -0.065379664 0.08944829
-0.02982689 0.02178766 -0.06390038 0.115355715 -0.024517832 -0.06919289 -0.031535577 0.06520416
0.085291505 -0.061898183 -0.12782992 0.05907916 0.23079588 -0.022289904 -0.11524586 -0.09795304
0.0726587 -0.08778855 0.069113865 0.084378496 -0.04728573 -0.07455079 0.09905946 -0.018410087
0.08559568 0.092169166 0.11573632 0.10611855 0.11063767 -0.0007749498 0.06359335 0.0978566
0.0001747647 -0.032963637 -0.036239564 -0.067860395 -0.04357517 0.13019843 -0.07062515 0.1124905
-0.0013251285 -0.025046593 0.7246776 -0.0019714008 -0.06964259 0.006560236 -0.0453468 0.08101081
-0.06141698 0.081684165 -0.07790703 0.049402148 -0.007474791 0.035638485 -0.08041134 -0.20128892

sigma.tmlp.net.0.weight f4 [64, 2]
00000000: f70b 07bf 95f1 b2be 63a2 27bf 310b 053f
00000010: ca06 c1bd 71d4 2abe 9dad f73e bf02 d23d
00000020: 57f4 c2be c57e 70be 0224 2abd 8f24 31bf
00000030: dacf 26bf a82f 1dbe 5e47 9bbd a491 d6be
00000040: 672e 49bf 75fb 913e c4fe fabe 9cce 603e
00000050: 0175 103f 8455 c3be 6d79 7d3e 169d 61be
00000060: 072d 0d3f ad47 13bf f0c8 fe3e 6c3d 4bbe
00000070: 45e9 013f d9e3 17bf 86aa 243f c7e5 b13e
00000080: 0fc7 23bf c0ba 66be f163 17bf d63a 2e3f
00000090: 7264 dabe ae6e 193f f56f 4c3e 4a49 f3be
000000a0: 7283 023f 99a5 273f ea43 ad3e 430d 95be
000000b0: f128 323f 6c9e 0cbf 4690 abbd d851 a3be
000000c0: 8714 2e3f d7cd c53d 3914 163f a0e9 f2bd
000000d0: 854e 0e3f e561 b73e 5e74 e03e cfae b9bd
000000e0: e791 d1be 5a3d 093f a92f 04bf 15d7 a53e
000000f0: 756b bdbe e6cd 0cbf 5107 ec3e bf13 17bf
00000100: c67a 673e 338b c73d 5680 153f 099a d33c
00000110: 0b0c 00bf d9ff 603e 22b6 1d3f 991b 87be
00000120: 995b fcbc 0841 083e c44f 31bf 8022 2c3f
00000130: c6ce 203f 3527 9abe 45fa 01bf e174 c73e
00000140: 38f2 0dbd 3163 70be 9b44 e33d 3faf ff3b
00000150: c5e9 06be 4bef c9bd 1f05 813c d85f bfbe
00000160: 6cb4 11bf 261b b33d 1894 bdbc d126 c03d
00000170: 265a 1cbf 7942 87be fbb2 15bf 9a63 2fbe
00000180: 88cd aabd 5e05 14bf aeda 1e3f 93d2 273f
00000190: 505b 653e aec6 1d3f 89cf af3e 8f55 393e
000001a0: 7795 06bf f97a 06be 4238 84be 8c90 003f
000001b0: dff9 4bbf 90d6 d63e 9f3c 39bf 480e f4be
000001c0: 8b41 16bf 9132 e8be f32d 093e a0ec 2b3f
000001d0: 7828 05be 9e7a cabe fc8b e6bd b906 023f
000001e0: 2e2e d1be 6f62 f6bc bf1c 123f 2c0d 2d3f
000001f0: 947b 503e 3714 373e 7fb4 df3d a751 223f
-0.5275263 -0.34949937 -0.6548216 0.519702 -0.09425123 -0.16682602 0.48374644 0.1025443
-0.38077042 -0.23485859 -0.041538246 -0.6919641 -0.65160906 -0.1535021 -0.075819716 -0.4190799
-0.7858643 0.2851216 -0.49022496 0.21953815 0.56428534 -0.3815118 0.24753352 -0.2203258
0.5514683 -0.57531244 0.49762678 -0.1984765 0.50746566 -0.5933204 0.643227 0.3474562
-0.63975614 -0.22532177 -0.59136873 0.68058527 -0.4265476 0.5993451 0.19964583 -0.47516853
0.5098182 0.65487057 0.33840877 -0.2911168 0.6959372 -0.5492923 -0.08377127 -0.3189838
0.6800007 0.096584015 0.5862461 -0.11860967 0.5558856 0.35816875 0.4383878 -0.09066545
-0.40931627 0.5360924 -0.51635224 0.32390657 -0.36996046 -0.55001676 0.46099332 -0.59014505
0.22605428 0.09743347 0.5839895 0.025830286 -0.50018376 0.21972598 0.6160604 -0.26388243
-0.030805396 0.13306057 -0.6926234 0.6724014 0.6281551 -0.30108038 -0.50772506 0.3895636
-0.034654826 -0.23475339 0.1109707 0.0078028734 -0.13175113 -0.09860095 0.015749512 -0.3737781
-0.56915927 0.087454125 -0.023141906 0.09382404 -0.61075056 -0.26417902 -0.5847623 -0.17127839
-0.08339983 -0.5782069 0.6205243 0.65555686 0.22398114 0.61631286 0.34338024 0.18099044
-0.52571815 -0.13132848 -0.2582417 0.5022056 -0.7967815 0.41960573 -0.72358125 -0.47667146
-0.5869376 -0.4535108 0.13396434 0.67157936 -0.13003719 -0.39546674 -0.11257169 0.5079151
-0.40855545 -0.030076234 0.57075113 0.67598224 0.20359641 0.17878805 0.10923099 0.6340584

sigma.tmlp.net.0.bias f4 [64]
00000000: 0eab b2bd d057 b73e d79c 013f 1ecc 25bf
00000010: 8989 013f f466 67be 22bb c13e 59b9 383e
00000020: da35 b53e 7a7c c83e fcb3 733e b4b5 b6bd
00000030: 6539 25be 4c6d 02bf 03c0 293e 4b24 f3bd
00000040: f647 acbe 8cec 233f d953 2f3f a5c5 28bf
00000050: 14f2 19bf 9ccb 0fbf 47d2 4bbe 1709 9d3e
00000060: d937 0e3e 76fe 023c f1f8 f83e 1b4b 373f
00000070: 6bf3 90be f0bf 3bbe 1d6e 143f 806b ae3e
00000080: 40a9 013f 1143 4fbd 0b07 f5be 314e 1bbf
00000090: 9f7f 7c3e 4b3f 2e3f 23da 213e f997 00bf
000000a0: b2bc 7bbe f2b0 823e d2d5 29bf fa2e 0fbd
000000b0: b935 82bc df53 303e d3aa da3e 2722 ba3e
000000c0: 3fc6 1a3f b288 283f 02d8 a4be 0797 fabe
000000d0: a23f 2cbe 8cc8 363c 32cd 713e 58bd 70be
000000e0: f7df 22bf 1786 04bf 84cc bebe a657 dc3e
000000f0: 8068 a8be 5e8b 433f 03b0 ab3e fc00 863e
-0.08724032 0.35809183 0.50629944 -0.64764583 0.50600487 -0.22597867 0.37838084 0.18039455
0.35392648 0.39157468 0.23799127 -0.08921376 -0.16135176 -0.50948024 0.16577153 -0.11872157
-0.33648652 0.64032817 0.68487316 -0.6592658 -0.60135007 -0.5617006 -0.19904433 0.30670998
0.13888492 0.0079952385 0.48627427 0.71598977 -0.28310713 -0.18334937 0.5798052 0.3406639
0.5064888 -0.05060107 -0.47856936 -0.60666186 0.24658059 0.6806533 0.15805869 -0.5023189
-0.245837 0.25525624 -0.6634189 -0.03495691 -0.015894758 0.17219494 0.42708454 0.3635418
0.6045875 0.6583358 -0.3219605 -0.4894335 -0.16821149 0.011156213 0.23613432 -0.23509729
-0.63622993 -0.51767105 -0.37265408 0.4303562 -0.32892227 0.7638453 0.33532724 0.26172626

sigma.tmlp.net.2.weight f4 [64, 64]
00000000: 76ed 31be 882f c63d fc97 1b3e c508 3a3e
00000010: 4be7 c53d 7ea9 dd3d 5308 50bd 8e89 c13d
00000020: 0eff 133e b8f2 af3d 91c7 d5bb 6262 c03d
00000030: 4d25 fdbc d770 a43e 19e4 aa3d 83cb d4bd
00000040: c2ad acbd 36af 85bc 5d34 f83c 8612 e5bd
00000050: d1d2 89bd 7262 c0bd f335 37bd e8eb abbc
00000060: 7c54 bcbd 8735 8d3d d22e 87bc 89dd b13d
00000070: 09bc 8d3d 127e 0cbe 1730 76bd 142b 683d
00000080: 55ca e03c 9095 33ba 66a4 c93b 7651 043c
00000090: 709a f5bc 02a9 5cbd 6243 fe3b 51aa 2fbe
000000a0: 8014 c7bd a67c c33d 0e96 bb3d 20af d2bc
000000b0: 6a26 f43c f961 bd3d 4a26 943d 3a3e 64bd
000000c0: 991a 11bd c5bd 6f3c 2a02 1cbd 0859 693e
000000d0: c487 3a3d fe97 efbb 09c4 ddbc dcd8 6ebc
000000e0: d8c8 e2bd 105f 0bbd 1026 c73d 23b7 a83d
000000f0: 5a92 19be 2633 fa3d 6c99 373d daa8 bebd
00000100: 7050 e4bd e691 adbd bea0 c4bd c8ef 923d
00000110: c07b 00bb bc63 463d d6a4 efbd 62ec ef3d
00000120: 7479 0c3d 30b1 7c3c fa8b abbd 64ea febd
00000130: 00b0 cc39 e816 7dbd ccee 743d 1055 683c
00000140: 4800 acbc dc4e 08bd 2cc0 e8bd 80d0 df3d
00000150: 54ab dabd 34ab 343d 6a61 f5bd 80cb 633b
00000160: 6016 a43c 70ac 6e3c 00b6 e8bb 68c3 87bc
00000170: 10f0 6c3c b87d a3bc fc25 5ebd a495 82bd
00000180: d8c5 123d eae9 c6bd 3ce6 26bd b283 90bd
00000190: e0a1 353c 6e8c ccbd 7819 b6bd 40a2 3bbd
000001a0: de6d bcbd 00bf edbb f02e af3d cc54 263d
000001b0: d06b d8bc 5e27 93bd 102c 93bd 0e84 d8bd
000001c0: bc35 e7bd 403e 6d3c d085 b93d 989b d13c
000001d0: 5005 8b3d c065 4f3c 6cb8 ee3d 80af dbbc
000001e0: 2a5f e53d 181c 0bbd 00b5 a33d 0c66 e8bd
000001f0: f290 b33d 509f 57bd dc64 8d3d 1a6f 93bd
00000200: 7f7e 0ebe 6288 4bbd 44c4 d03d 47fd 12be
00000210: 2f1e fb3d f0fe cd3d 2ed7 943d 17f3 053e
00000220: 639a 963c d7fa d63d 39ab d9bd a3f7 11bc
00000230: c744 06be 8274 a33d b4a7 f5bd a7b6 85be
00000240: 234f 553c 4e7c f63d 09e9 8abc 9455 47bd
00000250: 5b49 c7be 8044 37bc 4a54 a8bd 9fc4 213e
00000260: a98d 14bc 63c0 9abe 05c1 90bd 1a9f 59bd
00000270: c6db 423c 43c6 debd 19ee 273e 0368 85bd
00000280: 28e7 193c ffb3 a8be 8863 59be 3986 abbd
00000290: 4c6e 313e ae62 05bd f0bf 50bd a52b 5dbe
000002a0: a08d 013d ee75 013e 30d4 113c d070 b23d
000002b0: ee09 0abe b2a0 b5bc cf1e d73d b47a 7d3d
000002c0: 9592 103e 6644 74bd 5836 69bc c806 3e3d
000002d0: 5999 b93c e3eb 18bc 12ed 7c3d e63b bfbd
000002e0: 0d82 9d3c 56c3 2e3b 789d 2fbd 1360 133d
000002f0: 71cf 4cbe 36e6 683d 528c b03c 2a73 ff3c
00000300: e09a e83c 562b aebc a3b5 1bbe f516 abbd
00000310: adbf 7f3d e4d5 a03d 03bb f9bd c523 6fbd
00000320: 4c56 82bc e1ec 90bd 07eb debd a838 c33d
00000330: 19a0 cb3d 5fda af3d 7d01 9cbd adf5 64bd
00000340: 9f3b 1d3e ef3e 143d cbfd b2bd 7880 c2bd
00000350: 04b2 43bd a6b0 9b3d edd5 c13d cb38 d9bd
00000360: 8eaa e8bd 04b8 b43d 2841 a9bd a39c f5bc
00000370: f2b8 67bd 52b3 92bb 7831 60bc 6eb1 873d
00000380: 0941 5d3d 348d f6bd ab3c 513e 7565 f1bd
00000390: 2240 b13d 01fb 7b3d 4502 c2bd f838 433e
000003a0: 48aa 0c3d 7019 d6bd 9440 2c3d 9c73 933d
000003b0: 4a98 013e 63af cc3b dc09 513d cdfe 3cbc
000003c0: e197 653d 8ad6 d7bb b78a a7bd 5848 babd
000003d0: a3c0 343e af4d a43d 541c bd3b 80e9 fc3d
000003e0: 3fe4 5b3e dfb3 babd 10c7 4abd bf4f 7abd
000003f0: d354 163e d41b 233b bd1a 953d d9ed a13c
-0.1737574 0.096770346 0.15194696 0.18167408 0.09663256 0.10823344 -0.05078919 0.094500646
0.14452764 0.08591217 -0.0065240343 0.09393765 -0.030901575 0.3211734 0.083442874 -0.10390379
-0.08431579 -0.016318899 0.030298406 -0.11185174 -0.06729663 -0.09393777 -0.044729184 -0.020986512
-0.091958016 0.06894975 -0.016501818 0.086848326 0.069206305 -0.13719967 -0.060104456 0.056681708
0.02744023 -0.00068505947 0.006153631 0.008076062 -0.029980868 -0.053872116 0.0077594975 -0.17154814
-0.09720707 0.09545259 0.0915948 -0.025718272 0.029803474 0.092472024 0.072338656 -0.055723406
-0.035425756 0.014632647 -0.038088 0.22787869 0.045539632 -0.00731182 -0.027071016 -0.0145780705
-0.11073464 -0.034026206 0.09724057 0.082380556 -0.14997235 0.12216787 0.04482405 -0.0930955
-0.11148155 -0.084750935 -0.09600972 0.07174641 -0.001960501 0.048434958 -0.11701362 0.11715008
0.034295514 0.015423104 -0.08376308 -0.1244705 0.00039041042 -0.061789423 0.059798047 0.014180437
-0.020996228 -0.03327833 -0.11364779 0.1092844 -0.106772095 0.044108585 -0.11981471 0.0034758747
0.0200302 0.0145674795 -0.007101774 -0.01657267 0.014461532 -0.019957408 -0.054235443 -0.06376198
0.03583321 -0.09712584 -0.040746912 -0.07056369 0.011085957 -0.09987722 -0.088915765 -0.04580903
-0.09200643 -0.007255435 0.085538745 0.040608212 -0.026418597 -0.07185243 -0.07186139 -0.105720624
-0.11289546 0.014480174 0.09058726 0.025586888 0.06788123 0.012658536 0.116562694 -0.026817083
0.11199792 -0.03396234 0.079935074 -0.11347589 0.087678805 -0.052642167 0.06904003 -0.07198925
-0.13915442 -0.04969061 0.10193685 -0.1435443 0.122616164 0.10058391 0.07267605 0.13081013
0.018384164 0.10497063 -0.10628361 -0.008909139 -0.13112174 0.079812065 -0.119948775 -0.26115915
0.013019356 0.12035428 -0.016956823 -0.048665598 -0.38923153 -0.011185765 -0.08219202 0.15797661
-0.009066978 -0.30224904 -0.070680656 -0.053130247 0.011893218 -0.10877659 0.16399421 -0.06513979
0.009393491 -0.32949826 -0.21229374 -0.0837521 0.17327231 -0.03256481 -0.050964296 -0.2159868
0.031629205 0.12642643 0.008900687 0.087129235 -0.1348035 -0.022171352 0.10503923 0.061884597
0.14118417 -0.059635542 -0.014234148 0.046393186 0.02265613 -0.0093335835 0.061749525 -0.093375966
0.019227052 0.0026666722 -0.042874783 0.035980295 -0.20001008 0.05686017 0.021551285 0.031182844
0.028394163 -0.021260899 -0.15206008 -0.08353988 0.062438656 0.078532964 -0.12193873 -0.05838372
-0.01591029 -0.07076431 -0.10884672 0.09532291 0.099426456 0.08586573 -0.07617471 -0.055898357
0.15354775 0.03619283 -0.087398134 -0.0949716 -0.04777719 0.076020524 0.09464631 -0.106065355
-0.11360656 0.08824161 -0.08264381 -0.029981917 -0.056572862 -0.004476943 -0.013683669 0.06625639
0.0540171 -0.12038651 0.20433299 -0.117869295 0.086548105 0.061518673 -0.09473089 0.190647
0.03434208 -0.104540706 0.042053774 0.07199785 0.1265575 0.0062464937 0.051034793 -0.011535359
0.056053046 -0.0065868543 -0.08180755 -0.0909583 0.1765161 0.080226295 0.0057711992 0.12349224
0.21473788 -0.09116339 -0.049506247 -0.061111208 0.14680795 0.0024888413 0.072804905 0.019766735

sigma.tmlp.net.2.bias f4 [64]
00000000: ba2d 14bd d075 1bbc ad6e b43d 4cd9 68bc
00000010: 0075 36bd 0e58 d93d d53f ee3d 6410 6dbc
00000020: f4be 603c 53bf 1c3e 9c48 533c 0c8a e5bd
00000030: 90f4 273c 66bf 513d 90e7 37bd 6eef 053d
00000040: 22d1 a0bc 10b3 9fbc 481b 2e3d 051a 93bd
00000050: 0355 163e add7 ce3d d1e9 a8bb 9833 e7bc
00000060: 133f bd3d d247 93bd 58eb 4c3d 7825 223e
00000070: 7c91 d33d d39c d2bd fab7 103c 1226 b5bd
00000080: 8bc6 0d3e f7cf b4bd 0427 113d dad5 54bd
00000090: 568a 8ebb 4e9c 893d 92d1 083d b364 1abd
000000a0: bf29 b7bd b113 d2bd 0db4 c33d f9ce 963c
000000b0: 6c3a d8bc cd89 6ebd 5366 2cbd 5026 e03d
000000c0: 1233 9e3d 86fe e2bd d3c7 85bc e595 9b3d
000000d0: 95b0 98bd 5120 bc3d 2c6b a53d 6e28 c6bd
000000e0: 7e59 9d3d a555 8c3c b0ea 783d 59b4 8fbd
000000f0: d47c d1bd 6a82 f0bd b2bc cdbd 21b7 8dbd
-0.03617642 -0.009488538 0.08810172 -0.014211964 -0.044545174 0.10612498 0.11633269 -0.01446924
0.013717402 0.1530736 0.012895729 -0.11207971 0.010251179 0.051207922 -0.04489857 0.03269904
-0.019630972 -0.019494563 0.042506486 -0.07182697 0.14680867 0.10099731 -0.005154826 -0.028222844
0.09240546 -0.07191433 0.05002913 0.15834606 0.10330483 -0.10283818 0.008832926 -0.08845152
0.1384527 -0.08828729 0.0354376 -0.051961757 -0.004349987 0.06719266 0.033402987 -0.03769369
-0.08943509 -0.10257662 0.09555826 0.01840924 -0.026395045 -0.058236886 -0.04208977 0.109448075
0.07724585 -0.11083703 -0.016330635 0.075969495 -0.07455555 0.09185851 0.08077082 -0.0967568
0.07683085 0.017130682 0.06077069 -0.070168205 -0.10228887 -0.117436245 -0.100457564 -0.06919695

sigma.tmlp.net.4.weight f4 [1, 64]
00000000: f08f 11be b0b4 703d 0744 84be 5b63 eb3d
00000010: 3657 b63d fc22 acbd c4a3 02be e370 f4bd
00000020: a522 af3d b7b1 9fbd 1263 683d c4bf 7a3d
00000030: dbcc 1f3e 8cea 923c 2b73 063d 79ed cabc
00000040: b153 143e ac56 223d cdf4 8bbd dad0 4bbe
00000050: ed43 42bd 1ac9 89bd 07d6 a0bd e90a 9a3d
00000060: 74de 0e3e eb2e 0f3e c194 b33d 470c 12be
00000070: 9c2b 92bd 737e 183d fc10 353e c065 33bc
00000080: 190a b3bd 46c2 01bd d2e6 ab3d 0982 6fbb
00000090: 260a d63a b6dd 933d 38b7 c63d 8978 ea3d
000000a0: 41eb 273d 1b2d 4f3e 361f ae3d c06c 963d
000000b0: dad4 e3bd 48ed 07be 00ff 98bd 50ea 853d
000000c0: 59c7 a03c 954e 56bc febd d6bd a34d c7bd
000000d0: 0aca e8bd 2864 11be 16e7 b6bd ae63 a83d
000000e0: d0ff 37bd 7369 c8bd 55b0 1abd 65d9 d53d
000000f0: 4937 953d 08f3 ab3d 7ac4 adbd 7e2e c7bd
-0.14215064 0.058766067 -0.2583315 0.1149356 0.08903353 -0.0840511 -0.12757784 -0.11935594
0.0855153 -0.07797568 0.056735106 0.06121804 0.1560549 0.017934106 0.032824676 -0.024771439
0.1448505 0.039633438 -0.068338014 -0.1990389 -0.04742806 -0.0672781 -0.078533225 0.07521612
0.13952047 0.13982742 0.08768607 -0.14262496 -0.07137224 0.037229966 0.1768226 -0.010949552
-0.0874216 -0.031679414 0.08393635 -0.0036546013 0.0016329929 0.072200224 0.09702915 0.114487715
0.04099584 0.2023205 0.08502047 0.07344961 -0.111245826 -0.1327411 -0.074705124 0.06538832
0.019626306 -0.013080259 -0.10485457 -0.09731605 -0.11366661 -0.14198363 -0.08930795 0.082221374
-0.044921696 -0.09785738 -0.03776582 0.10441855 0.072859354 0.08395964 -0.084847406 -0.097256646
