checkpoints/model.pt (torch, 39314 bytes, 10 tensors)

mu.tmlp.net.0.weight f4 [64, 2]
0	0xbd679d77	-0.056546655
1	0xbedac277	-0.4272649
2	0xbd9c0b43	-0.076193355
3	0x3ebfd0f4	0.37464106
4	0xbe834b3e	-0.25643343
5	0x3cca001e	0.024658259
6	0x3e8e414b	0.2778419
7	0xbf08c56f	-0.5342626
8	0xbe8d0129	-0.27539948
9	0x3f1dc902	0.6163484
10	0xbede1657	-0.4337642
11	0x3e66e002	0.2254639
12	0x3df0a688	0.11750513
13	0x39cb7321	0.00038804955
14	0x3e185eed	0.14879961
15	0xbd2d62dc	-0.042330608
16	0xbe83a3ba	-0.2571085
17	0xbe637567	-0.22212754
18	0xbf00dffc	-0.50341773
19	0x3d7f3919	0.062310312
20	0xbf079460	-0.5296078
21	0xbf132dbc	-0.5749166
22	0x3ee663fe	0.44998163
23	0xbf23ba51	-0.6395617
24	0x3f2521cb	0.6450469
25	0x3f1fd346	0.6243175
26	0x3f16cf44	0.5891001
27	0xbaa26f77	-0.0012392838
28	0x3e1b6902	0.15176776
29	0x3e5e715b	0.21722929
30	0xbed09388	-0.40737557
31	0x3b99bb65	0.0046915286
32	0x3f0ac75f	0.54210466
33	0xbeae7d7e	-0.34080118
34	0x3f01434c	0.5049331
35	0xbf2aeb6d	-0.6676548
36	0x3ebafbce	0.36520237
37	0xbc14bbcd	-0.009077978
38	0xbe2896cc	-0.16463774
39	0xbf130901	-0.57435614
40	0xbeabdd46	-0.33567256
41	0xbe953e77	-0.2914922
42	0xbedccd76	-0.43125504
43	0x3f1d59f4	0.6146538
44	0x3d8463ef	0.06464373
45	0xbefdc21f	-0.49562165
46	0xbe44cb6e	-0.19218227
47	0x3e5efd64	0.21776348
48	0xbec93e5d	-0.39305392
49	0x3b410577	0.002945272
50	0x3d1a6e6e	0.03770297
51	0xbedd4888	-0.432194
52	0x3dbef407	0.09323888
53	0x3edaf85d	0.4276761
54	0x3e96d700	0.29460907
55	0x3efc3e63	0.49266347
56	0x3f171ef0	0.5903158
57	0xbe8d0ed5	-0.27550378
58	0xbeb6a917	-0.3567588
59	0x3e45af9a	0.19305268
60	0xbe6bcd2b	-0.23027484
61	0x38c4d3e0	9.385473e-05
62	0x3efd668b	0.49492297
63	0x3f1480a3	0.58008784
64	0x3ee6477c	0.44976413
65	0xbf0de3f3	-0.5542595
66	0x3f14ff44	0.58202004
67	0xbedb024d	-0.42775193
68	0xbf05bc2d	-0.5224026
69	0xbad44a0b	-0.0016196383
70	0x3f2a8be8	0.6661973
71	0x39a91446	0.00032249297
72	0xbeb47f70	-0.35253477
73	0xbee9e234	-0.45680392
74	0xbe26b9c5	-0.16281803
75	0xbeba343b	-0.36367974
76	0x3d82d258	0.06387776
77	0xbeaf227b	-0.34205994
78	0x3edf165e	0.43571752
79	0x3e95a0f4	0.2922436
80	0x3e8e5e8e	0.27806515
81	0x3ebc316e	0.36756462
82	0x3e851605	0.25993362
83	0x3f07e139	0.5307804
84	0xbedfc74d	-0.43706742
85	0x3ef04699	0.46928862
86	0xbf07fe41	-0.53122336
87	0xbf18c488	-0.5967488
88	0xbf061f0a	-0.5239111
89	0x3ed414fe	0.41422266
90	0x3f1d67bb	0.61486405
91	0xbf0fafd1	-0.5612765
92	0xbe24591e	-0.1604962
93	0x3efa65a5	0.48905674
94	0xbf134500	-0.5752716
95	0x3f104e99	0.5636993
96	0x3f0b4abf	0.5441093
97	0xbe59f36d	-0.21284266
98	0x3e961f22	0.29320627
99	0xbed5b6aa	-0.41740924
100	0xbe7d65a3	-0.24745803
101	0x3ebc24e5	0.36746898
102	0xbf04bb9f	-0.5184879
103	0x3ec370bd	0.3817195
104	0x3f284159	0.6572471
105	0xbe9df2a3	-0.3084918
106	0xbe11cba2	-0.14237836
107	0x3ea970d4	0.33093894
108	0x3f12f8e4	0.57411027
109	0x3d47bd11	0.048764292
110	0xbc5e5258	-0.013569437
111	0xbf21a381	-0.6314011
112	0x3e345603	0.17610936
113	0xbf0df955	-0.55458575
114	0x3f5656dc	0.83726287
115	0x3e9a0dd6	0.3008868
116	0xbea5cb39	-0.3238161
117	0x3f0d0547	0.5508618
118	0x3e3196a7	0.17342626
119	0x3f1b8cce	0.60761726
120	0xbe8332c7	-0.25624678
121	0xbef0083b	-0.4688128
122	0x3f1f7bbf	0.62298197
123	0xbf0f7ae3	-0.56046885
124	0x3e5fc48b	0.21852319
125	0x3f1a3039	0.6022983
126	0xbf2f0a36	-0.68374956
127	0xbf1a1091	-0.6018153

mu.tmlp.net.0.bias f4 [64]
0	0x3ea4cd86	0.32188052
1	0x3e1391da	0.14411107
2	0x3f20d17e	0.6281966
3	0x3e3b79f4	0.1830824
4	0xbe3c3db8	-0.18382919
5	0x3f28e637	0.6597628
6	0xbd27cda8	-0.040967613
7	0xbeaf36a8	-0.34221387
8	0xbf1210fd	-0.5705717
9	0xbe389389	-0.1802503
10	0x3db5dd5c	0.088801116
11	0xbc116265	-0.008873557
12	0xbf3895f6	-0.7210382
13	0xbe5ba114	-0.21448165
14	0x3ed344fe	0.41263574
15	0xbf237d47	-0.63863033
16	0x3f3506f3	0.7071373
17	0xbee9cd59	-0.4566448
18	0xbecf354d	-0.40470353
19	0x3ea33f48	0.31884217
20	0xbe02a285	-0.12757309
21	0x3e8e8ab3	0.27840194
22	0x3f23a672	0.6392585
23	0xbe88670a	-0.26641113
24	0xbf1d0027	-0.6132836
25	0xbf349f86	-0.70555913
26	0x3f20d5f9	0.62826496
27	0xbeb7d68e	-0.3590588
28	0xbf1ebb9c	-0.6200502
29	0x3f21ce86	0.63205755
30	0xbeb81c94	-0.35959303
31	0xbe11d4f4	-0.14241391
32	0xbedfdbf3	-0.43722495
33	0xbde1f7c9	-0.110335894
34	0xbed83ccf	-0.42233893
35	0xbe76c133	-0.24097137
36	0x3f252da1	0.6452275
37	0xbdadfcf7	-0.08495515
38	0xbe7f21cc	-0.24915236
39	0xbf22f36d	-0.6365269
40	0x3ec7fbf1	0.39059404
41	0x3f2a1d08	0.6645055
42	0x3d331aed	0.04372685
43	0xbdac5631	-0.08414877
44	0xbf00862c	-0.5020473
45	0x3d24df4b	0.04025201
46	0xbf0060d5	-0.50147754
47	0x3d93a416	0.07209031
48	0x3ebbb4db	0.3666142
49	0xbf100f05	-0.5627292
50	0x3ea6dd43	0.32590684
51	0xbe9a7476	-0.30166978
52	0xbe3361c3	-0.17517762
53	0xbef1434b	-0.47121653
54	0xbf2b3e78	-0.66892195
55	0x3efc9853	0.49334964
56	0xbe3f7f46	-0.18700895
57	0x3ed7c629	0.42143372
58	0x3e9d07f7	0.3067014
59	0x3ec12bdb	0.37728772
60	0xbf1cdfc4	-0.6127894
61	0x3f2742ca	0.6533629
62	0x3efdf535	0.4960114
63	0x3f24b88d	0.643441

mu.tmlp.net.2.weight f4 [64, 64]
0	0xbda7d2d3	-0.081945084
1	0xbda846e5	-0.08216647
2	0xbc9a1bbc	-0.018812053
3	0xbc9cb373	-0.019128537
4	0x3c9d6640	0.019213796
5	0xbdc6a3ff	-0.096992485
6	0x3da609b1	0.08107317
7	0xbd8413d2	-0.06449093
8	0xbaa9c680	-0.0012952834
9	0x3dac96b2	0.0842718
10	0xbdefab8a	-0.1170264
11	0xbda4fb12	-0.080557
12	0x3dc59c9c	0.096490115
13	0xbda6f9b1	-0.081530936
14	0x3d090576	0.033452474
15	0x3ddb7d74	0.10717288
16	0x3da268aa	0.07930119
17	0x3d9f0c03	0.07765963
18	0x3de4a1b5	0.11163656
19	0x38eda000	0.00011330843
20	0xbc859f50	-0.016311318
21	0xbdf3ca37	-0.11903804
22	0xbdf633d2	-0.12021603
23	0x3da66bc8	0.081260264
24	0xbcf971c8	-0.030449763
25	0xbd23f094	-0.040024355
26	0xbe00f2f9	-0.12592687
27	0xbdc56c6c	-0.096398205
28	0x3dbb2d02	0.09139444
29	0x3d0825c4	0.03323914
30	0x3a69ba00	0.0008915961
31	0xbbeffc0d	-0.007323748
32	0xbd06a710	-0.032874167
33	0x3d8444fe	0.06458472
34	0x3da694d2	0.08133854
35	0x3dbc493a	0.09193654
36	0x3c051674	0.008123029
37	0x3cb49598	0.022043988
38	0xbcaa2930	-0.020771593
39	0x3cf1a30b	0.02949669
40	0x3de3225d	0.11090539
41	0x3c95a562	0.018267337
42	0xbdaf16a2	-0.08549239
43	0xbde4d9b4	-0.11174336
44	0x3c9e8218	0.019349143
45	0x3dec3bb9	0.11534829
46	0xbdd8f8fa	-0.105943635
47	0x3d3d0568	0.046147734
48	0xbde04129	-0.10949928
49	0x3d8993b0	0.06717622
50	0xbd0c53c8	-0.034259588
51	0x3de4ea1e	0.11177467
52	0xbd6af9a0	-0.057366967
53	0x3dfa395a	0.1221797
54	0x3d655c41	0.055996183
55	0x3ccc1877	0.02491401
56	0xbcd933e8	-0.026514009
57	0xbdf5065d	-0.11964104
58	0xbe013397	-0.12617336
59	0x3da97367	0.082739644
60	0x3d5fe558	0.05466208
61	0xbe030006	-0.12792978
62	0xbcba1acf	-0.022717861
63	0x3b1a1580	0.002351135
64	0xbcb48788	-0.022037283
65	0x3ca29260	0.019845188
66	0x3de1d202	0.11026384
67	0x3db84928	0.089983284
68	0xbcee0d7d	-0.029059166
69	0x3de8c73f	0.11366128
70	0x3ddd3f72	0.10803117
71	0x3d62b14c	0.055344865
72	0x3d6b2ea4	0.057417527
73	0x3dc433eb	0.09580215
74	0x3da6e74c	0.08149585
75	0xbc5c67e8	-0.013452508
76	0xbd1e9505	-0.038716335
77	0x3d19aeb5	0.03752013
78	0x3dfc2e4c	0.12313518
79	0xbd82eb08	-0.06392485
80	0x3d7bbbe1	0.061458472
81	0x3d14ea4c	0.036356255
82	0x3d16e202	0.03683663
83	0x3db30ab7	0.08742278
84	0x3d8055f9	0.06266398
85	0x3dc372e8	0.09543401
86	0x3dbd2965	0.09236411
87	0x3d77b7e9	0.060478125
88	0xbe08a059	-0.13342418
89	0x3d0191e0	0.031633258
90	0xbd0db674	-0.03459783
91	0xbdf2f283	-0.11862662
92	0xbc42e0aa	-0.011894384
93	0x3dbf8bfc	0.09352872
94	0xbd557b5e	-0.052119605
95	0x3da13837	0.0787205
96	0x3cfe78bf	0.031063436
97	0x3d33a242	0.043855913
98	0xbda1ef47	-0.07906967
99	0xbda2e329	-0.079534836
100	0x3da5968b	0.080853544
101	0x3d61ae82	0.055098064
102	0xbbc90d60	-0.0061356276
103	0xbd42cda9	-0.047559414
104	0xbd90777d	-0.070540406
105	0x3def39b2	0.116809264
106	0x3cd596f1	0.026072951
107	0xbcac992b	-0.02106913
108	0x3df21168	0.11819726
109	0xbe0bc0aa	-0.13647714
110	0x3e057c75	0.13035758
111	0x3d677a35	0.05651303
112	0x3d952dc7	0.07284122
113	0x3dde8890	0.10865891
114	0xbd32f03b	-0.043686133
115	0xbcf07460	-0.029352367
116	0xbde0ebe4	-0.109824926
117	0xbd98975d	-0.07450745
118	0x3db0b23f	0.08627748
119	0xbc6a17be	-0.014287887
120	0x3e5b2d1c	0.21403927
121	0xbdc2808d	-0.09497175
122	0xbd28a94f	-0.04117709
123	0xbdc7e4b1	-0.09760416
124	0xbdda032a	-0.10645135
125	0x3de1ceb9	0.11025757
126	0x3cc9999b	0.024609378
127	0xbdbb8cd8	-0.09157723
128	0x3db772b5	0.089574255
129	0xbd70b566	-0.058766745
130	0xbd0fbcd5	-0.035092194
131	0xbd922256	-0.07135455
132	0xbdc3347c	-0.09531495
133	0xbc56d500	-0.013112307
134	0x3d2a21f3	0.041536283
135	0xbdeccd20	-0.11562562
136	0x3b59d240	0.003323689
137	0xbe78ac13	-0.24284391
138	0xbdd06b76	-0.101767465
139	0x3dbb3b9c	0.09142229
140	0xbdcbff80	-0.09960842
141	0x3dd22675	0.10261241
142	0x3df3b6d7	0.11900108
143	0xbde68863	-0.112564825
144	0x3de18825	0.11012296
145	0x3d47df10	0.048796713
146	0xbe198543	-0.14992242
147	0xbd4e423e	-0.050356142
148	0xbd359acf	-0.04433709
149	0x3bcd7ab8	0.0062707327
150	0x3d1dfbbf	0.038570162
151	0xbdc92a7e	-0.09822558
152	0xbd526cf8	-0.051373452
153	0xbd42a2f8	-0.0475187
154	0xbc5035f0	-0.012708172
155	0xbdb54dfd	-0.08852766
156	0x3c772c7a	0.015086288
157	0x3d0b85bd	0.03406309
158	0x3d8852f4	0.06656447
159	0x3de8ff54	0.11376825
160	0x3d0d220b	0.034456294
161	0x3d8be019	0.068298526
162	0xbdf02dd4	-0.11727491
163	0x3d44963c	0.047994837
164	0xbd2cf61a	-0.04222689
165	0x3dd9fddd	0.10644124
166	0x3dfad2ce	0.12247239
167	0x3e08bdd2	0.1335366
168	0x3ddc51e6	0.107578084
169	0x3d572db6	0.052533828
170	0xbdd7212e	-0.105043754
171	0xbe868e4d	-0.26280442
172	0xbe11e659	-0.14248027
173	0x3d10b881	0.035332207
174	0x3cee0ce7	0.029058887
175	0x3d58c703	0.052924167
176	0xbd05db3a	-0.032679774
177	0x3da7e10a	0.0819722
178	0x3c6f44d0	0.0146038085
179	0x3d9ac3b3	0.07556858
180	0xbd092c13	-0.033489298
181	0xbd23dcd0	-0.040005505
182	0x3d08fb5f	0.03344285
183	0x3dd2fa86	0.1030169
184	0xbdcec1aa	-0.10095532
185	0xbda83e7a	-0.082150415
186	0x3d92f39a	0.071753696
187	0xbe069e26	-0.13146266
188	0xbd6a0d08	-0.057141334
189	0xbd940f8a	-0.07229526
190	0x3d6617fc	0.056175217
191	0xbd6995d4	-0.057027653
192	0x3ddcfcd5	0.107904114
193	0x3d93eab7	0.07222503
194	0x3defab50	0.11702597
195	0x3dc86ed0	0.09786761
196	0xbda9e020	-0.082947016
197	0x3ddeaafa	0.10872455
198	0x3dca8dd3	0.09890332
199	0xbde2b63a	-0.11069913
200	0x3daf2f3c	0.08553931
201	0x3d1b7e7a	0.037962414
202	0x3e022c2f	0.12712167
203	0xbdd192be	-0.10233067
204	0xbd05a81a	-0.032631017
205	0xbd50bb7b	-0.050960045
206	0xbcf21658	-0.02955167
207	0x3ddcbc67	0.107781224
208	0xbe232bd7	-0.15934692
209	0xbd349030	-0.04408282
210	0x3db8b8b8	0.09019607
211	0x3d7b4cb0	0.06135243
212	0x3df6bc4d	0.12047634
213	0xbd5b0966	-0.05347576
214	0xbdf15c85	-0.11785225
215	0xbdb5649e	-0.08857082
216	0x3dc7aaca	0.09749372
217	0x3da3f148	0.08005005
218	0xbdfe370a	-0.124128416
219	0x3cfb8063	0.030700868
220	0x3d801c1a	0.0625536
221	0x3d3d9971	0.04628891
222	0x3e43f075	0.19134696
223	0xbcdac84d	-0.026706839
224	0xbd65fe20	-0.056150556
225	0x3d921592	0.071330205
226	0x3e1552cb	0.14582364
227	0x3d280e4a	0.041029252
228	0xbddc4f44	-0.10757306
229	0x3e03fbf8	0.12889087
230	0x3bcf5b20	0.0063280016
231	0xbbd04420	-0.0063557774
232	0xbdd7f021	-0.10543848
233	0xbd2cb39e	-0.042163484
234	0x3d4dd6c1	0.050253633
235	0xbd374978	-0.0447478
236	0x3d898302	0.06714441
237	0xbdfab994	-0.122424275
238	0x397ed109	0.000243012
239	0x3d1c93b8	0.038226813
240	0xbdad9d4d	-0.08477268
241	0x3c89f4e8	0.016840413
242	0x3d565c84	0.052334324
243	0xbc857759	-0.016292261
244	0xbd882778	-0.06648153
245	0xbd3ecc06	-0.04658129
246	0xbdd2a84c	-0.10286006
247	0x3dc86b7f	0.09786128
248	0xbdf6a2dc	-0.12042782
249	0x3d160fd9	0.036636207
250	0xbc42a8d1	-0.011881069
251	0x3d429698	0.0475069
252	0x3c9b5360	0.018960655
253	0xbe1ac52a	-0.15114275
254	0x3dd3f1c8	0.103488505
255	0xbb4c2488	-0.0031149704

mu.tmlp.net.2.bias f4 [64]
0	0x3d8c28e1	0.068437345
1	0xbdabdb9a	-0.08391495
2	0x3aeb1bc6	0.0017937354
3	0xbddb11a7	-0.10696726
4	0x3dcd8cb2	0.10036601
5	0xbdb60c12	-0.08889021
6	0x3ddf565a	0.10905142
7	0xbdec8f98	-0.11550826
8	0x39e9aee5	0.0004457153
9	0xbdaee029	-0.08538849
10	0xbdbb89c1	-0.09157134
11	0xbd7b02a4	-0.061281815
12	0xbd969f02	-0.07354547
13	0x3defeafe	0.11714743
14	0x3de086eb	0.109632336
15	0x3dafea1a	0.08589573
16	0x3d887218	0.06662387
17	0xbd0d5ffa	-0.03451536
18	0xbdb8e534	-0.09028092
19	0x3dd18d2e	0.10232006
20	0x3d60d1e5	0.05488767
21	0xbd038ef1	-0.03211874
22	0xbd87e887	-0.06636148
23	0xbcd698d8	-0.026195928
24	0xbdc375f5	-0.09543983
25	0xbcb68086	-0.022278082
26	0x3cdbfc30	0.02685365
27	0x3d8050ca	0.06265409
28	0xbd954774	-0.07289019
29	0x3ddd8cda	0.10817881
30	0xbd45645a	-0.048191406
31	0x3caf5da0	0.021406949
32	0xbc4db476	-0.012555232
33	0xbcb6be6f	-0.022307603
34	0xbdd55b2d	-0.10417781
35	0xbd9efa13	-0.077625416
36	0xbe0701bc	-0.13184255
37	0xbdb36689	-0.087597914
38	0xbd44921b	-0.0479909
39	0x3d1e69e0	0.03867519
40	0xbdb68ad8	-0.08913201
41	0xbd30823f	-0.043092962
42	0x3c90636c	0.017625533
43	0x3ca06de9	0.01958366
44	0x3df72a86	0.120686576
45	0x3c3fafe7	0.011699653
46	0x3d3b1c59	0.04568133
47	0xbdf6185e	-0.120163664
48	0x3dfb0838	0.12257427
49	0x3cf533cf	0.02993193
50	0xbd90e7da	-0.07075472
51	0x3dd820d7	0.10553139
52	0xbdf87f80	-0.12133694
53	0x3b9f9240	0.0048697293
54	0x3ab4f846	0.0013806901
55	0xbd3799b6	-0.044824325
56	0xbcae41bb	-0.021271577
57	0xbdb56ddc	-0.08858845
58	0x3cf84c10	0.030309707
59	0x3c7f9f7d	0.01560199
60	0xbd19a814	-0.037513807
61	0xbd0098fb	-0.031395894
62	0xbc84febe	-0.016234752
63	0xbb842aa0	-0.0040334016

mu.tmlp.net.4.weight f4 [1, 64]
0	0x3dee9469	0.11649401
1	0xbdf68f29	-0.120390244
2	0x3d85f1e8	0.065402806
3	0x3d94ec01	0.07271577
4	0xbd469ba8	-0.04848829
5	0x3da3055f	0.07960009
6	0x3e52d4fd	0.20589061
7	0x3db20f4f	0.08694326
8	0x3c51b3a6	0.012799179
9	0x3d7bc780	0.061469555
10	0xbde45879	-0.11149687
11	0xbd9fcdb9	-0.0780291
12	0x3dd3642e	0.10321842
13	0x3dd63f82	0.10461332
14	0xbd0f3488	-0.034962207
15	0xbcc55d33	-0.024092292
16	0xbc48dfb0	-0.0122603625
17	0x3dcd0039	0.10009808
18	0x3d034720	0.032050252
19	0x3c382360	0.011238903
20	0xbddd6949	-0.10811097
21	0x3bbb4868	0.0057154186
22	0xbc6adf75	-0.014335503
23	0x3d24b940	0.04021573
24	0x3da861ee	0.082218036
25	0x3d9de692	0.077099934
26	0x3e183ecd	0.14867707
27	0xbc810cde	-0.015753206
28	0xbcd40943	-0.025883323
29	0xbcfdba7c	-0.030972712
30	0xbded9554	-0.11600748
31	0x3de7cd84	0.11318496
32	0x3d45599b	0.048181158
33	0x3d884c2a	0.06655152
34	0x3dd74864	0.10511854
35	0x3dadacca	0.084802225
36	0x3d2c52a7	0.04207101
37	0x3d79581d	0.060875047
38	0x3c300b76	0.01074492
39	0x3d8ab50d	0.06772814
40	0xbc9c5d08	-0.01908733
41	0x3c8a0ca2	0.016851727
42	0xbd8df2e4	-0.06931093
43	0xbde6afcd	-0.11264
44	0x3dc6c16d	0.09704862
45	0x3dadbf0e	0.084837064
46	0x3d5720a2	0.052521355
47	0xbdbf7612	-0.09348692
48	0xbd765da8	-0.06014791
49	0xbd7cd1d3	-0.06172354
50	0xbd827d42	-0.06371547
51	0xbc2251a6	-0.009907162
52	0x3d1cd5be	0.038289778
53	0xbd9e1b32	-0.07720031
54	0x3d734d98	0.05940017
55	0xbcbe1361	-0.0232026
56	0x3dcc6f5f	0.0998218
57	0x3da30764	0.07960394
58	0x3dd9f6ae	0.106427535
59	0xbde85165	-0.1134365
60	0xbdd7f7f2	-0.10545339
61	0x3dd4fd11	0.10399831
62	0xbe064821	-0.13113452
63	0x3d812a92	0.06306948

sigma.tmlp.net.0.weight f4 [64, 2]
0	0x3da7a54a	0.08185823
1	0x3d96f3de	0.07370733
2	0x3ec8b227	0.3919842
3	0xbeb22fa7	-0.3480198
4	0x3e6476d0	0.22310948
5	0xbf03c495	-0.51471835
6	0x3f3a0bc9	0.7267423
7	0xbd838c4a	-0.064232424
8	0x3f2553fb	0.6458127
9	0xbea3288d	-0.31866875
10	0xbf0aed32	-0.5426818
11	0xbebbc03a	-0.36670095
12	0xbf2d18e0	-0.6761608
13	0x3efb2428	0.49051023
14	0xbe364a5a	-0.178018
15	0xbe8ddb14	-0.27706206
16	0x3ea4c21a	0.32179338
17	0xbf29dbf6	-0.6635126
18	0xbf11db58	-0.56975317
19	0x3eec112d	0.46106854
20	0x3f19b59e	0.6004275
21	0x3ddc4e08	0.10757071
22	0x3f2699e5	0.65078574
23	0xbdd37196	-0.10324399
24	0xbd4a6b89	-0.04941896
25	0x3f2c721a	0.67361605
26	0x3ed3ac6e	0.4134249
27	0x3f375228	0.71609735
28	0xbf5434f7	-0.8289332
29	0x3e8087a8	0.25103498
30	0x3d4e90dc	0.050431117
31	0x3ed8b5da	0.42326242
32	0xbed70b76	-0.42000932
33	0x3e655be3	0.22398333
34	0x3d50f599	0.05101547
35	0xbd87ffd1	-0.0664059
36	0xbf072369	-0.52788407
37	0xbe70081a	-0.2344059
38	0x3dcc9f1c	0.09991285
39	0x3e8f83e9	0.28030327
40	0x3f2029ac	0.62563586
41	0xbd2d1367	-0.04225483
42	0xbecf8b9e	-0.40536207
43	0x3e858ccd	0.26083985
44	0xbf2267bb	-0.6343953
45	0x3de978d6	0.11400001
46	0xbf0ebefc	-0.5576017
47	0xbe1b588d	-0.15170498
48	0x3f25d3da	0.64776385
49	0xbe8b9d4b	-0.27268443
50	0x3f01fb11	0.5077372
51	0xbf1898a5	-0.5960792
52	0x3d92477e	0.07142542
53	0x3e87ba46	0.26509303
54	0xbf299d13	-0.662553
55	0xbef0035b	-0.4687756
56	0x3d5cf809	0.053947482
57	0xbed05087	-0.40686437
58	0xbd79e711	-0.061011378
59	0x3ea505d2	0.32231003
60	0x3dc45c7c	0.095879525
61	0xbcb3493d	-0.021885509
62	0xbf259e1a	-0.6469437
63	0x3ed8485f	0.42242715
64	0x3edffed8	0.43749118
65	0x3ed820a7	0.42212412
66	0x3ee01f6d	0.43773976
67	0xbea423c8	-0.3205855
68	0xbd0d7d17	-0.034543123
69	0xbef70ff5	-0.48254362
70	0x3e9b07ea	0.30279475
71	0xbef82b6f	-0.48470637
72	0x3deec2c2	0.11658241
73	0x3e99b120	0.30017948
74	0xbf09911d	-0.5373705
75	0xbee3ff1b	-0.44530568
76	0xbef008e6	-0.4688179
77	0x3e904b80	0.28182602
78	0xbf2a7335	-0.6658204
79	0x3ef55e70	0.47923613
80	0xbecdc29d	-0.4018754
81	0x3f12d8b6	0.57361925
82	0x3dc09c0f	0.09404766
83	0xbf15cbe9	-0.5851427
84	0x3db6b8ea	0.08921988
85	0xbd9634f0	-0.07334316
86	0x3ea3232b	0.3186277
87	0x3efc986b	0.49335036
88	0xbbff5329	-0.007791896
89	0x3d97d87e	0.074143395
90	0x3e9afaaf	0.3026938
91	0x3b17e4c4	0.0023177126
92	0x3f244223	0.64163417
93	0xbf1e465b	-0.61826104
94	0x3e21ac2f	0.15788339
95	0x3f2898c2	0.6585809
96	0xbf3b6cdd	-0.7321299
97	0x3cca67b0	0.024707645
98	0x3ea0bcf7	0.3139417
99	0x3f051b97	0.51995224
100	0x3c3f792e	0.011686606
101	0x3dbae4d2	0.09125675
102	0xbead7923	-0.33881482
103	0xbf116a38	-0.568027
104	0x3f302e69	0.68820816
105	0xbeb132ca	-0.3460906
106	0xbf1e3b3b	-0.6180913
107	0x3ec95feb	0.39330992
108	0xbe965912	-0.2936483
109	0x3e94fc8b	0.29098925
110	0x3ee8ed57	0.45493576
111	0x3ee4e358	0.447047
112	0x3ece91e2	0.40345675
113	0x3e676582	0.22597316
114	0xbe9f3d27	-0.31101343
115	0x3e1c6012	0.15271023
116	0x3d859dc2	0.065242305
117	0xbf028946	-0.5099071
118	0x3df39d50	0.11895239
119	0xbc554a14	-0.01301815
120	0xbec390c6	-0.3819639
121	0x3e676ede	0.22600886
122	0xbeb30d27	-0.34970972
123	0xbf219470	-0.6311712
124	0xbe5b0756	-0.21389517
125	0xbf3048b7	-0.68860954
126	0x3f053e7b	0.5204846
127	0x3f126ddb	0.57198876

sigma.tmlp.net.0.bias f4 [64]
0	0x3f2a8be1	0.6661969
1	0x3d9014e0	0.070352316
2	0x3f10ffc0	0.56640244
3	0xbeac3a1d	-0.33638087
4	0xbf1d405f	-0.6142635
5	0xbeb8b7ea	-0.36077815
6	0x3ee86611	0.4539037
7	0x3ea7d8c6	0.32782573
8	0x3d6ddda1	0.05807269
9	0x3e21a4b8	0.15785491
10	0xbf4b32ae	-0.79374206
11	0x3f410488	0.7539754
12	0x3f1ef1b7	0.6208758
13	0xbf09b8ac	-0.5379741
14	0x3e586073	0.21130542
15	0x3f16b019	0.58862454
16	0x3e823726	0.254327
17	0xbe41d970	-0.18930602
18	0x3eb7af7d	0.35876074
19	0xbc8ef250	-0.017449528
20	0xbc7ad61b	-0.015309836
21	0xbe32b277	-0.17450891
22	0x3f329899	0.69764096
23	0x3ea232f5	0.31679502
24	0xbe234d26	-0.15947399
25	0xbf0ca7bf	-0.5494346
26	0x3ed539d7	0.4164569
27	0x3e8535b6	0.2601754
28	0xbda00956	-0.07814281
29	0xbd5604dd	-0.05225073
30	0xbe840f5f	-0.25792977
31	0x3e99a887	0.3001139
32	0xbf1cf838	-0.6131625
33	0x3ea8a664	0.32939446
34	0x3e5ec853	0.21756105
35	0xbf11ebe9	-0.57000595
36	0x3ea5dd47	0.32395384
37	0xbd8609e4	-0.06544855
38	0xbf1585cd	-0.5840729
39	0x3f262b18	0.64909506
40	0xbefa7b9b	-0.48922428
41	0xbf0ba8b4	-0.54554296
42	0x3eb6420c	0.35597265
43	0x3dd78835	0.10524026
44	0x3f3b1adf	0.7308788
45	0xbe2a4869	-0.16629185
46	0x3f37fa5b	0.7186639
47	0x3e85e0db	0.26148114
48	0x3ebdedcc	0.37095487
49	0x3c890444	0.016725667
50	0x3e8dd5c1	0.27702144
51	0xbe21c71a	-0.15798607
52	0x3ee905da	0.45512277
53	0x3ef10b39	0.47078875
54	0x3dd1737e	0.102271065
55	0xbf21906f	-0.63111013
56	0xbeb51fd8	-0.35375857
57	0xbe853f95	-0.26025072
58	0xbecd7322	-0.40126902
59	0xbe842764	-0.25811303
60	0xbeb5d5d0	-0.35514688
61	0xbe9bcd9b	-0.30430302
62	0xbf13df7a	-0.57762873
63	0xbe81f1be	-0.25379747

sigma.tmlp.net.2.weight f4 [64, 64]
0	0xbd891a82	-0.06694509
1	0xbdc057da	-0.09391756
2	0x3a9398e2	0.0011260773
3	0x3dc4b232	0.096043006
4	0x3dd794f6	0.10526459
5	0x3e0df222	0.13861898
6	0xbd0f6bde	-0.03501498
7	0x3b524c60	0.003208898
8	0xbdd8f012	-0.10592665
9	0xbd9fefcd	-0.0780941
10	0xbcbb1228	-0.022835806
11	0xbe8ed109	-0.27893856
12	0x3d0985fe	0.03357505
13	0x3d5ae90c	0.053444907
14	0x3dfe80af	0.12426888
15	0xbca51324	-0.020150729
16	0x3e0ab2d0	0.13544774
17	0xbd83b5c8	-0.064311564
18	0x3da4825a	0.08032675
19	0x3d230dfb	0.039808255
20	0x3d701e20	0.05862248
21	0x3e22e984	0.15909392
22	0x3dfcc094	0.12341419
23	0xbd8cc52d	-0.06873546
24	0xbdf9ab0a	-0.12190826
25	0xbddb942c	-0.10721621
26	0xbbf0e139	-0.0073510674
27	0xbd74f043	-0.059799444
28	0xbd458268	-0.04822007
29	0xbd971aab	-0.073781334
30	0x3dfd9064	0.12381056
31	0x3d7d3ba9	0.061824474
32	0xbd7bd514	-0.061482504
33	0x3d160b5d	0.03663193
34	0xbe12e0c4	-0.14343554
35	0xbd0fcb24	-0.03510584
36	0xbe03489e	-0.1282067
37	0xbd7de7b9	-0.061988566
38	0x3e3e005b	0.18554823
39	0x3df011ca	0.11722143
40	0xbb236cc6	-0.002493666
41	0xbcd188f8	-0.025578007
42	0xbe105ab9	-0.14097108
43	0xbe5d4a3c	-0.2161035
44	0xbdf956ee	-0.12174784
45	0xbb8359a0	-0.004008487
46	0xbe844a79	-0.25838068
47	0xbe106e4e	-0.14104578
48	0x3e00faa3	0.1259561
49	0xbe22a186	-0.15881929
50	0xbe1ba037	-0.15197836
51	0x3cf38f33	0.029731369
52	0x3ccb5e08	0.024825111
53	0xbd949fa0	-0.072570086
54	0xbd9cdf45	-0.07659773
55	0xbcaa4148	-0.020783082
56	0xbc1b16d0	-0.009465888
57	0x3e198472	0.1499193
58	0xbda9b9ac	-0.08287367
59	0x3d38eb08	0.04514602
60	0x3de4462a	0.11146195
61	0xbc2407de	-0.010011641
62	0xbd1a0d74	-0.037610486
63	0x3d833315	0.064062275
64	0x3d8d0e7d	0.06887529
65	0xb99ded7f	-0.00030122322
66	0xbc5d096e	-0.013491018
67	0x3d72c739	0.059272025
68	0xbdc37d26	-0.095453545
69	0x3dd8ccf4	0.10585967
70	0x3dbd263c	0.09235808
71	0xbd74d636	-0.0597746
72	0xbdbaa099	-0.09112663
73	0xbce88634	-0.028384306
74	0xbc51cc58	-0.012805067
75	0x3cfbd6e4	0.030742116
76	0x3db41b17	0.087942295
77	0xbd5879b9	-0.05285046
78	0x3d0af95a	0.033929206
79	0xbd576134	-0.052582934
80	0x3c79f029	0.015255013
81	0x3b374580	0.002796501
82	0x3cc814ac	0.02442392
83	0xbbfe9e5c	-0.0077703428
84	0x3d9db5ee	0.07700716
85	0xba009700	-0.0004905313
86	0xbde4ec5a	-0.11177893
87	0x3cfb5378	0.03067945
88	0x3d513c2c	0.051082775
89	0xbdddef1d	-0.10836623
90	0xbd702886	-0.058632396
91	0x3caa8566	0.020815562
92	0x3d84d4c3	0.064858936
93	0xbdab786c	-0.08372578
94	0x3b773780	0.003772229
95	0xbe0bfd07	-0.13670741
96	0x3da76f3a	0.08175512
97	0x3be68fa0	0.0070361644
98	0x3dba0242	0.09082462
99	0xbdc83238	-0.097752035
100	0xbdcbf6a8	-0.09959155
101	0xbdbeb76e	-0.0931233
102	0xbda1ed1e	-0.07906555
103	0xbe15bdcf	-0.14623187
104	0x3c783ee0	0.015151709
105	0xbc97d8d0	-0.018536001
106	0xbbec2629	-0.0072066975
107	0x3d4d0fc0	0.05006385
108	0x3d86b384	0.06577209
109	0xbde356de	-0.11100553
110	0xbdfb389c	-0.12266657
111	0xbdb576a5	-0.0886052
112	0xbda7f2bb	-0.08200594
113	0x3d1e3234	0.038622096
114	0x3b6b826d	0.0035935894
115	0xbd4487dc	-0.047981128
116	0x3dd470be	0.10373066
117	0xbd077681	-0.033072
118	0xbd8f52f3	-0.06998243
119	0xbd8a92fe	-0.06766318
120	0x3dec54d7	0.115396194
121	0xbcfbcec8	-0.03073825
122	0x3dbeed12	0.09322561
123	0x3dba474a	0.090956286
124	0xbcc77da0	-0.024351895
125	0xbdbf5596	-0.09342496
126	0x3ab4c100	0.0013790429
127	0xbd673e86	-0.05645611
128	0xbd40c83b	-0.047065955
129	0x3cd149c2	0.025547866
130	0x3d528b41	0.051402334
131	0x3e17d516	0.1482738
132	0x3e841129	0.25794342
133	0xbe6b35de	-0.22969767
134	0x3d36ff7f	0.044677254
135	0x3e216241	0.15760137
136	0xbdcb716f	-0.09933745
137	0x3d8db090	0.06918442
138	0x3e3d35d8	0.18477571
139	0x3d5a6512	0.053319044
140	0x3d948058	0.07251042
141	0xbdaaffc3	-0.08349564
142	0x3dbfbb37	0.0936188
143	0x3b8ac393	0.00423474
144	0xbdb14d0b	-0.08657273
145	0xbcf0f068	-0.02941151
146	0xbdae77ec	-0.08518967
147	0xbc0f7c9f	-0.008757739
148	0xbdd19222	-0.10232951
149	0x3d435dbc	0.047696814
150	0x3dc4a017	0.09600847
151	0xbd89fd45	-0.067377605
152	0xbd8d8969	-0.069109745
153	0x393bde18	0.00017916446
154	0x3c0c0a1b	0.008547331
155	0x3d875a0b	0.06608971
156	0xbb36fe82	-0.0027922695
157	0xbe23c9f8	-0.15995014
158	0x3de37180	0.11105633
159	0x3d7af7a5	0.06127133
160	0x3df72b95	0.120688595
161	0xbd21b1fc	-0.03947638
162	0xbd16b10c	-0.03678994
163	0x3db1a38a	0.08673771
164	0xbcdb53e7	-0.026773406
165	0xbd9db011	-0.076995976
166	0xbe7a0604	-0.24416357
167	0xbdb352d9	-0.08756036
168	0xbe2486b1	-0.16067006
169	0x3d85af36	0.065275595
170	0xbd276a78	-0.04087302
171	0x3dc2fddb	0.09521075
172	0x3d89255f	0.06696581
173	0x3e34039e	0.17579505
174	0x3dbcc88b	0.09217938
175	0x3d09130b	0.033465426
176	0xbd8cc4f1	-0.06873501
177	0xbd3a3728	-0.045462757
178	0x3d891ee4	0.06695345
179	0xbe099f5d	-0.13439699
180	0xbdc64561	-0.09681202
181	0x3d1ec04b	0.038757604
182	0xbdd38612	-0.10328306
183	0x3d7ac255	0.061220486
184	0x3e13a2ff	0.14417647
185	0xbdeac8bc	-0.11464068
186	0xbdee7732	-0.116438285
187	0x3d4aaf98	0.049483865
188	0xbda73239	-0.08163876
189	0xbd9cb817	-0.076523
190	0x3c4065a0	0.011742979
191	0x3c985bec	0.01859852
192	0x3d9fadb0	0.077968
193	0xbe4c21c5	-0.19934757
194	0x3dd98e1a	0.10622807
195	0xbd1bb9fd	-0.03801917
196	0xbdb6e824	-0.08930996
197	0xbe621490	-0.22078156
198	0x3d6bbb2c	0.057551548
199	0x3dd7d9af	0.10539567
200	0xbd030b62	-0.031993277
201	0x3d2bbe6e	0.041929655
202	0xbd2cbff9	-0.042175267
203	0xbbd78a13	-0.006577739
204	0x3b25430b	0.0025216963
205	0xbe103d9c	-0.14086002
206	0x3d83a663	0.0642822
207	0x3dc9278c	0.09821996
208	0xbd80437d	-0.06262872
209	0xbd608410	-0.054813445
210	0xbd4955d2	-0.04915411
211	0xbd2483b2	-0.040164657
212	0xbee766fb	-0.45195755
213	0xbcae7fbc	-0.021301143
214	0x3e04e608	0.12978375
215	0x3cd99ad7	0.026563091
216	0xbe0c836b	-0.13722007
217	0xbd047f8e	-0.032348208
218	0x3e0a4aee	0.13505146
219	0x3d57f3e0	0.05272281
220	0x3d937532	0.072000876
221	0xbdb17a36	-0.08665888
222	0x3d2c44a0	0.042057633
223	0x3d1808bc	0.037117705
224	0xbde75a42	-0.11296512
225	0xbdaefa81	-0.085438736
226	0x3e581bc8	0.21104348
227	0xbcce0938	-0.02515088
228	0x3da2ddf6	0.07952492
229	0xbd6a5bf3	-0.057216596
230	0xbe6f7fb7	-0.23388563
231	0x3dd92dad	0.10604415
232	0xbd9bcf0b	-0.0760785
233	0x3dce6a24	0.100788385
234	0xbd89c74a	-0.067274645
235	0xbe3d873a	-0.18508616
236	0x3bf8108d	0.0075703324
237	0xbce8a755	-0.028400103
238	0xbddcde51	-0.10784591
239	0xbdc6e9d5	-0.09712569
240	0xbd83694a	-0.06416567
241	0xbde7c52e	-0.11316906
242	0xbcd06890	-0.025440484
243	0xbd56d52d	-0.052449394
244	0xbe617d86	-0.2202054
245	0x3ad4d3cf	0.001623744
246	0x3ded1270	0.11575782
247	0x3d37adfd	0.044843663
248	0xbdbac2ab	-0.09119161
249	0xbe25bd13	-0.16185407
250	0x3c7678f0	0.015043482
251	0x3c3c2f80	0.011485934
252	0xbc90098e	-0.017582681
253	0x3d9da5b8	0.07697624
254	0x3dd9295e	0.10603593
255	0xbe3d46fd	-0.18484111

sigma.tmlp.net.2.bias f4 [64]
0	0xbe10948c	-0.14119166
1	0xbe127b3e	-0.14304826
2	0xbb02620f	-0.0019894873
3	0x3df16159	0.11786146
4	0x3c686de6	0.014186358
5	0x3e01548f	0.12629913
6	0xbd6be027	-0.057586815
7	0x3decfddf	0.115718596
8	0xbdc754f0	-0.097329974
9	0x3bd61165	0.0065328353
10	0x3e1195de	0.14217326
11	0xbdc42a21	-0.09578348
12	0xbdaee5b4	-0.08539906
13	0x3d2c0bbb	0.042003375
14	0x3d9eedec	0.07760224
15	0x3e0b22e5	0.1358753
16	0xbdc2cc62	-0.09511639
17	0x3de369f5	0.11104194
18	0x3d458170	0.048219144
19	0xbd6daf3c	-0.058028445
20	0xbcfb1476	-0.030649405
21	0xbddff765	-0.10935859
22	0xbde5cd32	-0.112207785
23	0xbbad99ed	-0.0052978904
24	0xbdfc0790	-0.1230613
25	0xbd8b1eae	-0.06792961
26	0xbd783149	-0.060593877
27	0x3d88aa47	0.06673103
28	0xbc098046	-0.008392399
29	0xbd3b98b8	-0.04579994
30	0x3d295d17	0.041348543
31	0xbc9e7efa	-0.019347657
32	0xbc717510	-0.0147373825
33	0xbdd1aea3	-0.102383874
34	0xbe1a6981	-0.15079309
35	0xbe0e25ab	-0.13881557
36	0x3d093292	0.033495493
37	0xbd9e2420	-0.07721734
38	0x3c38c43b	0.011277254
39	0x3ce17ad2	0.027524386
40	0x3c7892b3	0.015171695
41	0xbdb3a874	-0.08772364
42	0xbd9792b3	-0.074010275
43	0x3ddcd0a0	0.107819796
44	0x3ba6fc6f	0.0050960104
45	0x3cab6f9c	0.020927243
46	0xbd613050	-0.054977715
47	0x3d9351c6	0.071933314
48	0xbd31b80c	-0.04338841
49	0x3e01c74f	0.12673686
50	0x3da454f6	0.080240175
51	0xbcad89b2	-0.021183822
52	0xbdf7b275	-0.12094585
53	0x3df054ae	0.11734901
54	0x3dd3750c	0.10325059
55	0x3db916b5	0.09037534
56	0xbd7f03c8	-0.062259465
57	0x3df8dc64	0.12151411
58	0xbd986f01	-0.07443047
59	0xbccf9604	-0.025340088
60	0xbc090131	-0.0083621
61	0xbd59013f	-0.052979704
62	0xbdb65a49	-0.08903939
63	0xbd06e81c	-0.0329362

sigma.tmlp.net.4.weight f4 [1, 64]
0	0x3d951dda	0.07281084
1	0xbbe5e5d4	-0.007015923
2	0xbd6534ca	-0.055958547
3	0xbd98a40c	-0.074531645
4	0xbd36c799	-0.044623945
5	0xbdf08194	-0.11743465
6	0xbd3dc065	-0.04632606
7	0xbdaafc33	-0.083488844
8	0x3dd87c61	0.105705984
9	0x3c7901f5	0.0151982205
10	0xbdffa5e3	-0.12482812
11	0xbdabd898	-0.08390921
12	0x3e19f323	0.15034156
13	0xbd95e63d	-0.07319305
14	0x3d8d7484	0.06906989
15	0xbdcbb0eb	-0.09945854
16	0x3e40912c	0.18805379
17	0xbde54c8c	-0.11196241
18	0x3ddf0c92	0.108910695
19	0xbd99fd76	-0.07519047
20	0xbe0bf677	-0.13668238
21	0x3dd7ae2e	0.10531269
22	0x3d4a3474	0.04936643
23	0x3dd292dd	0.10281918
24	0x3d9acfc8	0.075591624
25	0x3cbbe5d0	0.022936732
26	0xbcbab93a	-0.022793401
27	0xbe000d96	-0.12505183
28	0x3e285d4d	0.16441841
29	0xbd2b1bea	-0.041774668
30	0x3b576fee	0.0032873112
31	0x3db05589	0.086100645
32	0xbd9a8328	-0.07544547
33	0x3de5373b	0.11192175
34	0x3e3e0494	0.18556434
35	0x3d7925bf	0.060827013
36	0xbd802f1b	-0.06258985
37	0xbcb73c00	-0.022367477
38	0xbdb03642	-0.08604099
39	0xbcfed45d	-0.031107122
40	0xbc097b7d	-0.008391258
41	0x3dfed316	0.12442605
42	0x3ceedcef	0.029158084
43	0xbe13bb7b	-0.14426987
44	0x3e1e2aa9	0.15445961
45	0x3d6a4eaf	0.057203945
46	0xbe00920b	-0.12555711
47	0xbdc94476	-0.09827511
48	0xbd778ea6	-0.060438775
49	0xbd89f419	-0.06736011
50	0x3d2e501c	0.042556867
51	0xbdfe8d9d	-0.12429354
52	0x3cea3883	0.0285914
53	0xbda7d865	-0.08195571
54	0x3dd28d1e	0.10280822
55	0x3de393fd	0.11112211
56	0x3dafed5a	0.08590193
57	0x3df26f18	0.11837596
58	0x3d901705	0.070356406
59	0x3e318f25	0.17339762
60	0x3dda6f2a	0.10665734
61	0xbddfe30a	-0.10931976
62	0xbdde2ab5	-0.108479895
63	0x3d7c1c18	0.06155023
