checkpoints/model.pt (torch, 40850 bytes, 10 tensors)

mu.tmlp.net.0.weight f4 [64, 5]
00000000: 1da4 d6be 8ac8 56be 2930 dfbe 0322 fe3e
00000010: 701e b1be 63e9 80be 648d fa3e 40a8 91bd
00000020: 9146 cf3d 9fd7 35be cb65 6bbe d876 9d3d
00000030: 3a92 febe b12d d5be 69de c9be 4bda 02bf
00000040: 090b b9be 55d4 693e e85c c93e 8af0 943e
00000050: c0c3 ed3e e6f7 d43e 730b 40be 1a00 7f3e
00000060: e2cf 183e 6eb4 93bd 00ac f93e 69aa 523e
00000070: 4a00 0a3e fcc7 8dbd d3c6 d13e d1c7 81bd
00000080: 8634 bf3e b6a1 b23e 78dd c7bd 4461 483d
00000090: 80db a43e 2941 563e a197 81be 18d4 febe
000000a0: 50c9 cd3d fc56 22be 1f15 cb3e c3bd d53d
000000b0: 9fad bd3e 5501 f23d 5bb3 e0bd 3d0c d53e
000000c0: 3ae4 1dbe 578a e1bd 7888 80bd 3e2d bf3e
000000d0: baa6 413e 85f3 92be abff a43d 2e3c 1bbf
000000e0: ac63 94bd 4617 f13d 30f0 55be 92f9 9c3e
000000f0: 97e3 00bf 146d 0c3e 2824 613e eef6 c63e
00000100: 16fc d5bd 260c 773e 4516 2d3d b3b9 2b3c
00000110: 1d88 db3e 3b1c 89bc 4eb2 793e 78e7 c4be
00000120: 2f6d a63d 21b9 943e eba6 2b3b ec46 943e
00000130: a972 b93e 2e03 6ebe bab0 9b3d 3152 023e
00000140: c4da cfbe c8d3 45be 0be8 9fbe f35a 133e
00000150: 2719 36bd 8fd7 563e 07cf de3e b25d 013f
00000160: b5e3 9abe 5bef d63e acb3 11bf 9266 643c
00000170: 4ede 0c3f 6317 d4be 006d 64bd 9a12 cabe
00000180: 6708 4ebd bd62 7b3e eb45 083e e746 693d
00000190: 3ddf 57be 507e 90be 822d 4a3d ada5 af3e
000001a0: 8b6c 003e 687d 01bf 83ca cbbd c641 debd
000001b0: 827f de3e 007f 39be 9777 fdbe 8176 9abd
000001c0: 19ba 21be 34df 493c c9c8 a1bd c202 e73d
000001d0: 9a30 8fbe fc42 d7be 8033 f4be fe66 82be
000001e0: f897 85be 7a94 a5bd cd3b fabe 0ebf bbbe
000001f0: 18e7 bbbe 81ce 2f3e b50a 0cbe 3001 373e
00000200: d64e 0dbf 8502 c23e 54f1 983e 93ae d1be
00000210: 6154 a13e 2b8d 8d3e 70bc 85bd 67b0 efbe
00000220: 7f1e 903e 5986 6ebe 5013 92be 23ab b0be
00000230: 3cbe 06bf 73f6 34be 328d 6abe 1754 8b3d
00000240: 4606 903e f8d6 e53e fd00 f73e b27a 9bbd
00000250: 27ad bfbe f12a a33d c4da 05bf dcad d3be
00000260: 80e9 84be ee50 12be 4f20 5cbe 497d 903e
00000270: 5ba0 073b 8ca8 76bd cc10 89be bdd6 f13d
00000280: 8b77 55be 885c c6be c831 a33e 0bf4 f5be
00000290: 3fac c33e 69ba 9bbd 4438 b5be d9a0 94be
000002a0: add2 8c3e 04fe dfbd 1f7f 063d fcce 05bf
000002b0: aedc 8dbc 2483 03be 0feb 76bd 9c8f 22be
000002c0: 7fae b8be 8c20 c1be f459 ca3e a7cc 583c
000002d0: 1012 fc3e 40c3 41bd 9d54 9c3e 2812 06bf
000002e0: 84e7 9b3e 56de e2be 822c 313e 17ff bd3e
000002f0: 8776 ee3e d251 a8be 17b2 f63e 6dfb a13e
00000300: c6f4 a63e 8ee7 0d3d df87 933d 0d8c 26bf
00000310: 0549 7ebe 55b2 02bf 6c44 9a3c 7080 19be
00000320: e72f aa3e 7209 74be 52ec 47be 0122 c7be
00000330: 1311 343c 3c9a a2be 18ed e13c af79 983e
00000340: fe6f a3bd 9fb5 5a3d 3834 8cbe 037c 0b3e
00000350: 1b1f 9bbe a4f6 a93e 106e b1bd c9cf 993e
00000360: 542c c2be bf9d a8be 6297 223e 862c 52be
00000370: 24fe 6f3e 52b8 debe c257 8dbe 908f b4bd
00000380: bd7e acbe 13ef 61be 6c36 a33e 85eb c6be
00000390: 2477 703e 95aa e93d 0aed dd3e d4fe 01bf
000003a0: f42f 693d b36a 983e 8426 d0be dd97 0cbf
000003b0: ca83 31be fd0b f13e 8cbb c4be ee50 ba3e
000003c0: c9b3 223f ee3f 6dbe 4d61 e6bd e748 2a3e
000003d0: 6e43 653d d71e 2fbf de11 6b3d 37d4 92be
000003e0: 94e7 9e3d 867e 8f3e d3cf bdbe 2243 b8be
000003f0: 39d4 bb3e a10a 96bd 93a4 dd3c 5301 ef3e
-0.41922083 -0.20974937 -0.4359143 0.49635324 -0.34593534 -0.2517806 0.48935997 -0.07112169
0.10120881 -0.17758034 -0.2298805 0.07688683 -0.49720937 -0.41636422 -0.39427498 -0.5111434
-0.36141232 0.22834904 0.39328694 0.29089767 0.46438408 0.41595381 -0.18754368 0.24902382
0.14923051 -0.072121486 0.48764038 0.20572819 0.13476673 -0.069229096 0.40972003 -0.0633694
0.3734476 0.34889 -0.09759039 0.048920885 0.32198715 0.20923294 -0.25310996 -0.4977119
0.10048163 -0.15853494 0.39664552 0.10436585 0.37046525 0.1181666 -0.10971709 0.416109
-0.15419093 -0.11012714 -0.06276029 0.37339205 0.18911257 -0.28701416 0.08056577 -0.606387
-0.072455734 0.11772017 -0.20892406 0.30659157 -0.50347275 0.13713485 0.21986449 0.38860267
-0.10448472 0.24125728 0.042257566 0.010481286 0.42877284 -0.016737094 0.24384424 -0.38457847
0.08126294 0.29047492 0.002619202 0.2896036 0.3622029 -0.232434 0.07602067 0.12726666
-0.40596592 -0.1931907 -0.31231722 0.14390163 -0.04445758 0.20980667 0.43517324 0.5053359
-0.30251852 0.4197949 -0.5691478 0.01394047 0.5502671 -0.41424093 -0.055768013 -0.39467317
-0.05030098 0.24549384 0.13307922 0.056952383 -0.21081252 -0.2822137 0.049359806 0.34306088
0.12541406 -0.5058198 -0.099507354 -0.10852389 0.43456656 -0.18114853 -0.49505302 -0.07542134
-0.15793647 0.012321282 -0.07899625 0.11279823 -0.27966768 -0.42043293 -0.4769554 -0.25469202
-0.26092505 -0.0808496 -0.4887375 -0.366692 -0.36699748 0.17168619 -0.1367596 0.17871547
-0.5519842 0.37892547 0.2987162 -0.40953502 0.31509688 0.27646765 -0.06530082 -0.46814272
0.28148267 -0.23293437 -0.2853036 -0.34505567 -0.52634025 -0.17672138 -0.22905424 0.06803148
0.28129786 0.4489057 0.48242941 -0.07591762 -0.37436792 0.07967175 -0.52286935 -0.41343582
-0.25959396 -0.14288685 -0.214967 0.28220585 0.0020694945 -0.060219333 -0.26770627 0.11808536
-0.20846383 -0.3874247 0.31873918 -0.48037753 0.3821735 -0.07603914 -0.3539449 -0.29028967
0.27504483 -0.109371215 0.032836076 -0.5226896 -0.017317142 -0.12842995 -0.060282763 -0.15875095
-0.3607063 -0.37720144 0.39521754 0.013232387 0.4923253 -0.047305346 0.30533305 -0.52371454
0.3045007 -0.44310254 0.17302135 0.3710868 0.46574804 -0.32874924 0.48182747 0.31637135
0.32608622 0.034644656 0.0720365 -0.6505745 -0.24832542 -0.51053363 0.018831454 -0.14990401
0.33239672 -0.23831728 -0.19523743 -0.3889313 0.010990399 -0.31758296 0.027578875 0.29780337
-0.07980345 0.053395864 -0.2738359 0.13621525 -0.3029717 0.33195984 -0.08663571 0.3004134
-0.37924445 -0.3293285 0.1587806 -0.20524797 0.2343679 -0.435 -0.27606016 -0.08816445
-0.33690444 -0.22063856 0.31877458 -0.38851562 0.23482949 0.11409489 0.4334491 -0.5077946
0.056930497 0.29768905 -0.40654385 -0.54919225 -0.1733543 0.4707946 -0.38424337 0.3638987
0.6355558 -0.23168918 -0.112490274 0.16629373 0.05597251 -0.6840643 0.057390086 -0.28677532
0.07759014 0.28026217 -0.3707262 -0.35988718 0.3668535 -0.07326246 0.027056014 0.46680698

mu.tmlp.net.0.bias f4 [64]
00000000: 1ebb d1be b38d ff3e 26fb a23c 78c9 aabe
00000010: 405b 31be 8334 ef3d 0575 1dbe dd48 ddbe
00000020: dd7b dc3d 7cdb 093f 56eb b2be 46a2 ddbd
00000030: c495 05be cd89 b7be 4bc2 653e 84ca c93e
00000040: 4bf9 543e e603 48bd 5b85 2abd ee9a aebc
00000050: 4810 77be 4a47 d2be 9eaf 94be bc0e 8b3e
00000060: 79ff 073e 6204 75be a151 933e 4da9 d63e
00000070: c488 11bf 18de 46be e2c2 be3e af0c ea3e
00000080: e9b1 3e3c b862 4ebe 07e9 463e 360e edbd
00000090: e7bb 413e 17ea 06be c929 463e bfe3 a5be
000000a0: 31d1 d1bd b4fc f4be 906d 86be c2ce eebe
000000b0: c5e5 be3d ad91 e53c 8fff 8f3e b065 e33e
000000c0: e429 ce3e ad07 b13e 6af1 c7be 5561 63bd
000000d0: 6a45 883d 3e38 293e fc00 9d3e c129 9abe
000000e0: ce8c 123e 1c07 573e 9fb2 923e 5c4e 763e
000000f0: 879f d0bb ba8d c53e 15e9 6fbe 33db 65bd
-0.40963072 0.49912795 0.019895148 -0.33356833 -0.17319965 0.11679938 -0.1537667 -0.43219653
0.107658125 0.5385053 -0.34945172 -0.10821967 -0.13045412 -0.3584732 0.22437398 0.3941232
0.20798223 -0.048831843 -0.041631084 -0.02131411 -0.24127305 -0.41070014 -0.29040235 0.2715968
0.13281049 -0.23927453 0.28773215 0.4192604 -0.5684931 -0.1942066 0.3725806 0.45712802
0.011639097 -0.20154846 0.1942483 -0.11574976 0.18919335 -0.13175236 0.19351877 -0.3240032
-0.10244978 -0.47849047 -0.26255465 -0.4664212 0.09321169 0.028023565 0.28124663 0.4441352
0.40266335 0.3457617 -0.39051372 -0.055512745 0.06653865 0.16525361 0.30664814 -0.3010998
0.14311525 0.20998806 0.28651902 0.24053329 -0.0063666734 0.3858469 -0.23428757 -0.056117248

mu.tmlp.net.2.weight f4 [64, 64]
00000000: 6c34 2d3d 0d14 4abd 51af 20be 98a9 333e
00000010: 510e 5fbd 2ee2 dbbb 3ca1 12be 2a41 ef3d
00000020: db93 373d b564 c73b 65e0 363d 1290 c6bd
00000030: 85de 713d 8db7 70be dd54 06be a1be a8bd
00000040: 9056 04bc 4d83 123e 33ca 80be 9faa 143b
00000050: 1803 28bd 90b3 36be 52ce dd3e f132 573d
00000060: aa6b 403d af0c 943e 55d1 603c dd0c c93c
00000070: 4a87 acbe e3bf 963d e61d 66bb bcd3 fe3b
00000080: 76f3 0c3e ff3c 993d a6d9 55bb 33fe 293e
00000090: c036 af3a 9be5 edbd 17d9 d93c 1ffa 39bd
000000a0: 4c6b 68be 82d5 6dbe f39b 03bf f874 dc3e
000000b0: be25 423d 291e 60be 76aa c4bd 9a05 2e3e
000000c0: 9dba 803d 42e1 adbd 6a94 cb3e 48e1 c7bc
000000d0: 7022 04bc 1774 c3bb 93a4 853c 41aa 61bf
000000e0: 834b 18be d93c 23bd 04b3 84be 9d24 8dbb
000000f0: 9aff 7b3d ae20 12bd a766 2a3e 3d88 503d
00000100: 1cac 8abd c167 393d 110a 973d 9a23 723c
00000110: e8b3 973d ed86 fc3d 5c38 7b3d 4e62 5fbd
00000120: 019f 4d3d 1b94 efbc ab3c dbbd 4e36 e03d
00000130: 289c 323d a04f b939 8a75 ddbd 42d6 0f3d
00000140: 326e 2cbe c19c b6bd 2c60 99bc e96c ab3d
00000150: 94cc 5abd c670 e8bc ca60 e53d d3e4 ee3d
00000160: 8d95 0cbb 5df1 e93d 9996 c83d 9625 e93d
00000170: ff81 2b3c c749 14be 14fb 94bd 2af1 7e3d
00000180: d372 cebd 7f22 c23c 4d42 773d ff66 2cbd
00000190: f3aa 113e fcc3 ce3d 5461 d33d 00f7 8cbd
000001a0: 6fce b13b 6f10 14bd bbae 953d 84ca d93c
000001b0: 49fc 1cbe 9234 c53d 935d a6bb d461 4abc
000001c0: 988a f03d c89b 18be 088b 80bc 0fe3 a9bb
000001d0: 33e6 7bbd ee2f 4abd 1b5b d7bd 3cab e13d
000001e0: e074 203d 4084 5abb 8368 323c 22cf c0bd
000001f0: 52a7 15bd 27e1 92bd a527 07be cc1d c73c
00000200: 66c2 2c3d 026d 9cbd 1ca3 08be 154f b03d
00000210: d490 8ebd b059 3a3d 2340 213d 69f2 4abd
00000220: 1748 ef3d fd95 98bd 92d5 e8bd 081e 8d3d
00000230: 90ae 29bd 59f1 e23d 8267 88bd 97df f03d
00000240: 147b 97bd affa 9f3d ee25 3c3e 7a8e 85bd
00000250: 5c7a 113e 2442 baba cfc4 89bd 6ce0 9fbe
00000260: 078f 0ebe 0900 f73d a8d0 f93d b1ea 2ebd
00000270: dedb e8bd 0ce4 1e3c ead3 5dbe 2435 9bbd
00000280: 9dac 98be b2a4 3b3d fa7e 7abe a06c 83bd
00000290: 36ea 383c 3c61 90bd bc3e ca3d 58ef d1bd
000002a0: 5c3a 6bbe 7f3a 363e 0781 7f3d f438 c63d
000002b0: 566b 733d 5d25 593d f113 53bd f900 30be
000002c0: e743 013e ed4d 3b3d 798a 31bf e120 f53d
000002d0: 0c48 22bd cba6 9cbd 59b4 703d 42cb c43e
000002e0: 17c3 95bd 2486 e3bd 204f 1abd bd3d 6d3c
000002f0: 7196 5f3d 4c1e 2b3d d355 8abd e467 043e
00000300: 3379 673e c43e bd3d 0ab4 35be 9c6a d1bd
00000310: f5ae a53d 7371 37bd 30ea d13c a287 6cbe
00000320: 3fee 05bd c52d d2bc d68e c43d 96c5 3f3e
00000330: c365 99bd 8140 e5bc 217c 013e 8728 193d
00000340: 21ef d4bd 18b1 0e3e ec4b 63bc e199 bdbd
00000350: c9de cf3d f08a 9f3d 9df9 f6be c3ee 55be
00000360: 34de a9bd 69b6 c9bd 8d30 a53d 50a5 d33b
00000370: 7686 413e 95e8 09bc 449d 42be a133 71bd
00000380: b5d1 80be b0d4 943c 554e 8dbe 8b00 623d
00000390: e833 cabd ae20 923d a938 1a3c 5334 103c
000003a0: c36f 0bbe 8456 cdb9 76a3 f1ba 6248 8dbd
000003b0: a2a0 6c3d 6b33 34be 8376 cf3d 920c 9fbd
000003c0: 29b6 bebd 667d 1bbd dbaf 2cbf cf71 11bc
000003d0: dfe1 e73d f3ab 203d 42f0 77bc 6deb 773d
000003e0: bd96 603d 7547 5dbd a8b3 153d c98d c53d
000003f0: 1a37 593d 21d8 3cbd b42b 63bd 1f3d ed3d
0.04228632 -0.04933553 -0.15691878 0.17545164 -0.054457013 -0.0067103123 -0.14319319 0.11682351
0.04481874 0.0060850033 0.044647593 -0.09695448 0.0590501 -0.23507519 -0.1311831 -0.082394846
-0.008077279 0.143079 -0.25154266 0.0022684706 -0.041018575 -0.17841935 0.43321472 0.052538816
0.046977676 0.28915927 0.013721784 0.024542267 -0.33696967 0.07360818 -0.0035113036 0.0077767055
0.13764748 0.07482337 -0.003263095 0.16600876 0.0013367757 -0.116160594 0.026592774 -0.04540455
-0.2269718 -0.23225978 -0.51409835 0.4305799 0.047399275 -0.21886505 -0.09602825 0.16994324
0.06285594 -0.0849023 0.39761668 -0.024399415 -0.008064851 -0.0059647667 0.016313827 -0.8815041
-0.14872555 -0.03985295 -0.25917828 -0.004307343 0.061523058 -0.035675697 0.16640721 0.050911177
-0.067711085 0.045264963 0.07374967 0.014778996 0.07407361 0.123304226 0.061333045 -0.05453711
0.050200466 -0.029245427 -0.10704931 0.10947858 0.043605953 0.00035345275 -0.108134344 0.03511644
-0.16838911 -0.08916617 -0.018722616 0.08370382 -0.053417757 -0.028374087 0.11200102 0.116647385
-0.0021451444 0.114229895 0.09794349 0.11384122 0.010468005 -0.14481269 -0.07274452 0.06224171
-0.10080495 0.02369809 0.060365964 -0.042090412 0.14225368 0.10095975 0.10321298 -0.06883049
0.00542622 -0.036148485 0.07308718 0.026585825 -0.15330614 0.096291676 -0.005077073 -0.012352426
0.11745185 -0.14903176 -0.015691295 -0.005184538 -0.061498832 -0.049362116 -0.10515424 0.110189885
0.03917396 -0.0033342987 0.010889175 -0.094145074 -0.036536522 -0.07171851 -0.13198717 0.0243062
0.04217758 -0.07637979 -0.13343471 0.08608834 -0.069612175 0.04549569 0.039367806 -0.049547587
0.11683672 -0.07450483 -0.1136886 0.06890494 -0.04142624 0.1108119 -0.066603675 0.117613964
-0.07396522 0.07811486 0.18373844 -0.06521316 0.14206833 -0.0014210385 -0.067269914 -0.31225908
-0.13921748 0.120605536 0.12198001 -0.042704288 -0.11370061 0.009697925 -0.2166287 -0.07578495
-0.29819193 0.045811363 -0.244625 -0.06417203 0.011286309 -0.07049796 0.09875247 -0.10250729
-0.22971481 0.17795752 0.06237891 0.09678832 0.059428535 0.053014148 -0.05153269 -0.17187871
0.12623559 0.045728613 -0.6935192 0.11969162 -0.03961949 -0.07649001 0.058765743 0.38436323
-0.07312601 -0.1110957 -0.037673116 0.014480052 0.05458683 0.04177694 -0.06754651 0.12930256
0.22604828 0.09240487 -0.1774446 -0.10225412 0.08090011 -0.044785928 0.025624365 -0.23098615
-0.032697912 -0.02565659 0.09597556 0.18727717 -0.07490113 -0.02798486 0.12645008 0.037392166
-0.10397173 0.13934743 -0.013873082 -0.09257866 0.10149915 0.07790172 -0.48237315 -0.20891862
-0.08294335 -0.09849245 0.08065901 0.006458916 0.18898949 -0.008417268 -0.19005305 -0.058887128
-0.25159994 0.018167824 -0.27598825 0.0551763 -0.098731816 0.071351394 0.009412923 0.008801538
-0.13616852 -0.00039165106 -0.0018435556 -0.068985716 0.05777038 -0.1759774 0.10130026 -0.077660695
-0.09312088 -0.037961386 -0.67455834 -0.008877232 0.11322378 0.039226484 -0.0151329655 0.060527254
0.054831255 -0.054023225 0.036548287 0.09646184 0.053031065 -0.046104554 -0.0554616 0.115839235

mu.tmlp.net.2.bias f4 [64]
00000000: 802b 4e3d e0b4 d7bd d810 a7bd 5581 cb3c
00000010: 35b3 8cbc 2514 9abb d2b3 d7bd 33f4 2dbd
00000020: 30a0 113c 08a2 d03c fb4c 31be 1b8d 513d
00000030: eebe 273e 4fc5 4bbc 356a 9e3d aa6b 55bc
00000040: 2d00 c23d c8e7 f63c 4ce6 db3c f4f2 98bb
00000050: 2ec5 663d 4e45 2cbd c317 033e cd2b f63c
00000060: f5b3 78bd 78f4 e0bd a65a 5ebd bba4 c33d
00000070: d492 a7bd da4a f83d 4329 853d 31cb 393d
00000080: c45b f4bc 2c59 1bbd c04a 41bc dc1b b73d
00000090: be3c c3bd d862 ccb9 3830 d13d bfa4 d2bb
000000a0: 40e4 3bbd 2cfd 0e3d ba3d fb3d 011f 23bd
000000b0: 34c3 103d d80b 1dbe 11cd cc3d 41dc 49bc
000000c0: 1434 debd 72b3 86bd d42a db3d 5d60 80be
000000d0: cabc a33d 2703 24be a36d 423c deaa 4abd
000000e0: 9c7d c9bd b519 d2bd 0ed1 893d 3f68 a83c
000000f0: 3092 07bd 57d0 a23c b5b1 b43d f026 2c3d
0.050334454 -0.10532546 -0.081575096 0.024841944 -0.017175296 -0.0047021084 -0.10532345 -0.042469215
0.008888289 0.025467888 -0.17314522 0.05115996 0.16381428 -0.012437179 0.07735101 -0.013026157
0.0947269 0.030139819 0.026843213 -0.004667634 0.05634039 -0.04205828 0.12802033 0.030050183
-0.060718495 -0.10984129 -0.054285668 0.09552904 -0.08182302 0.12123652 0.06502011 0.045359794
-0.029828914 -0.037926838 -0.011797607 0.08940861 -0.0953307 -0.00038983556 0.10214275 -0.0064283307
-0.045871973 0.034909412 0.12267633 -0.03982449 0.03534241 -0.1533655 0.10000051 -0.012320579
-0.10849777 -0.06577195 0.10701528 -0.2507352 0.07994993 -0.16016828 0.01186696 -0.049479358
-0.09838411 -0.102588095 0.06729327 0.02055752 -0.0330984 0.019874735 0.088229574 0.04202932

mu.tmlp.net.4.weight f4 [1, 64]
00000000: 3793 31be d3bd d43c 488a 51bd 4a4d 78bd
00000010: 6467 ed3d 37d3 56be 6fca c4bd ee71 293d
00000020: a416 acbd c3ce e3bd 4ed6 3b3e f50f 353c
00000030: d7c2 0ebe 1cfd 683d d085 0abd 41e5 d2bc
00000040: 6aee cd3d 3018 1ebe accf 4ebd a998 a8bd
00000050: 40b6 c53c d1b8 9cbd ef52 f1bd b73b 56bc
00000060: acd8 333e 5bf0 2ebe a2ac 1e3e c0d3 27bd
00000070: 10f5 babd 024f b73c c6c6 49be dd4e b33d
00000080: 5472 5c3d 1a37 97b8 a17f 8338 1f3d 21be
00000090: 958f e2bd fabe 243e eda6 3dbc 1b16 873e
000000a0: 55d7 563e 0850 2b3e c702 973d 0909 55be
000000b0: c909 06be 137c ecbd 9788 a03c 59ce 21be
000000c0: 1804 05b8 1a22 373c 5f40 1d3e 67de b43e
000000d0: 52a6 a5be 134b 63bd 730f 71bd ee13 d5bd
000000e0: 514e a93d 45d5 143e 4795 4bbe b9bb 473e
000000f0: 966c 94bd baa8 db3d 5587 3ebe 9d75 0d3e
-0.17341314 0.025969421 -0.051157266 -0.060620584 0.11591986 -0.2097901 -0.09608924 0.041368417
-0.08402756 -0.11123421 0.1834347 0.011051168 -0.13941513 0.05688201 -0.03381902 -0.025744082
0.100552395 -0.15438914 -0.05049102 -0.082322426 0.024134755 -0.076524384 -0.117833965 -0.013075761
0.17563123 -0.17083876 0.15495542 -0.040973425 -0.09128773 0.022376541 -0.19704732 0.08755276
0.05381997 -7.2105046e-05 6.2703395e-05 -0.15745972 -0.11062542 0.16088477 -0.011575443 0.26384053
0.2098058 0.16729748 0.073735766 -0.20804228 -0.1308967 -0.11547103 0.019596381 -0.15801372
-3.1713484e-05 0.011177564 0.15356587 0.3532593 -0.32353455 -0.05549152 -0.058852624 -0.10404192
0.08266891 0.14534481 -0.19881164 0.19505204 -0.072472736 0.107255414 -0.18606313 0.13814397

sigma.tmlp.net.0.weight f4 [64, 5]
00000000: 96dc a13e c342 933e aa86 6f3e 9625 56be
00000010: 81b3 88bd c5fc 513e 6ee2 613e cd70 9ebe
00000020: ce3f 6ebe 41b0 8fbe 0494 6e3e e39a 3cbc
00000030: 9ede 0abe 6696 4bbd bd8c 8bbe cd2a 9fbe
00000040: fe6e cabe b45d 69be 4f6c 873e f594 14be
00000050: 2393 b2be 1338 903e 09de 523e 54fb 3abe
00000060: ace6 ffbe 6bb2 68bd b01f 30be 9af3 703e
00000070: f4cf 89bd 266c 773e 5ae2 b93e b089 8c3e
00000080: eae3 cfbe 7863 b4be ef57 f6bd 6b8a 6ebe
00000090: 0bba f03e c0ee a83e 8d77 cf3e dcb4 d1be
000000a0: ba68 403d 2eb7 62be d4ee bfbd 87df 9f3e
000000b0: 19ed cf3e b4f3 b0be f6d6 b3be 13a0 d9be
000000c0: 3ecd 9bbe f538 69bd 2104 f0bd db91 c3be
000000d0: 856f 0bbe e2ed 2abe 2a26 913e 7a8f 1ebd
000000e0: 495a 7dbe 103b 9abc 3dc2 b0be 8364 f63c
000000f0: ded9 a93e d3f0 aabe 61f7 ab3e ce2c e73e
00000100: 8e60 c53e 5c80 933d d17f 443e 5cfe 5f3d
00000110: daee e2bd 1c1c 4dbd 34e0 aabe 2fa8 a43d
00000120: 56ee 70bd 2616 eebe 07a3 94bd eff7 d4be
00000130: 9c56 ab3c e069 a83b 001b 7fbe 1940 39be
00000140: 925a dabe 0c6b d9be dc1c 283e 2b98 7fbe
00000150: b463 063e 2db1 11bf 96b3 33be d172 93bd
00000160: e0ec c63e 69bd 1e3e 8e7b dfbe a143 eabe
00000170: 7fda 983e c0c1 88be 2dc9 ac3e fa94 e43e
00000180: b438 023e 93a9 7cbe a12c 4abe b135 b33e
00000190: b80c 533e 65cd 10be f364 ccbe 13bc 74bd
000001a0: 6b72 cdbe 8e02 eabd 91f7 afbe 2d2c 423d
000001b0: 5f94 973d 1a36 c53e a1ad c13d 9d71 ffbe
000001c0: 61a1 ab3e 67e6 1d3e 03f8 b9be d7bc 0ebf
000001d0: f300 8bbe 6412 793e d50a 16bd f05e 94be
000001e0: f43e 87be 4f62 95be 052e c3be a45b c9bd
000001f0: f392 d3be 332b 6abe 5fb4 13be 9eab e8bb
00000200: f442 26be ed49 d23e bec9 c23d 0c2e 6cbe
00000210: 7df4 2abd e682 aebd 21c3 a63e df0a 0a3e
00000220: 423f e6be b8f5 b9be 99f2 ecbe b512 40be
00000230: 7012 dabe aa1f 153e 4e98 1dbd 789a dbbe
00000240: c7d3 9b3e 24b7 7f3e a5d1 9c3e d3a9 f33e
00000250: 12fd d83e 3c8e 8abe d196 9c3e c3d9 c83e
00000260: a7ba 55bd ddc7 27be 6b05 213d 4acb a0be
00000270: 343e ab3c 77f2 05bf 9b56 7d3e 4567 f2bd
00000280: 3417 ad3e be51 68be c268 b4bd e73a cabe
00000290: d7fd ac3e ff1d 44bd e91c 0dbf 1a58 5a3e
000002a0: e913 53be 7888 2f3e 25da ee3d 1783 2d3e
000002b0: 4cb8 08be 9f0e 843c 9c47 9cbe 884c ad3e
000002c0: baf6 833d 52b6 c53e 4ac7 84be ac20 d9bb
000002d0: 9638 de3e 72ff 2a3e c76f f03d 0fc4 da3d
000002e0: 0d72 d6be 3ae0 9d3d 6e3f 0fbe 5cae 07be
000002f0: 8f2f dd3e dcc0 b1bd 9bb3 a53d f46f babd
00000300: 89df d9be 8ebd 053e 3e76 87be 8ea8 f23e
00000310: df71 3cbd cbf4 57be 10c1 fbbd ee3c b63e
00000320: 94d1 e7bd 04a3 043f 7bf5 7e3e ffee 973e
00000330: cef8 8bbe 4928 1cbd c0ba 81bd 0092 d73e
00000340: 8c7f 873e 9519 babe aaa6 8bbe 6ec3 f23e
00000350: 122d 19be fd7c bfbe 9308 b2be 7092 3f3e
00000360: 3116 ffbd fe53 b23e 7913 983e 5de4 e7be
00000370: 28bf 693e af8b b3be 535c a73d 0612 b73e
00000380: d464 8b3d fa0c 00be 9a1a 88be b92a b93e
00000390: f034 573e db28 35bb 20b8 32be edae bc3d
000003a0: 5f6c 533d e211 fcbe fb62 1f3d 141b 8abe
000003b0: 3dc5 d7be a1b5 f53e 02e1 5dbe 8bde 78be
000003c0: f0fd 813e eb62 72be 10f2 3c3e f52c a93e
000003d0: d6ed 37bd 50f9 8cbe 6930 d23e e8bf 12be
000003e0: 8d46 913e 003b 293f b777 20be 0783 793e
000003f0: 9470 983e ea19 f13e c441 c6be e676 9a3e
0.31613606 0.28761873 0.23391214 -0.20912775 -0.06674863 0.2050658 0.22059032 -0.30945435
-0.23266527 -0.2806416 0.23298651 -0.011511537 -0.13561484 -0.049703978 -0.27255812 -0.31087342
-0.39537805 -0.22789651 0.2644982 -0.14509948 -0.3487788 0.2816778 0.20592512 -0.18259937
-0.49980676 -0.056810778 -0.17199588 0.23530427 -0.06729117 0.24162349 0.36305505 0.27448797
-0.40603572 -0.3523214 -0.12028491 -0.2329499 0.4701694 0.32994652 0.40520898 -0.40958297
0.046974875 -0.2214019 -0.09371725 0.31225225 0.4061058 -0.3456093 -0.3512494 -0.4250494
-0.30430025 -0.056939084 -0.117195375 -0.38197216 -0.1361676 -0.16692308 0.2834943 -0.03871105
-0.24741472 -0.018826991 -0.34523192 0.030077225 0.33174032 -0.3338686 0.33587173 0.4515137
0.38550228 0.07202217 0.19189383 0.054685935 -0.110807136 -0.050075635 -0.33374178 0.08039891
-0.058821045 -0.46501273 -0.072576575 -0.41595408 0.020915322 0.0051395744 -0.24912643 -0.18090858
-0.42647225 -0.42464483 0.16417259 -0.24960391 0.13123971 -0.56910974 -0.17548975 -0.07199634
0.38852596 0.15501942 -0.43648952 -0.45754722 0.298542 -0.2671032 0.33747235 0.4464491
0.12716943 -0.24674062 -0.19743587 0.350019 0.2061032 -0.14140852 -0.39920768 -0.059749674
-0.40126356 -0.114262685 -0.34368566 0.04740541 0.074013464 0.3851784 0.09456945 -0.49891368
0.3352156 0.15419923 -0.3632203 -0.55756897 -0.27149162 0.24323422 -0.036631424 -0.28978682
-0.26415217 -0.29176566 -0.38121048 -0.09831932 -0.4132305 -0.22868042 -0.14424275 -0.0071005365
-0.16236478 0.41072026 0.095111355 -0.2306444 -0.04173707 -0.08521061 0.32570747 0.1348071
-0.44970137 -0.3632028 -0.46278837 -0.18757136 -0.42592192 0.1456286 -0.038475327 -0.42891288
0.3043501 0.24972206 0.30628696 0.47590503 0.42380577 -0.2706164 0.30583814 0.3922864
-0.05217996 -0.16384836 0.039311808 -0.31405097 0.020903684 -0.52323097 0.24740069 -0.11836103
0.33806765 -0.22687432 -0.088090435 -0.39498064 0.33787414 -0.04788017 -0.5512224 0.2132267
-0.20613064 0.17141902 0.116627015 0.16944538 -0.13351554 0.016120253 -0.30523384 0.3384745
0.06443544 0.38615662 -0.25933295 -0.0066262092 0.43402547 0.16699007 0.1174007 0.106819265
-0.4188389 0.077087834 -0.1398904 -0.13250107 0.43200347 -0.08679363 0.08090898 -0.091033846
-0.42553356 0.1306059 -0.264574 0.47394222 -0.046007033 -0.21089475 -0.12292683 0.3559336
-0.11319271 0.5181124 0.24898331 0.29674527 -0.2733826 -0.038124356 -0.06334448 0.42103577
0.26464498 -0.36347643 -0.27275592 0.47414726 -0.14958599 -0.37400046 -0.34772167 0.18708205
-0.124554045 0.34829706 0.29702356 -0.45291415 0.22826827 -0.35067508 0.08171906 0.35755938
0.06806341 -0.1250495 -0.26582795 0.36165407 0.21016288 -0.002764276 -0.1745305 0.09213052
0.051617023 -0.49232394 0.038912755 -0.26973784 -0.42142668 0.47990134 -0.21667865 -0.24303643
0.2538905 -0.23670547 0.18451715 0.33042112 -0.044904552 -0.2753396 0.4105256 -0.14331019
0.28374138 0.6610565 -0.15670668 0.24366389 0.2977339 0.47090083 -0.3872205 0.30168837

sigma.tmlp.net.0.bias f4 [64]
00000000: 5088 dd3d 15a1 9abe 8523 833e a729 e83d
00000010: e330 733e 7776 81bc ae3e 0dbe dac2 e0be
00000020: abde 4e3e d4e9 18be 4c56 043f 1de6 763d
00000030: 1cf9 70be c0be 03be 11c4 bfbe 185e 12bc
00000040: 35f2 1fbe 21c7 d43e ba4b 73be c9e0 45bd
00000050: 2b80 1a3e 3a6b b6bd 4503 5c3e e872 d03e
00000060: 7232 9dbd cb41 cd3e 25b1 a93e 99b3 10be
00000070: 7464 1aba 2113 d43e 2fcf f63e 6ea2 733e
00000080: 18b0 cbbc 0941 453d c485 fb3e 0b84 063e
00000090: f61e c63e 289c b33e f7ea efbe 510e 3b3e
000000a0: 6d7c 6f3c cee8 9c3e 4bd5 d83e 73d2 68bd
000000b0: b356 143e c117 7dbe 4d17 9cbe 2e9f b33b
000000c0: ed04 aa3e 9281 8c3d c2ad 27be 47e5 283e
000000d0: b675 973e 11fc c9be 1729 dc3e 146a 34be
000000e0: c934 ce3e 5be9 013f 5be6 a83e 61f8 a83e
000000f0: 03c7 69be 8aed 78bd 5a94 823e a332 fc3e
0.10817015 -0.3020102 0.25613037 0.113360696 0.23749118 -0.015803559 -0.13793442 -0.4389866
0.20202129 -0.14932948 0.5169418 0.060278047 -0.23532528 -0.12865734 -0.37454274 -0.0089335665
-0.15619738 0.41558173 -0.23759356 -0.048310075 0.15087955 -0.089071706 0.21485622 0.40712667
-0.07675637 0.4008926 0.33142963 -0.14131011 -0.00058896025 0.41420844 0.48204944 0.23792431
-0.024864241 0.048157725 0.49125493 0.13136308 0.38695496 0.35080075 -0.4685895 0.1826718
0.014617068 0.30646366 0.4235023 -0.056841325 0.14486198 -0.24716093 -0.30486527 0.005481622
0.33206883 0.06860651 -0.16374877 0.16493712 0.29581994 -0.39450124 0.430001 -0.1761859
0.40274647 0.507467 0.32988247 0.33001998 -0.22829823 -0.06077341 0.25503808 0.49257383

sigma.tmlp.net.2.weight f4 [64, 64]
00000000: c8a3 b5bc fd93 993d 358f 87bc 1478 5d3d
00000010: 50d8 a4bc 4b47 ddbd 3f0f bfbd da22 7f3d
00000020: 6aaf 83bd 841b c8bd 4309 c9bd 519d c23d
00000030: 57f4 18be 5f0b 003e 636a c8bd 3e66 04be
00000040: bd88 cfbd b034 2a3d 5b19 943d 8fa3 09be
00000050: 3ee9 9e3d 7558 d2bd 104a b1bd ac46 2c3d
00000060: 94c0 c53c bf61 ac3d d59f da3c b966 10be
00000070: 9d22 5ebd e77d 613d e3b3 3d3c d665 9c3d
00000080: a310 3cbd f06d 913d 33d7 c4bd 3ffc 0a3d
00000090: 426d 563c ace5 b4bb 096c f73c 6c01 eebb
000000a0: 878f 89bc 4277 17be 36de c0bd f356 01bd
000000b0: 6d41 b13d 2651 36bd 3110 d5bc 42c9 ebbc
000000c0: d8ec 833a 4b56 7ebd f02c 323d 98ad 9d3d
000000d0: e52c c6bd dfbb 203d 621d 683d 6c9d cc3d
000000e0: 7112 0bbe 9373 283d 1b42 133d 22ce 953d
000000f0: c4c8 b2ba 2c1f 12be 7b8a 14be 4cb0 90bc
00000100: 5160 04bc 34f5 b63d c0f3 95bc 15ac adba
00000110: d26d 0cbe 452e b1b9 f637 c5bd 43c1 c8ba
00000120: 0791 ca3c ae65 e3bc 527d 19bd e03c df3b
00000130: 219b 08be 5e87 993d f413 51bd f58f c33d
00000140: 5004 65bd 64b1 e03d 0ff0 243d 567e 65bc
00000150: f028 753d 1d3e 383d ba64 1b3d b740 dfbd
00000160: 62c8 653d 4762 c83c d624 20bd 80d5 b23b
00000170: dfd0 833d 8823 fd3c 41a3 42bb dd9a ccbd
00000180: 4b7e 8ebc 4cd3 5ebd 53d9 bebd efd0 5bbd
00000190: c122 d23a 26c2 aabd 8abb 9e3d 8ce2 83bd
000001a0: 3214 2ebc ae7d 943c cc60 52bd af8f d6bd
000001b0: a9e3 da3d 8439 263c 7c94 a1bc 1505 da3d
000001c0: 5bd9 bdbd c990 86bb a978 a7bd 8ce0 a23d
000001d0: fbb1 f9bd 3202 7ebc 0fb6 d3bd 163c a7bd
000001e0: 65bf 903d 6f25 5dbd efbf e03b 5cba 0abe
000001f0: 0cf1 673a 3164 edbd b5b0 08bd fba1 83bd
00000200: b900 dc3d 4362 633d 1e80 06be 487d 64bd
00000210: 0619 9f3d cd61 7f3d a0ba 83bc 473c bdbd
00000220: 16ca 29bc b480 6b3d 9774 cf3d 21f1 e83d
00000230: ddf3 32bd 141d 423d c0e1 493d b5d4 1e3d
00000240: 910c 47bc afb3 d73b 45e4 8d3d 3b23 74bd
00000250: 6ac7 063d cb8a a1bc 675e 723d d460 97bc
00000260: 55b0 9ebc 8864 323c 74af c73c bb47 abbd
00000270: 85a2 9bbc eb64 a5ba 5948 bbbd f097 0a3d
00000280: 9960 7cbe 9a4d 15be 9d70 13be 3550 2cbd
00000290: fdf3 f4bd 45ad 13bd 1c6d f7bd 20f1 c8bd
000002a0: 8cba 9f3d 7cbd 9a3d 8ffa 2ebb e580 2c3d
000002b0: 04d5 35bd 40ba dfbd df9a b43d ed0d 203e
000002c0: cc9a 85bb 0f8b 11be 5944 873d 36f2 f7bd
000002d0: b72b 883d 7a94 dabd aa07 edbd 8ec9 c7bd
000002e0: 5368 c3bd 547c f93b bd1e 893d 5e21 30be
000002f0: 2d2f 65bd 32c0 643d 34b6 833c e64e a1bd
00000300: aa21 033e a7de 83bd 213d c7bc b00d 12be
00000310: 3846 ce3d eca2 943d 2037 543c 7449 31be
00000320: a563 cb3d 39df 05bd c326 fd3d bcd6 88bc
00000330: 8ec9 8ebd 3e3b cabd 1f16 01bd 251a 27bd
00000340: da6f 853c 549b 98bd bc7a 98bd 61ff 843d
00000350: 8f5d 9d3d f80e 3bbc c670 333e d723 fc3d
00000360: 52bf 5e3d c8b4 713b 3bcd ca3d 97fd 093e
00000370: 84fd 573b e2ee 0b3d 9387 b23d 3365 53be
00000380: 82da 7d3d dcc7 25bc f624 5e3d 9416 0d3e
00000390: 9a7c 83bb 8adb 98bd e662 113b bdb4 bbbd
000003a0: fb3b 533d e104 7f3d edf2 9d3d 12f8 fdbc
000003b0: 1933 72bb 55ce f2bd 1001 43be 08d4 0c3e
000003c0: 19fa 21bd 1720 34be e26d 93bc 60a7 173c
000003d0: abc4 993c 30b8 53be ec35 5c3c 227c 003e
000003e0: 83fe b63d c9b5 2b3d fdf7 67bc dac5 443e
000003f0: 323d 943d afad 36be 08c8 d93d c8a1 98bd
-0.022172824 0.0749893 -0.016547779 0.054069594 -0.020122677 -0.10804614 -0.0932908 0.062289096
-0.06429942 -0.09770873 -0.0981622 0.09502662 -0.14936958 0.12504338 -0.09785917 -0.12929627
-0.10133503 0.041554153 0.07231399 -0.13441299 0.07759331 -0.10270778 -0.086567044 0.042059585
0.02413968 0.08417081 0.026687542 -0.14101686 -0.05423223 0.05505171 0.011578533 0.07636611
-0.045914304 0.07101047 -0.096113585 0.033931967 0.0130875725 -0.005520543 0.030202882 -0.007263353
-0.016792072 -0.14791587 -0.094173834 -0.03157706 0.08655057 -0.044510983 -0.026008697 -0.02878249
0.0010065092 -0.062094014 0.043499887 0.07699126 -0.09676532 0.039241668 0.056668647 0.09990963
-0.13581254 0.041125845 0.035951715 0.07314707 -0.0013640155 -0.14269704 -0.14505951 -0.01766219
-0.008079604 0.089334875 -0.018304706 -0.0013250137 -0.13713768 -0.00033794544 -0.09629814 -0.0015316386
0.024727358 -0.027758446 -0.03747303 0.006812677 -0.13340427 0.07496522 -0.05104442 0.09548942
-0.055912316 0.109713346 0.040268 -0.014007172 0.059853494 0.04498111 0.037937857 -0.10901015
0.056099303 0.024460925 -0.03909763 0.00545758 0.064363234 0.030900732 -0.0029699358 -0.09990475
-0.017394206 -0.054400727 -0.09318795 -0.05366605 0.0016032086 -0.08337812 0.07750614 -0.06439695
-0.010624932 0.018126335 -0.051361844 -0.10476624 0.10687954 0.010145549 -0.019724123 0.106455006
-0.09269973 -0.004106615 -0.08177311 0.07952985 -0.1219215 -0.015503453 -0.10337459 -0.08165757
0.070677556 -0.053990778 0.006858818 -0.13547653 0.00088478695 -0.115913756 -0.033371646 -0.0642738
0.10742325 0.05551363 -0.1313481 -0.05578354 0.07768445 0.06234913 -0.0160802 -0.092400126
-0.010363122 0.057495788 0.101296596 0.11374117 -0.043689597 0.047391012 0.049287558 0.038777072
-0.012148992 0.0065826993 0.069283046 -0.05960391 0.03290502 -0.019719502 0.05917206 -0.018478788
-0.019371191 0.010888226 0.024375655 -0.08363291 -0.018998394 -0.0012618577 -0.091446586 0.033836305
-0.24646224 -0.14580384 -0.14398427 -0.04206868 -0.119605996 -0.036053915 -0.12081358 -0.09811616
0.07799253 0.075556725 -0.0026699638 0.04211511 -0.0443926 -0.10924196 0.08818602 0.15630312
-0.004077291 -0.14213203 0.06604833 -0.12106745 0.06648963 -0.10672851 -0.115737274 -0.097552404
-0.09541383 0.007613698 0.06695316 -0.17200229 -0.055953193 0.055847354 0.016078092 -0.07876377
0.1280581 -0.06438952 -0.02432114 -0.14263034 0.10071987 0.072576374 0.012952596 -0.17313176
0.09931115 -0.032683585 0.12360909 -0.016703956 -0.06972037 -0.09874581 -0.031515237 -0.040796418
0.016288687 -0.074515015 -0.07445285 0.06494022 0.076838605 -0.011417143 0.17523488 0.123115234
0.054381676 0.0036881436 0.09902426 0.13475643 0.0032957504 0.034163363 0.08717265 -0.20644073
0.061975963 -0.010118451 0.054234467 0.13778144 -0.0040126564 -0.07463749 0.0022184192 -0.091653325
0.051570874 0.062260512 0.0771235 -0.031002078 -0.0036956726 -0.11855761 -0.19043374 0.13752759
-0.039545152 -0.17590366 -0.017996732 0.009256214 0.018770536 -0.2067573 0.01344059 0.12547353
0.08935263 0.04192141 -0.014158246 0.192161 0.072382346 -0.17839693 0.10633856 -0.07452732

sigma.tmlp.net.2.bias f4 [64]
00000000: 2080 cdbc 9c32 e93c 2ceb 53bd b75a 763d
00000010: 1ed0 e53d eaeb 16bd 2674 53bd ed44 803d
00000020: bfab c4ba 7f7d 843d 3580 c53b ef08 34bd
00000030: 59bd 8c3d 9be3 a43c 358f c0bc c409 f93d
00000040: 1f81 8cbc dbf0 d23d 52c7 96bd cef9 943d
00000050: 591c f73d d85a 7c3d c556 a23c bf4e aabd
00000060: 9d15 04be 1d7e 2c3d 75f7 f03c 524c 2b3e
00000070: cfcb 173d 6c9c 043e a021 f93c 688d 0b3e
00000080: ab10 003d 2bb6 f13d 503f 40bd d347 1dbe
00000090: 50e2 2e3e 1a7e 953d ac15 0fbe 0caa 0a3e
000000a0: f94d aa3c 9c56 b0bd 47ed bcbc 0bd3 c4bd
000000b0: 68dd 223e 75a0 8e3d 8396 283d 29c5 f23d
000000c0: c7d7 783c 3651 81bc 9679 463c 8ca8 7abd
000000d0: 1276 693d 0409 d23b d75e 14bc be5d 14be
000000e0: 8248 7b3d 289c 8ebd ef73 023e c987 c5bc
000000f0: 4aaf 46bb bda9 1d3b 361c 54bd 7354 01be
-0.025085509 0.028466515 -0.05173795 0.060145106 0.11221336 -0.03684608 -0.05162444 0.062631465
-0.0015004798 0.06469249 0.0060272464 -0.043953832 0.06872053 0.020128062 -0.023505786 0.12160066
-0.017151413 0.10299846 -0.07362236 0.07274209 0.12065954 0.061610073 0.019816766 -0.08315801
-0.1289887 0.04211246 0.029414872 0.16728333 0.0370596 0.12950295 0.030411541 0.13628161
0.031265896 0.11802324 -0.04693538 -0.1535943 0.17078519 0.072994426 -0.13973111 0.1354143
0.020789133 -0.086102694 -0.023062361 -0.09610566 0.15904772 0.069641985 0.041159164 0.118540116
0.015188164 -0.015785795 0.012113949 -0.061195895 0.056997366 0.006409766 -0.009055815 -0.14488885
0.061348446 -0.06963378 0.12739538 -0.024112599 -0.0030316883 0.002405747 -0.051784717 -0.12629871

sigma.tmlp.net.4.weight f4 [1, 64]
00000000: 99a3 ab3c 6b25 7f3d a1b3 c33d 51c6 1abe
00000010: c394 65be e526 093e 8577 e6bd 5c61 eebd
00000020: a9b7 893e dc7b 27be 6822 00be 3629 29be
00000030: 8038 c5bd 0964 04be 3fcc 28be bb35 09be
00000040: bce3 283c 08bb 22bd 6806 603d 0628 443d
00000050: c3b9 91bd ab7f c3bd c87a 3c3d feab 1e3e
00000060: f13d 0cbd c9d0 163d 2ad2 44bd 64f8 4ebd
00000070: 2391 18be 15c6 1fbd c01e 263e 4a99 a7bd
00000080: 9075 313b 9cf4 0bbe faca 783d 2b90 893e
00000090: 6700 16be 2920 e73d 778d 533e b0a1 2ebe
000000a0: 2cd7 e5bd 4718 423e f4cb 173e 2ceb 123e
000000b0: 4af1 02be fc69 0c3e 966f cd3d 8133 e1bd
000000c0: f256 b3bd 16f4 b7bd a953 783d d688 c13d
000000d0: e707 5cbd b625 11be c567 b3bd bdb3 c93d
000000e0: 283d d7bd d76e 54be 4852 1fbe 35aa b23c
000000f0: 71a2 273e 2214 adbd 2059 0abe 5d42 343e
0.020952033 0.062291544 0.09555746 -0.15114714 -0.2242003 0.13393743 -0.11253265 -0.116396636
0.26897934 -0.16355842 -0.12513125 -0.16519627 -0.09629917 -0.12928785 -0.16484164 -0.13399403
0.010308202 -0.03972915 0.05469361 0.04788973 -0.07115509 -0.09545835 0.04601553 0.15495297
-0.03423876 0.036820207 -0.04805199 -0.050529853 -0.14899115 -0.039007265 0.16222668 -0.081835344
0.002707813 -0.1366753 0.06074045 0.26867804 -0.14648591 0.11285431 0.20659433 -0.17053866
-0.112226814 0.18954574 0.14823896 0.14347523 -0.12787357 0.13712305 0.10031049 -0.10996152
-0.08756818 -0.089821026 0.06062666 0.094499275 -0.053718474 -0.14174542 -0.08760027 0.098487355
-0.105097115 -0.20745407 -0.15558732 0.021809677 0.1637056 -0.08451106 -0.13510561 0.1760344
