checkpoints/model.pt (torch, 39314 bytes, 10 tensors)

mu.tmlp.net.0.weight f4 [64, 2]
000000 41 69 b9 3d 4e 2e 33 bf c3 94 0d bf 74 cb 29 3f
       0.09053279 -0.6999253 -0.5530512 0.6632607
000010 80 ef dd 3d 9a e4 92 3d 4d 8c a3 3e 44 21 f3 be
       0.108366966 0.071725085 0.31942979 -0.47486317
000020 de b9 9c 3e 3b 9e a9 3e 24 ed db be 22 9d 99 be
       0.30610555 0.33128533 -0.4295436 -0.30002695
000030 e7 d7 23 bf 59 43 e5 3e ea d5 84 be 79 a4 d6 be
       -0.64001316 0.44777945 -0.25944453 -0.41922358
000040 a2 ed 0a bf 41 a2 e7 3d 2e 32 a1 3e d6 7a fc 3e
       -0.5426885 0.11310244 0.31483597 0.49312466
000050 8e c3 15 bf 3d f6 df 3e d6 8c f9 be 34 25 1f bc
       -0.5850152 0.43742552 -0.48740262 -0.00971346
000060 d4 b1 23 bf 89 10 98 be b4 ce 99 3e 1f b7 a2 3e
       -0.6394322 -0.29700115 0.30040514 0.31780335
000070 b9 f1 b8 3e 84 a0 77 be 8b c9 b3 be d1 4f c9 3e
       0.3612192 -0.24182326 -0.35114703 0.39318708
000080 21 0f 85 be f6 04 2c bf bc 80 19 3e 05 f0 21 3e
       -0.25988105 -0.6719507 0.14990515 0.15814216
000090 d6 7e d1 3e 4b e5 83 3e 6e 96 dd 3e 8f 05 8f 3d
       0.4091708 0.25760874 0.4327883 0.06983482
0000a0 e2 40 1f bf 16 7c 1a bf 8f 66 1d bf 95 db 13 3f
       -0.6220838 -0.6034559 -0.61484617 0.5775693
0000b0 9b 0b 01 bf 1a 1e b8 be b4 be f7 3e 0a 0c df bc
       -0.50408334 -0.35960466 0.48387682 -0.02722742
0000c0 c7 ce d9 3e cd f6 22 3f d5 23 95 be 98 6c e2 3e
       0.4254057 0.6365784 -0.291289 0.44223475
0000d0 bb 4b 1b bf fc 9c a7 be 0a b1 81 3e 79 c4 a2 3e
       -0.6066243 -0.32736957 0.25330383 0.31790522
0000e0 1e 72 4b be 51 a8 25 3f 30 2c 0e bf c1 96 ca 3e
       -0.19867751 0.64709955 -0.55536175 0.3956814
0000f0 a4 7f 43 3b 28 6f 0e 3f 31 9e b8 be 40 3b 67 3e
       0.0029830718 0.5563836 -0.3605819 0.22581196
000100 cc 63 a0 3c 92 f5 20 bf d7 ea 9d be 74 ab 5c 3e
       0.019578837 -0.6287471 -0.3084323 0.21549779
000110 86 95 2f 3f 33 59 05 3f 61 87 d5 be 85 01 2e bf
       0.6858753 0.5208923 -0.41704848 -0.6797107
000120 8a ad 5b be 9f c8 f4 3e 63 f3 09 bc 5d 1b cb 3e
       -0.21452919 0.47809312 -0.008419844 0.39669314
000130 c6 5f 4d be 83 3c 06 3f ad cc 17 bf 79 bb 41 bc
       -0.20056066 0.52436084 -0.59296685 -0.011824482
000140 47 0c a3 bd f3 20 08 bf 5e 50 a4 3e 08 79 10 be
       -0.07961326 -0.53175277 0.32092565 -0.1410867
000150 cc 9b 22 3f f2 b2 1a be d3 85 8e be 0e 13 2c bf
       0.6351898 -0.15107325 -0.27836475 -0.67216575
000160 0b 16 21 3f 9a 7f 0f bf f5 59 e4 be bd c3 03 bf
       0.6292426 -0.5605408 -0.44599882 -0.5147055
000170 74 d1 eb be f1 72 1e 3f 39 06 e5 be 80 b5 19 3f
       -0.46058238 0.61894137 -0.4473131 0.6004257
000180 ca a7 1b bf 32 f1 d3 be 76 82 f7 be 83 88 8e be
       -0.608029 -0.41394955 -0.4834172 -0.27838525
000190 cb 88 6f 3e ff 35 1b 3f 89 2f be be 62 d8 ac bc
       0.23392026 0.60629267 -0.3714564 -0.021099273
0001a0 0a 94 17 bf 92 a8 69 be 6f 24 bd 3e 7e 13 1b 3d
       -0.59210265 -0.2281821 0.3694186 0.037860386
0001b0 74 d4 08 3f bd b8 24 be 97 fd 98 3d 10 e5 14 3f
       0.5344918 -0.16086097 0.074702434 0.5816202
0001c0 b0 5e ac 3e 92 96 dc be a5 5f 8f 3e 81 62 20 bf
       0.3366599 -0.43083626 0.28002658 -0.62650305
0001d0 09 5e 70 3e 7d c2 34 3e 91 a1 99 3e 91 fb f8 bd
       0.23473372 0.17652316 0.30006078 -0.121573575
0001e0 37 77 56 be 20 62 d0 bd ca b6 9f be c4 71 19 3f
       -0.20943914 -0.10174966 -0.31194144 0.5993922
0001f0 ad fe 09 bf ad 5e eb 3e 57 40 26 3e 4e e6 4c be
       -0.5390423 0.4597067 0.16235481 -0.2000973

mu.tmlp.net.0.bias f4 [64]
000000 7e 85 e9 3d 3e ca f0 bd 9c e7 1f bf 06 42 ca 3e
       0.11402415 -0.11757325 -0.6246278 0.39503497
000010 02 4a 18 bf 0a b8 0a be ae ba a3 be e9 ad c7 be
       -0.59487927 -0.13546768 -0.31978363 -0.3899987
000020 33 90 90 3e 0d 5a 7f be a7 cf f8 3d 48 1c 41 bf
       0.28235015 -0.24936695 0.121489815 -0.7543378
000030 0e af 1a 3f be 8e ec 3e 75 37 32 3f 11 03 cb bd
       0.6042336 0.46202654 0.6961587 -0.09912694
000040 11 cd 03 bf f8 0f ba 3e 4e e7 68 be 61 03 62 3e
       -0.5148478 0.36340308 -0.22744486 0.22071601
000050 c5 de 91 3e 36 36 9b be b9 24 1f 3f 07 f6 36 bf
       0.28490272 -0.30314797 0.6216541 -0.7146916
000060 fc e1 76 be 50 19 c2 be 52 00 3b be 4f 00 80 bd
       -0.24109644 -0.37909937 -0.18261841 -0.06250059
000070 9a 1a f5 bd 12 b4 2e 3f ee 6a e5 3e f0 d9 c3 3e
       -0.119679645 0.68243515 0.44808143 0.3825221
000080 9f 73 02 3c db ef a6 be 1e 13 2f bf a1 70 71 be
       0.0079621365 -0.3260487 -0.68388546 -0.23578121
000090 ba fb 1d 3f 47 e4 30 bf 57 aa 8d be 3c 8d 02 be
       0.6171223 -0.69098324 -0.2766902 -0.12749189
0000a0 a1 c1 6f bd 67 13 18 be 3a 8d 24 bf f2 ec 33 3e
       -0.05853427 -0.14851151 -0.64277995 0.17570856
0000b0 99 cc 08 bf 90 c8 a0 bd 63 4f e3 3e 9b 47 0c bf
       -0.5343719 -0.07850754 0.44396505 -0.5479676
0000c0 77 21 0d bf 26 26 a4 3d 25 6b 2c 3f 64 b2 f0 3c
       -0.5512919 0.08015089 0.6735099 0.029381938
0000d0 e5 9e f0 3d 73 14 16 bf 46 d6 05 bf 37 08 1d be
       0.11749057 -0.58624953 -0.5228008 -0.15335165
0000e0 52 9d 20 3f a0 a2 f3 3e e1 09 ad be 59 7e e1 3e
       0.6274005 0.4758501 -0.337966 0.44041708
0000f0 92 d7 26 bf f8 2e 36 3e 0e 2b 00 3f bf fb b5 3e
       -0.65172684 0.17791355 0.50065696 0.3554363

mu.tmlp.net.2.weight f4 [64, 64]
000000 2f 68 a1 3d c9 a0 37 bd 60 90 77 bd 51 63 22 bd
       0.078811996 -0.04483107 -0.06044042 -0.039645497
000010 d1 43 c6 3d ac af dd bc 7a 12 f8 3d e6 a1 97 bd
       0.09680904 -0.027061306 0.12112899 -0.074039266
000020 21 c3 2b 3d 61 69 87 bc 35 9a 8c 3d 69 aa 80 bd
       0.041934136 -0.01652974 0.0686535 -0.06282503
000030 78 49 a5 3d 91 e6 f5 bd 30 30 9b 3b 1e 59 d9 3c
       0.08070654 -0.12006868 0.004735969 0.026531752
000040 15 2e 19 bb d6 71 ab bc a1 86 3d bd e2 4e 27 bd
       -0.0023373414 -0.020928305 -0.04627097 -0.040846713
000050 e7 01 89 3d 38 79 b4 bd 98 26 39 bd 57 6d 83 be
       0.06689816 -0.08812183 -0.04520282 -0.25669357
000060 90 ff 52 3c 97 4b 6b 3d ff c6 90 bc 89 58 74 bd
       0.012878314 0.057445135 -0.017673014 -0.059654746
000070 e3 44 bb 3d b9 82 01 3e 1d 45 e8 3d 43 c7 ac bc
       0.091439985 0.12647523 0.11341307 -0.02109111
000080 bc 47 8f 3c 75 07 bc 3d b9 2b e3 3d 4c dc e2 bd
       0.01749026 0.0918111 0.11092324 -0.110771745
000090 83 6a e1 3c 52 5d d5 3d 6d 0a e1 3c 1c c4 56 bd
       0.027516609 0.1041819 0.027470792 -0.05243312
0000a0 69 58 c2 bc 4c 52 ff bd d2 9b 28 bd 49 b6 0e 3d
       -0.023723798 -0.12466869 -0.041164227 0.03484181
0000b0 59 17 37 be 7b 5e 73 3c 46 e1 a8 bd 07 72 82 3d
       -0.1788 0.014854069 -0.082460925 0.06369405
0000c0 39 c0 fb bc 7c a3 e1 bd bb e5 0f 3d 31 d1 63 bd
       -0.030731307 -0.1101751 0.035131197 -0.055619422
0000d0 bd 68 86 3b 72 93 69 be 28 33 59 bd 33 3d 92 3d
       0.0041018412 -0.22810152 -0.053027302 0.07140579
0000e0 d0 bc a7 3d 27 e2 54 bd b7 64 55 bd 4e 39 69 3b
       0.0819031 -0.05197349 -0.052098002 0.0035587135
0000f0 b0 72 98 bd a8 16 d5 3c 2e 02 c2 bb 4e 6b dd 3b
       -0.0744375 0.02601178 -0.00592067 0.0067571765
000100 64 33 0d bd 1a 01 a1 3d 78 6d 45 3d c8 b7 d1 bd
       -0.034472838 0.07861538 0.0482001 -0.102401316
000110 b3 41 df bd 16 42 22 bc 4d fe a5 bd bd f1 5e bd
       -0.10901203 -0.009903451 -0.08105145 -0.05442976
000120 32 eb a1 3d 01 64 99 bd ab d1 4b 3d 8e b6 38 3e
       0.07906188 -0.07489777 0.0497605 0.18038389
000130 c6 03 4a 3d 01 f1 cf 3d 8d 25 76 3c af 6d 66 3d
       0.049320005 0.1015339 0.015023601 0.056256946
000140 a2 83 31 bd 7b a4 f4 bd 90 9f cd 3d 07 c1 ba bc
       -0.043338425 -0.11945435 0.100402 -0.02279712
000150 18 04 48 bd c5 a2 43 3d 8b 48 af bb 92 5c 5e 3e
       -0.04883203 0.04776265 -0.005349224 0.21715
000160 c6 21 ee 3d c4 99 cb bb 45 9c 4f bc 00 f9 6e bd
       0.116275355 -0.0062133987 -0.012671535 -0.058342934
000170 d9 98 f3 bc 07 d0 1c 3c c2 04 44 3c a0 78 7d 3d
       -0.02973597 0.009571082 0.011964025 0.061882615
000180 9c 9f bf bd e0 a3 9a 3d 0e c3 c8 bc cc 8e ac 3d
       -0.09356615 0.07550788 -0.024507072 0.08425674
000190 28 c6 80 bd 8c ae 5a bd 3b 91 b7 bd 5c 29 86 3b
       -0.06287795 -0.053389117 -0.089632474 0.004094286
0001a0 82 ed 0a be 4c 22 b5 bd 51 fe 04 be d8 cf 47 bc
       -0.13567165 -0.08844432 -0.12987639 -0.01219555
0001b0 62 d7 af 3d 4b 93 ee bb ba 39 ca 3d a7 86 bf bd
       0.08586003 -0.0072807423 0.09874292 -0.09351855
0001c0 01 e9 83 bd 40 7d a9 bd c8 3e cf 3d 62 30 f4 bd
       -0.06440926 -0.08275843 0.101193964 -0.11923291
0001d0 36 61 70 3c f1 9e 26 3e d2 1f 07 be 70 5e 9e bc
       0.014671614 0.16271569 -0.13195732 -0.01933214
0001e0 01 53 b4 3d c8 e0 f7 3d 8e 0d bb bc b1 74 30 3c
       0.08804894 0.121034205 -0.022833612 0.010770009
0001f0 60 c3 81 3c f0 e8 f2 3b b6 06 b8 bd 71 00 ab 3d
       0.015840232 0.007413022 -0.08985655 0.083496936
000200 d1 f7 6a 3e 83 4c e3 3d 08 b0 a7 bd 29 c4 3f bc
       0.22946097 0.11098578 -0.08187872 -0.011704483
000210 d8 83 5f 3d 89 a9 8c bd 6c 91 48 3c 18 d7 0d bd
       0.054569095 -0.06868274 0.0122417025 -0.034628958
000220 5a ce 87 3d 58 dc be bd 39 e1 17 bd c0 1f 03 3e
       0.06631155 -0.09319371 -0.037080023 0.1280508
000230 a5 c8 8c bd 85 94 0a be b8 36 a0 bd ff 59 9a 3c
       -0.068742074 -0.13533218 -0.07822937 0.018841742
000240 5c 37 89 3b 86 6e 8e 3c f4 c4 f6 bd 9d dd c4 bc
       0.0041875076 0.017386686 -0.120492846 -0.024031455
000250 96 1d b8 bb 10 46 88 bd 77 ac f6 3d bc a5 8c 3d
       -0.0056187613 -0.06653988 0.12044614 0.06867549
000260 93 bd 18 be 2f d1 7a 3d 6d e6 e3 3c e0 d7 28 be
       -0.14916067 0.06123465 0.027819837 -0.164886
000270 32 3a b5 3d 13 7c c1 3d 6d 6b 42 bd db ad ae 3d
       0.088489905 0.094474934 -0.04746573 0.08529254
000280 44 09 1a 3d 57 19 80 bd ba a1 f0 bd ea a0 9d bd
       0.037606493 -0.06254833 -0.11749597 -0.076967075
000290 77 16 bc 3d 6e 6e e2 3d 6e b4 d3 3d 8c 27 85 bd
       0.09183972 0.11056219 0.103371486 -0.065016836
0002a0 45 4b 0d bd 68 77 4a 3d 00 71 b1 bd 14 b1 a6 3c
       -0.03449561 0.04943028 -0.08664131 0.02034811
0002b0 20 86 c2 bb ff 41 02 be 9c 18 65 3d c2 9f 23 bd
       -0.005936399 -0.12720488 0.055931672 -0.03994728
0002c0 76 d1 19 be 59 25 de bd b4 31 21 bd ea d0 77 3d
       -0.1502131 -0.10846967 -0.03935404 0.06050197
0002d0 84 c1 5f bd 94 34 c6 3d 90 f6 8d 3c 6a 7b c4 bd
       -0.05462791 0.09677997 0.017329484 -0.09593852
0002e0 1f a3 83 bc 49 06 5a 3d c0 da fe bd 16 07 5e bc
       -0.016068993 0.05322865 -0.12444067 -0.013551494
0002f0 94 7b 6c bd a2 1a 57 3d 1f 2f 90 3d 9d 98 35 3d
       -0.05773504 0.052515633 0.07040238 0.044334996
000300 ff 2c 83 3d 9a 4a c6 3c aa f9 d8 bd ad 3c 24 bd
       0.06405067 0.024205495 -0.10594495 -0.040096927
000310 19 0a a1 bd e2 b0 da 3d bd c2 25 3c e6 0e f0 3d
       -0.07863254 0.10678269 0.01011723 0.11721592
000320 5e 16 aa bd a1 5e 89 3d 71 bd 9a 3d 08 fc b9 3d
       -0.083050475 0.06707502 0.07555664 0.09081274
000330 c9 02 2c bc ea 75 a2 3d e4 9b 78 bc 1a 4e cb bd
       -0.010498711 0.079326466 -0.015173886 -0.09927006
000340 65 94 c1 3b 3b 72 c1 bd 45 28 aa bd 1b 8f d2 3c
       0.0059075826 -0.09445616 -0.08308462 0.025703004
000350 0c 68 d4 3d 9c be e8 3d 54 15 d3 3c 7f 36 5e 3e
       0.10371408 0.11364481 0.025767006 0.21700476
000360 86 4d a7 3d 05 b8 fd 3c 23 8f da bb e6 9c 59 3d
       0.08169083 0.030971536 -0.0066698953 0.053128146
000370 44 2a 72 bd 7e 77 71 3c aa 9a 06 bd ba c8 8e 3d
       -0.05912234 0.014737962 -0.032862343 0.06971879
000380 15 21 82 bd ac 28 81 bd 5a f2 f7 3c 46 a8 d0 bd
       -0.06353966 -0.06306586 0.03026693 -0.101883456
000390 7c 67 9e 3c 74 d2 7b 3d 79 1e 94 3d ec 01 80 3d
       0.019336455 0.06148 0.07232375 0.062503666
0003a0 f7 7b 6a 3d 6e ee 03 3e f4 24 b1 bc 24 6f 59 3c
       0.05724713 0.12883922 -0.021624066 0.013271127
0003b0 22 8c 9f bd 16 b3 84 3d cc 5c b6 bd 78 65 9a bd
       -0.077904 0.064794704 -0.08904418 -0.07538885
0003c0 b0 5c a9 bd bd 98 6f 3d 3c da a6 3d 9d cd 14 bd
       -0.08269632 0.058495272 0.08147094 -0.0363289
0003d0 7a fa 07 3d 92 52 66 3e d1 2e cb bc 89 37 93 bc
       0.033197857 0.22492436 -0.024802597 -0.017970817
0003e0 77 16 7a 3d 2e 3f c0 3d 79 7a 15 3d 45 1f 96 bb
       0.06105658 0.093870506 0.036493752 -0.0045813643
0003f0 a0 cd 5c 3c 76 a6 0d bd 1c 57 86 3d 0c 11 b8 3d
       0.013476759 -0.034582578 0.065595835 0.089876264

mu.tmlp.net.2.bias f4 [64]
000000 c5 d3 86 3d e5 b4 e5 bd 4f 4d 06 be 8f 9c a1 3d
       0.065833606 -0.112161435 -0.13115428 0.07891189
000010 46 71 5a 3d 39 88 c0 3d bf ed 90 bd 39 62 03 be
       0.053330682 0.094009824 -0.070765965 -0.12830438
000020 90 49 ac 3d f0 27 d3 3d 42 ca e1 bd c2 35 83 3c
       0.084124684 0.10310352 -0.11024906 0.016016845
000030 91 1f 24 3d 12 03 4f 3d ee 9a ea bd 81 2b bb bc
       0.040069167 0.050540037 -0.11455332 -0.022847893
000040 49 46 bb bd 15 a5 68 bd f8 da 5f b9 d0 ae a9 bd
       -0.09144265 -0.05679806 -0.0002134851 -0.08285296
000050 0f 2d 03 be 38 39 f0 3d 4d dc 6d bd de ad 2e bd
       -0.12810157 0.117296636 -0.058071423 -0.04264628
000060 68 16 7d bd 07 ad 8f 3b f0 bd 89 3c 75 69 cb bd
       -0.061788946 0.00438464 0.016814202 -0.09932224
000070 3b 9b d4 bd 35 9b cc 3b ed 59 67 bd 72 af e9 bc
       -0.1038117 0.006244088 -0.056482244 -0.028526042
000080 32 b5 97 3d ea 58 05 be 98 99 16 3d 59 20 cb bd
       0.07407607 -0.130222 0.036767572 -0.09918279
000090 82 c3 00 3e 48 67 f5 bd 37 da c6 3d 54 53 be 3d
       0.1257458 -0.1198259 0.0970959 0.09293237
0000a0 3d cc ca 3c bc 36 8e 3d e9 3a 62 3d 94 11 e8 bd
       0.024755592 0.069440335 0.055231962 -0.11331478
0000b0 90 14 a1 3d 39 b8 d9 bd d2 00 11 3d b1 81 ce 3d
       0.0786525 -0.10630841 0.035401173 0.100833304
0000c0 79 6d ff 3a e9 71 7e bc c3 00 03 bd 72 b7 36 bc
       0.0019487581 -0.015530088 -0.03198315 -0.011152135
0000d0 56 52 e5 bc ef bf b3 3d f4 5f c1 3c 4b 57 47 3d
       -0.027993362 0.08776843 0.023605324 0.048667233
0000e0 2a 01 ad bb 86 a7 61 bc d8 df e4 bd 8b 86 2d 3d
       -0.00527968 -0.013772851 -0.11175507 0.04236464
0000f0 b6 4f 92 3d 6a f3 e3 3d 49 7c e8 3d d0 d0 d9 3c
       0.0714411 0.11130412 0.113518305 0.026588827

mu.tmlp.net.4.weight f4 [1, 64]
000000 2f b3 c9 bd d7 e7 f1 3d 6e dd b7 3d 23 cb 46 3d
       -0.0984863 0.11811798 0.08977781 0.04853357
000010 ef 52 97 3d 9e 24 b5 bd 04 c6 33 3e df fe 1e 3b
       0.07388865 -0.08844875 0.17556006 0.0024260802
000020 50 62 5b 3d 30 2a e7 bd 90 d5 d0 bd e1 c6 86 3d
       0.053560555 -0.112873435 -0.10196984 0.06580902
000030 13 f4 7b bd 92 36 ea 3d 49 3a 9a 3c ef 04 b0 3d
       -0.061512064 0.1143619 0.01882662 0.08594691
000040 b9 7a 09 bd 53 fa 77 3d 32 87 f6 3d a8 52 13 3d
       -0.033564303 0.060541462 0.12037505 0.0359675
000050 97 76 0d bd 8e 62 be bd 24 dc ee 3d b3 b1 66 3e
       -0.034536924 -0.092961416 0.11663082 0.22528724
000060 c0 ac 10 3d db 60 82 bd 86 97 07 bd db cc 02 be
       0.035320997 -0.0636613 -0.03310349 -0.12773459
000070 0b 74 b7 3d 46 63 3e 3c d1 98 4b 3d f7 d4 10 be
       0.0895768 0.011620348 0.049706284 -0.1414374
000080 2a 0d dd 3d 94 56 93 3d 48 a4 2e 3d 84 d5 cf bd
       0.107935265 0.07194248 0.04263714 -0.10148147
000090 72 f7 e5 bc 9a 35 4e 3d 95 29 04 3e fe 25 ff bd
       -0.028072093 0.050344087 0.12906487 -0.12458418
0000a0 3d 5c 91 3d ef 7c a8 bd 04 77 89 bd f5 a6 aa 3d
       0.07097671 -0.08226954 -0.067121536 0.08332626
0000b0 60 a6 bd 3d 0c 50 c3 bd 56 75 1d 3d 4d 74 8b 3d
       0.09260249 -0.09536752 0.03844198 0.06809292
0000c0 77 c0 e0 3d a5 ac be 3d c1 58 47 3c 7b 31 74 3d
       0.1097421 0.09310273 0.012167157 0.0596175
0000d0 0f 13 5f bd b8 09 81 3d a7 48 93 bc d4 30 73 3b
       -0.054461535 0.06300682 -0.01797898 0.0037107961
0000e0 df e5 bf 3c be 9e cc 3d 02 aa b1 3d a3 df 80 3d
       0.02342504 0.09991215 0.086750045 0.06292655
0000f0 cc df ce bc 3f 4b bd bd 8c c3 c1 bd f8 d2 c0 bd
       -0.025253199 -0.09242868 -0.09461126 -0.09415239

sigma.tmlp.net.0.weight f4 [64, 2]
000000 9f 09 d9 ba 06 88 0c bf 24 2b b7 3e 7b f4 7f bd
       -0.0016558653 -0.54895055 0.357751 -0.062489014
000010 6e 9c 31 be 22 8a 04 bf be 4d fe be 6d 5c ae be
       -0.1734483 -0.51773274 -0.49668688 -0.3405489
000020 4f 61 0d bf ab 07 1c 3f 67 93 3f bf 8c 3b cc bc
       -0.55226606 0.609492 -0.74834293 -0.024930738
000030 41 90 4b be cb 8c d3 be 6a 8e a5 3e c7 6c 18 bf
       -0.19879247 -0.41318354 0.32335216 -0.5954098
000040 bf 93 cd 3e 69 66 9d be ed f0 18 bf 7a f3 92 3e
       0.40151784 -0.30742195 -0.59742624 0.28701383
000050 fe 11 73 be fa ee 0c bf 9d c3 43 bc e5 eb 47 3e
       -0.23737332 -0.5505215 -0.011948493 0.1952358
000060 52 2a 1f bf 12 98 e3 bd fe 4b b8 3e e2 17 8a be
       -0.6217395 -0.111129895 0.35995477 -0.26971346
000070 82 0c d9 3e bf 5b 09 bf 79 3a 86 bd ef 4b be 3e
       0.42392355 -0.5365562 -0.065541215 0.37167308
000080 ad a4 0b 3f 45 d7 58 be 08 45 2a bf e3 cd 63 3e
       0.5454815 -0.21175869 -0.66511583 0.22246508
000090 f8 65 c4 3e 0c d8 20 3f 57 02 59 be 45 09 5d be
       0.38359046 0.6282966 -0.21192299 -0.21585567
0000a0 ab e2 1b 3f 6b 78 05 3f b6 26 f9 be 69 32 31 3f
       0.6089274 0.5213687 -0.48662347 0.69217545
0000b0 36 6d 37 3f ba ed c8 be d2 62 0a be b5 56 9d bd
       0.7165102 -0.3924387 -0.1351426 -0.07682554
0000c0 42 22 23 bd 65 0b ac be ec b6 e5 be 25 a0 c9 3d
       -0.039827593 -0.33602443 -0.4486612 0.09844998
0000d0 c6 df cd be 8b 8e c6 3e f3 8f 25 3e 0e 9b da 3d
       -0.40209788 0.38780627 0.16168194 0.106741056
0000e0 5c e0 c1 3e 64 77 b8 be 90 90 88 be d0 bd d7 3e
       0.37866485 -0.36028588 -0.26672792 0.42137003
0000f0 e3 ad 86 be c6 ac 24 bf 4a 5b 4c bd 4e dd 9f be
       -0.2630454 -0.6432613 -0.049891748 -0.3122353
000100 1a bc bc 3e f3 23 b1 3e ac 47 e2 3e 4d 6e 18 3e
       0.3686226 0.3459774 0.44195306 0.14885826
000110 43 c1 cc 3e d4 9b 93 be 5d e8 5d 3f 65 e5 6e 3e
       0.39991197 -0.28829825 0.86682683 0.23329695
000120 f4 59 8e 3e 18 97 fc 3e 29 d1 d7 be 32 a0 b4 3e
       0.27803004 0.49334025 -0.42151764 0.3527847
000130 de f3 96 bd e3 9e 31 3e 90 94 85 3e 14 09 ef 3b
       -0.07370733 0.17345767 0.26089907 0.0072947834
000140 42 24 24 3f ae 22 27 3f fe c0 1a 3f 97 09 40 3e
       0.64117825 0.6528729 0.6045073 0.18753658
000150 b7 04 05 bf 6a 2a 25 3f 5d 0b 7b 3e 77 b6 33 3d
       -0.5196032 0.64517844 0.24516053 0.043875184
000160 5f de 18 bf 4c 15 09 3e 30 19 94 3e da fd 15 bf
       -0.5971431 0.1338703 0.28925467 -0.5859047
000170 40 81 ca 3d 10 51 9f 3e 09 dd 1f bf 60 ee 94 be
       0.09887934 0.31116533 -0.6244665 -0.29088116
000180 6b 58 da be 12 c1 c4 3e 6c 9e d6 3e c9 f9 99 3e
       -0.42645583 0.3842855 0.4191774 0.30073383
000190 ca f2 57 be 17 1f 3e be 9c 08 0a 3f 3a f7 f0 3b
       -0.2108871 -0.18566547 0.53919387 0.0073536905
0001a0 6f d8 a0 bd 28 d2 c3 be ab 3b 38 3f fa b1 9f bd
       -0.078537814 -0.38246274 0.71966046 -0.07797618
0001b0 e6 0e 17 bf 27 cf 97 be dd fe 19 bf ea a8 bd 3e
       -0.5900711 -0.29650232 -0.60154516 0.37042934
0001c0 87 3f 46 bd be 37 1a 3f 27 30 25 3f 79 37 f6 bb
       -0.04840043 0.60241306 0.645266 -0.007513937
0001d0 23 1e a2 3e 28 df 8a be 39 9d 25 bf e7 4a d2 bd
       0.31663617 -0.2712338 -0.6469303 -0.10268193
0001e0 4d 52 9d 3e 58 56 1f be 4a 59 a6 be 9d dd 9a 3e
       0.30726853 -0.15560281 -0.32489997 0.30247203
0001f0 c7 35 c4 3e fd 3c c1 3e b6 da 47 3e 94 d8 6d 3e
       0.3832228 0.37741843 0.19517025 0.23227149

sigma.tmlp.net.0.bias f4 [64]
000000 7d c8 24 bd c2 90 26 3f 12 e1 04 bd 9f 16 08 3f
       -0.040230263 0.6506463 -0.032441206 0.5315952
000010 d4 ff ba 3e 5a 69 14 bf 46 3a e7 3e 8f 67 29 3e
       0.36523306 -0.57973254 0.45161647 0.1654341
000020 80 2b e3 3e 57 a8 0f 3f 08 3a 20 3f ec 69 f6 3e
       0.44369125 0.5611624 0.6258855 0.48127687
000030 7e 57 c2 3d 65 a8 1e 3f 42 aa be bd 9d 96 1f bf
       0.09489344 0.619757 -0.09309818 -0.6233919
000040 93 ad 52 be 65 74 b2 3c 34 8c 5d 3e 96 54 93 3e
       -0.20574026 0.021784017 0.21635514 0.2877547
000050 dc 34 89 be a6 3b 24 3f be 6c 88 3e 30 e7 84 3c
       -0.2679814 0.64153516 0.26645464 0.01622352
000060 ea ae 06 bf 67 5a 5b be 74 f2 d2 be 60 48 6d 3e
       -0.5261065 -0.21421205 -0.41200602 0.2317214
000070 b6 ca 3c be 85 29 0d 3e 18 70 18 bf 7f 0c f6 3e
       -0.18436703 0.1378537 -0.5954604 0.4805641
000080 b9 df 10 be 02 0e 1a bf 0b 17 ca 3e 79 dd 55 be
       -0.14147843 -0.60177624 0.39470705 -0.20885266
000090 42 d3 2c 3e 19 40 0e be 29 44 ed 3e b0 de 24 3f
       0.16877463 -0.13891639 0.46341065 0.64402294
0000a0 de 26 a6 3e 35 5f 06 3f 4a 60 0f 3f b6 10 46 bd
       0.32451528 0.52489024 0.560063 -0.04835578
0000b0 f6 4f 1f 3f 6a 57 2f 3f e8 5f 15 3e 1f 2f 1d bf
       0.62231386 0.6849276 0.14587367 -0.61400026
0000c0 8f 09 d1 3e 6b c6 10 bf 7f b0 91 3e fb 73 29 bd
       0.40827605 -0.5655276 0.28454968 -0.041370373
0000d0 a3 24 53 3e 5b ff a6 be 37 74 02 bf 96 60 d8 be
       0.20619445 -0.32616696 -0.5095858 -0.4226119
0000e0 b8 66 8b 3d e2 40 68 3e a7 8c 13 3f 82 42 99 be
       0.068067014 0.22681001 0.57636493 -0.29933554
0000f0 42 b4 8f 3d 4b 42 01 3e e2 ac 7c bd b8 95 0b 3e
       0.07016803 0.12622945 -0.06168831 0.13631332

sigma.tmlp.net.2.weight f4 [64, 64]
000000 60 1b ca 3b de 27 47 bd d8 ea 8c bd e8 d4 4a 3d
       0.006167814 -0.048622005 -0.068807304 0.04951945
000010 70 04 7d 3c be 22 d8 bd 24 e7 a9 bd 6b 9c b7 bd
       0.0154429525 -0.105535015 -0.0829604 -0.08965381
000020 a8 7e 94 bd 8e 1a fd bd 40 e1 79 bc b5 cf af 3d
       -0.0725072 -0.123585805 -0.015251458 0.08584539
000030 32 18 b4 3d 54 93 ef 3c 7b 9b d7 3d 20 b5 42 bd
       0.087936774 0.029245056 0.105277024 -0.047536016
000040 dc d5 68 bd c4 11 71 bd bb d5 38 bc 20 a3 42 bd
       -0.056844577 -0.058854833 -0.011281426 -0.04751885
000050 63 a7 c7 bd a7 6a 51 bd 0c 44 38 bd f0 22 7d bd
       -0.09748723 -0.051127102 -0.04498677 -0.061800897
000060 28 46 b3 3c e8 6a 8d bc 40 51 6c 3b 4f e0 f2 bd
       0.021884039 -0.017262891 0.003605917 -0.1185919
000070 9a 48 00 bd 87 39 01 be b0 51 43 3c 0c 9e 89 bc
       -0.03131924 -0.12619601 0.011921331 -0.016798995
000080 5f 38 5c 3a 7c 71 cd 3d a2 f2 d6 3d ae fd c1 3d
       0.0008400734 0.10031411 0.10495497 0.09472214
000090 ba df 79 bd 00 52 89 3b 9e cd b9 bc 14 51 c1 bd
       -0.061004378 0.0041906834 -0.022681054 -0.094392926
0000a0 ee e8 a1 bd af 7e 5e 3d 4b b2 12 bd 94 42 87 3b
       -0.07905756 0.054320034 -0.035814565 0.00412781
0000b0 9c c5 b7 3d 9e d0 64 bd 20 09 c1 bd ba d8 ab 3d
       0.08973238 -0.055863015 -0.094255686 0.08390947
0000c0 aa 28 e2 3d 27 b3 cf 3d ae e2 98 bd 97 0d 03 be
       0.11042912 0.101415925 -0.07465111 -0.12798153
0000d0 50 06 24 3c 9d 9a b6 39 d2 f6 a6 bd 28 6d 88 bc
       0.010011271 0.0003482894 -0.08152546 -0.016653612
0000e0 01 d4 8c 3d 7c 27 d3 3d 7e 30 07 be 26 35 de 3d
       0.06876374 0.103102654 -0.13202092 0.10849981
0000f0 b9 a8 06 be 48 1b aa bd 71 7a de 3d 72 9e cc bd
       -0.131503 -0.08305985 0.108631976 -0.099911585
000100 64 3d 1d 3d 08 6d b5 bd ea b0 d8 bd ec ad 6d bd
       0.038388625 -0.08858687 -0.10580619 -0.058027193
000110 ac d3 32 bd 54 63 cc bd cc 18 ae bd d8 fb 65 3d
       -0.043658897 -0.09979883 -0.085008234 0.05614838
000120 fc 98 8b 3d 40 8f ad 3d 5c 8c b0 3d 44 aa a0 3d
       0.06816289 0.084745884 0.086205214 0.078449756
000130 56 61 d0 bd 98 7e a5 3c 5c bf ba bd 88 8e b2 3d
       -0.10174815 0.020201966 -0.0911853 0.08718592
000140 00 80 c6 bb 0c 2c 7b bd 32 f1 bb bd a0 3b ac 3b
       -0.0060577393 -0.061321303 -0.09176864 0.0052561313
000150 42 7f c8 3d 38 6b 04 bd 20 69 27 3d 80 05 cc 3b
       0.097898975 -0.032328814 0.04087174 0.0062262416
000160 d0 c4 6a 3c 90 57 05 bd 10 e4 22 bd fa f6 a4 3d
       0.01432915 -0.03255421 -0.03976828 0.080549195
000170 78 f6 df 3d 84 ff bf 3d 16 38 9d 3d 16 28 99 bd
       0.10935682 0.093749076 0.07676713 -0.07478349
000180 ac 10 6e bd ea 54 d5 bd a0 e2 d5 3b 34 28 b7 bd
       -0.05812137 -0.10416587 0.00652726 -0.08943215
000190 c6 db ef bd a8 fb b3 3c d0 41 19 bc 50 7a 05 bc
       -0.1171184 0.021970585 -0.00935407 -0.008146837
0001a0 8c cb 38 bd 80 8e 39 bb c0 07 ce bd c0 35 0e 3b
       -0.045115992 -0.0028313696 -0.10060072 0.0021699518
0001b0 86 1a 86 bd 7c e2 1b 3d da 04 dd 3d 60 ad 4b 3c
       -0.06548028 0.03805779 0.10791941 0.012431473
0001c0 92 e9 9e bd 46 5a d0 bd 52 52 d5 bd 1e 2d 9a 3d
       -0.07759394 -0.10173468 -0.10416092 0.07528137
0001d0 98 e8 b3 bc d8 6d 4d 3d 98 01 07 3d c0 58 16 3d
       -0.021961495 0.050153583 0.032960504 0.036705732
0001e0 88 3c 54 3d f0 16 f9 bd f0 6b 90 3c f0 7d 3e 3c
       0.05181554 -0.12162578 0.017629594 0.0116267055
0001f0 46 ef 95 bd de 74 cd 3d b0 d1 2e 3d c0 e6 90 3d
       -0.073210284 0.10032056 0.042680442 0.07075262
000200 20 a4 aa 3d 24 69 67 be 72 60 ff 3d a6 77 ae bd
       0.083320856 -0.22598702 0.12469567 -0.08518915
000210 5b d3 06 3e 53 70 3b 3e 8d 5b 5a 3c 64 62 03 be
       0.13166563 0.18304567 0.0133274915 -0.12830502
000220 3f f3 55 be db 82 9b bc c3 a7 9a 3d 67 41 22 3d
       -0.20893572 -0.018983295 0.07551529 0.039613154
000230 f9 f9 ef 3d eb ae 64 be b0 64 be bd ba ef da 3d
       0.117176004 -0.22332351 -0.09296548 0.106902555
000240 9a 23 b6 bd ba d4 1f 3e d4 12 47 be 2c 59 65 3c
       -0.08893509 0.15608492 -0.19440776 0.013998311
000250 36 b7 a2 3d 0b 50 d2 3d 74 0b cd bd 9d 78 48 bb
       0.07945101 0.10269173 -0.1001195 -0.003058947
000260 2e af bf 3d 23 74 a8 3d c8 40 44 3e 92 a6 71 be
       0.09359585 0.08225276 0.19165337 -0.23598698
000270 6a 87 95 bd 84 b0 f9 bc 08 0a 7c bd 16 90 18 be
       -0.07301219 -0.030479677 -0.061533004 -0.14898714
000280 42 ff f0 bd 76 3b ec bd 29 96 06 bd b0 49 54 bc
       -0.117674366 -0.11534779 -0.032858048 -0.012957022
000290 fc be 89 39 53 fa 5f bd a5 4e 34 bc ab 10 4f bd
       0.0002627297 -0.054682087 -0.011005078 -0.050553005
0002a0 2c a4 2e be 8b 8a 9e be 78 3c 80 bd 40 e1 b7 bd
       -0.17054814 -0.30965075 -0.062615335 -0.0897851
0002b0 0d c3 82 bd 20 93 52 be 23 ff 03 be 7e 24 28 3e
       -0.06384859 -0.20563936 -0.12890296 0.1642017
0002c0 2b 97 82 bd 2c ba 53 bd bd e3 d5 3d 34 ca 45 3d
       -0.06376489 -0.05169122 0.10443828 0.04828854
0002d0 ac 65 a4 bd 80 49 a1 bc e1 c6 1b bd 03 03 0f 3e
       -0.08027205 -0.019688368 -0.038031463 0.13965993
0002e0 1a fa b4 bd 7f bd 30 bd 1d 8e 10 be 3c 5b 55 3e
       -0.088367656 -0.043149468 -0.14116712 0.20835584
0002f0 5a a9 bd 3d 64 5b e7 3c e0 23 c9 bd 8c 2a 5c bd
       0.09260817 0.02824182 -0.09821296 -0.053751513
000300 64 17 72 3d ac 21 51 bd 80 58 23 bb 60 7b 91 bb
       0.05910434 -0.051057503 -0.0024924576 -0.0044397563
000310 b4 07 1a bd 52 f6 bf bd 98 69 55 3d 90 0b 72 3c
       -0.037605003 -0.09373154 0.052102655 0.0147732645
000320 a2 b8 99 3d 70 6a d1 3c 36 49 84 3d 60 26 bf bb
       0.07505919 0.025563449 0.064592764 -0.005833432
000330 60 54 f9 bc da c6 b6 bd 24 dc 61 3d 70 1a 2d 3d
       -0.030435741 -0.08924647 0.055141583 0.04226154
000340 68 f8 e4 3c d0 9b 44 bc 78 36 b1 bd 9c 5f 35 3d
       0.02795048 -0.012000039 -0.08652967 0.044280633
000350 a0 00 4e bc e0 ac e9 bb 24 6e e0 3d 64 a4 1d bd
       -0.012573391 -0.007131204 0.10958508 -0.038486853
000360 1e 9c cf bd 10 e1 b1 bd 98 2d 8b 3c a8 f7 cc bc
       -0.10137199 -0.086855054 0.016989514 -0.025020435
000370 3c 3b 60 bd e0 9c c1 bd 86 90 ef bd b0 6f b5 3d
       -0.05474399 -0.0945375 -0.116974875 0.08859193
000380 40 bc eb 3d 2c fb 96 bd f8 09 73 bd d4 ef cd 3d
       0.11510515 -0.07372126 -0.05933568 0.10055509
000390 e4 59 23 3d f0 f8 b9 bc d4 5e f4 bd 74 bb ab bd
       0.03988065 -0.02270171 -0.119321495 -0.08385363
0003a0 98 2c c7 bd de 8f f2 bd c2 5f b6 bd 3c 5a b8 3d
       -0.097253025 -0.11843847 -0.08904983 0.09001586
0003b0 00 94 8c 3d 4e 18 ec 3d aa a9 fa 3d ec bc e3 bd
       0.06864166 0.11528073 0.12239392 -0.11120018
0003c0 5e 84 b4 3d 4e 4e e0 3d 2a 03 bd bd e0 0a 61 3d
       0.088143095 0.109524354 -0.09229119 0.05494201
0003d0 08 1c 98 bd 3e 54 bc 3d d0 3c 8a 3d a8 2b 32 bd
       -0.074272215 0.091957554 0.0674988 -0.043498665
0003e0 2c 9d 07 3d 4e 78 ae bd 92 7c 8d 3d 80 36 6e bc
       0.033108875 -0.0851904 0.069085255 -0.014539361
0003f0 ce f2 fa bd 78 52 d8 3c e2 49 a0 bd 04 3a a9 3d
       -0.122533426 0.026406512 -0.07826592 0.08263019

sigma.tmlp.net.2.bias f4 [64]
000000 cc 47 cd bc 80 79 b9 bc ee df 9d 3d f8 e0 db bc
       -0.02505865 -0.022640944 0.07708727 -0.026840672
000010 f2 89 1f 3d 1c 26 64 3c 85 79 a9 3d 24 a6 a5 3d
       0.038949914 0.013925102 0.08275131 0.080883294
000020 f8 7a 43 3d 23 2d 9b bd c7 bf 87 3d e5 b6 64 3d
       0.047724694 -0.075769685 0.066283755 0.055838484
000030 22 83 da 3d ac 8b 2e bd 9a 95 aa 3d 7b b8 52 3b
       0.10669543 -0.04261367 0.083293155 0.0032153416
000040 d3 9d 58 3d 99 45 7e 3d ad 0a 00 be 7f 55 0c 3c
       0.052884888 0.062078092 -0.12504072 0.008565306
000050 9a a0 be bd 1b e0 ec 3d fa d1 ad 3d 36 d4 93 3d
       -0.09307976 0.11566182 0.084873155 0.072182104
000060 c2 8d c2 3d 11 3c 03 bd fd 7c a5 3d e1 ff e5 bc
       0.094996944 -0.032039706 0.0808048 -0.028076114
000070 a8 80 b0 bd 8f 84 92 3d c6 96 fc 3d ec 18 b9 bd
       -0.08618289 0.0715419 0.12333445 -0.090379566
000080 a8 ef a1 bd 38 d5 e9 3b 4e 8e 7b 3d 95 68 cc bc
       -0.07907039 0.0071360134 0.06141501 -0.024952212
000090 4e ca a7 bd d4 c0 25 bc a8 01 b8 bc 50 b5 46 3d
       -0.081928834 -0.010116775 -0.022461727 0.048512757
0000a0 0c 76 d0 3d 4b dc 03 bd 06 f9 ca 3d c5 07 f8 3c
       0.10178766 -0.03219251 0.09910779 0.030277142
0000b0 de a0 07 be 51 f3 a2 bb 78 dc d5 bc 15 39 13 3e
       -0.1324496 -0.004972853 -0.026106104 0.14377244
0000c0 63 b7 91 bd c0 b9 43 3d 09 f7 8f 3d 99 67 ba bd
       -0.07115056 0.047784567 0.0702954 -0.09101791
0000d0 b0 fe 49 3d 63 37 0b bd 8c 86 9a bd 13 f2 39 bd
       0.049315155 -0.033988368 -0.07545194 -0.045396876
0000e0 fb 48 30 3e 66 b5 03 3e 75 cf 4c bd 8a 1c 98 bd
       0.1721534 0.12862167 -0.050002534 -0.074273184
0000f0 5f f5 b2 3d 30 ac 68 bc 58 28 be 3d 86 3b 09 bd
       0.08738207 -0.014201209 0.09285039 -0.03350403

sigma.tmlp.net.4.weight f4 [1, 64]
000000 a2 f9 e5 3d 68 e7 28 bd 02 e6 30 3e 68 bd ba bd
       0.11229254 -0.04123631 0.17275241 -0.091181576
000010 99 34 c5 3c f4 a6 25 bd c2 82 d6 bd ec ba b2 3d
       0.024072932 -0.040442422 -0.10474159 0.08727059
000020 e4 69 33 3e 04 3d 5b be 60 35 a4 bd ad f8 f3 3d
       0.17520863 -0.21409994 -0.08017993 0.119126655
000030 8a 9f 43 be 52 44 8a bd ad 2b 8b 3d dd 74 03 3e
       -0.19103828 -0.06751312 0.0679544 0.12837549
000040 3d 59 fa bd c9 f0 b4 3d bd bc 8e bd 96 b6 8b bd
       -0.12224052 0.088349886 -0.06969593 -0.06821935
000050 72 92 9c 3d 42 d7 85 bd 08 8a 40 3c ac 99 05 bd
       0.0764512 -0.06535198 0.011751659 -0.032617256
000060 d9 b7 cc 3d f9 1e e1 bd aa 7c 30 bd cb a6 f8 bc
       0.09996004 -0.10992236 -0.04308764 -0.03035297
000070 b8 30 34 3d 50 9c dc 3d c5 d7 f0 bd 00 9b b7 3c
       0.043991774 0.10772002 -0.11759905 0.022412777
000080 fe 5c 8e bd ed 2b 01 be 66 b2 df 3d 90 20 05 3e
       -0.069513306 -0.12614413 0.10922699 0.13000703
000090 35 a3 27 be 44 41 d6 bd 66 b7 9a bd e1 71 08 bd
       -0.16370852 -0.10461667 -0.07554512 -0.03331173
0000a0 d4 d3 b5 bd 8c 04 9c bd 6b d7 10 be de bd 00 3d
       -0.08878294 -0.07618055 -0.14144675 0.03143107
0000b0 84 36 2e 3e 5d 25 10 3e 2e a3 a6 bc 4d 49 a3 bd
       0.17012984 0.14076753 -0.020341482 -0.079729654
0000c0 d7 43 9a bd 1c 92 87 3d db 49 bd 3d cb c2 04 3d
       -0.07532471 0.06619665 0.092426024 0.03241233
0000d0 1a 20 2c bd 0f ab 23 3e 7e f5 82 bd 04 18 20 bc
       -0.042022802 0.15983222 -0.0639448 -0.009771351
0000e0 d8 50 1f be e0 f8 98 bd a3 52 8f 3d 6c 5a 4c bd
       -0.15558183 -0.07469344 0.069981836 -0.04989092
0000f0 f1 d3 19 3d 30 f0 3d bc 71 bf 23 be 17 de eb bd
       0.03755564 -0.01159291 -0.15990998 -0.1151697
