checkpoints/model.pt (torch, 40850 bytes, 10 tensors)

mu.tmlp.net.0.weight f4 [64, 5]
000000 82 03 c7 3e 67 35 b1 3e e0 8e 02 be f9 87 92 bc
       0.38869864 0.34611055 -0.12749815 -0.017887102
000010 25 62 96 bd 75 07 9d 3e ac cd d4 3d 17 cf ba 3e
       -0.07342938 0.30669752 0.10390791 0.36486122
000020 a5 48 d8 bd 39 9a 53 bd e1 4f a9 3d e6 02 64 be
       -0.10560731 -0.05166075 0.08267189 -0.2226673
000030 fb ce a2 3d b1 4f d4 bc 36 ec bd be 48 f4 d1 be
       0.07949635 -0.025916906 -0.37094277 -0.41006684
000040 29 af 11 bd d2 7d 88 3d db 76 26 3e f9 a6 9a be
       -0.035567436 0.06664623 0.16256277 -0.30205515
000050 dd de 0a 3f 84 17 62 bc c0 e4 9b be bc 8d d2 3d
       0.5424631 -0.013799552 -0.3044796 0.1028094
000060 d3 d6 86 3d a3 19 20 3f 59 c1 ea be a0 42 df 3d
       0.06583943 0.6253912 -0.45850638 0.109013796
000070 2f 8c d1 be a7 78 65 3e 04 26 e5 be 05 94 88 3e
       -0.40927264 0.22409306 -0.44755566 0.2667543
000080 11 1b a9 3e e4 bc 4d be e0 74 f3 3e 4b ea 48 bd
       0.33028463 -0.20091587 0.47550106 -0.049051564
000090 71 2a 05 3f 98 a1 74 be 96 cb 03 be 05 ef 68 3b
       0.52017885 -0.23889768 -0.1287063 0.0035542857
0000a0 91 61 8f 3d f7 c1 c9 be a4 f2 56 3d 1a 66 88 3e
       0.07001031 -0.39405796 0.052477494 0.26640397
0000b0 2f c9 60 3d ee e6 21 3f d0 56 d0 3d 6d 01 b4 be
       0.054879364 0.63242996 0.10172808 -0.35157338
0000c0 61 51 60 3e eb 90 d5 3e 94 ca 81 3e 47 d9 60 be
       0.21906044 0.41712126 0.25349867 -0.21957885
0000d0 9d 4c 39 be 19 4e 40 bd ca b3 89 bd c7 43 07 3e
       -0.18095632 -0.04694948 -0.06723745 0.13209449
0000e0 99 e9 32 3e bd a6 09 be 41 5a db 3e 60 2c a8 3d
       0.17471923 -0.13442512 0.42842296 0.08211589
0000f0 7b 32 34 3e cc 3a b5 be a4 8d 7a be c9 6e ac 3e
       0.17597382 -0.3539642 -0.24468094 0.33678272
000100 32 99 e6 3d 79 db fc 3e ef 25 e0 bc cd 09 89 bc
       0.112596884 0.49386194 -0.027361838 -0.016728306
000110 99 1b c2 be 99 e8 c4 3d eb fc 78 be bb 13 2a 3e
       -0.3791168 0.09614677 -0.2431523 0.16609089
000120 4d 47 a8 3e 28 c8 d9 be dc 1a ca 3e 24 c6 6a bd
       0.32866898 -0.4253552 0.39473617 -0.057317868
000130 5d 93 bc 3e 56 3b 9f bd 5a 76 fb be 2c 79 b5 3e
       0.3683118 -0.07774989 -0.49113733 0.3544401
000140 39 ba 70 3e 60 dc 15 3f 67 e9 d4 be 22 9d ac 3e
       0.23508538 0.5853939 -0.41584322 0.33713633
000150 8e 6a b0 be ad aa 45 3e ad f6 04 3f 7e 4f b7 bc
       -0.34456295 0.19303389 0.519389 -0.022376772
000160 77 04 0a 3e 9f 59 ff be 15 9d 9b 3d 01 59 f1 be
       0.13478266 -0.49873063 0.075983204 -0.47138217
000170 23 ac 8e be 86 cf ea 3d ee ce 98 be f8 56 9a 3e
       -0.27865705 0.11465363 -0.29845375 0.30144477
000180 7b eb 24 be d7 5a 00 bc 8b a0 81 be 33 2d a8 be
       -0.16105454 -0.007834158 -0.25317797 -0.32846984
000190 ef 06 4c bd 0b 3b 7d be a9 ba c8 3e 39 0f ca 3c
       -0.0498113 -0.24729554 0.3920491 0.024665462
0001a0 37 e4 c1 3e e9 30 6f 3e 0d 45 03 3e ea 2e e8 3e
       0.37869427 0.23358501 0.1281931 0.45348293
0001b0 d4 8c e0 bc 69 24 31 be 31 a6 de be 93 37 39 be
       -0.027410902 -0.17299046 -0.4348617 -0.18087606
0001c0 24 43 be 3d d8 fc a2 be 53 28 1c 3e af 45 cb be
       0.0929015 -0.3183353 0.15249757 -0.39701602
0001d0 da a1 93 3e 71 17 3c 3e 26 93 c4 bd 05 61 91 be
       0.2883442 0.18368317 -0.09598379 -0.28394333
0001e0 e2 da 32 3e 30 95 dd bd c3 6c 86 3e 29 0a 64 3d
       0.1746631 -0.10819471 0.26254854 0.055673752
0001f0 22 19 87 be 18 17 8a be 06 a8 93 be 0d 69 83 3e
       -0.26386362 -0.26970744 -0.2883913 0.25666085
000200 42 39 a7 bd 3c b3 cd 3e 54 13 d1 bd 7f ad be bb
       -0.08165218 0.40175807 -0.10208765 -0.005819022
000210 cb 6e 49 3e cd e7 01 3f 87 15 8c 3e 2c 66 87 3c
       0.1967117 0.50744325 0.27360174 0.016528212
000220 7b 24 a4 be 17 bf 78 3e 99 e6 5f bd 5b 3c 01 be
       -0.32059082 0.24291645 -0.054663274 -0.1262068
000230 f4 ae 87 3e 15 b3 09 3e da be 9f bd 55 93 47 bd
       0.26500666 0.1344722 -0.07800074 -0.04872449
000240 98 ae b7 be 76 6a 0f 3e 98 93 1c 3f 31 ea 78 3e
       -0.35875392 0.14005455 0.6116271 0.24308087
000250 47 df 7e 3d e3 84 4a bd 2e 3b 5a be 6b 2e c8 be
       0.062224653 -0.049443137 -0.21311638 -0.39097914
000260 49 4a 76 3e 2c 0d fa bd e2 ba dc 3e a7 35 33 be
       0.24051775 -0.122095436 0.4311133 -0.17500935
000270 f9 28 de 3d eb a3 ff 3e 8c d9 c0 be 5e 57 0b 3e
       0.10847659 0.49929747 -0.37665975 0.13607547
000280 ad a3 e7 be e9 93 bb bd 32 4f c8 bd b7 e6 be 3d
       -0.45242062 -0.09159071 -0.0978073 0.09321349
000290 87 80 4a 3d 53 bc 8d bc 15 d6 c9 3d da 07 0c be
       0.04943898 -0.017301714 0.09855286 -0.1367487
0002a0 e1 79 b7 3d bf 3b d1 be dd 86 1f be aa 54 af 3e
       0.089587934 -0.40865895 -0.1557879 0.3424428
0002b0 ec db bb 3e 06 f8 07 3e 12 c7 85 3e 7c af 1c 3c
       0.36691225 0.13278207 0.2612844 0.009563323
0002c0 cb c9 a9 be e6 a5 da be 30 b0 24 3e ba ef ca be
       -0.33161768 -0.42704695 0.16082835 -0.39636022
0002d0 a4 07 34 be 6a 0a 2e bd c1 df f6 3e 96 85 f0 be
       -0.1758104 -0.0424904 0.48217586 -0.46976918
0002e0 d6 33 da 3e ea ee 14 bd f8 68 9d be dd 4d ce 3e
       0.42617673 -0.03636066 -0.30744147 0.4029378
0002f0 02 93 06 3e 8e 2f bc 3e 11 8e 93 be a8 82 ec be
       0.13142017 0.3675503 -0.28819326 -0.46193433
000300 98 1c 2e be 2d 6f e8 3e 4f fb 17 3e 0b cd 70 3e
       -0.17003095 0.4539732 0.1484196 0.23515718
000310 2c f1 71 bd 9b 24 d6 be 00 ba 0c 3e 7e d1 8b be
       -0.05906789 -0.41824803 0.13742828 -0.27308267
000320 af a7 e2 be 3d 08 c3 3e 12 c3 d3 be 87 5a 08 bf
       -0.44268557 0.38092223 -0.41359764 -0.53263134
000330 e6 54 b8 3e f4 1b 07 bf 9f 47 55 3e 4f 90 c8 be
       0.36002272 -0.5277703 0.20828103 -0.391726
000340 cb e7 c1 3e 83 29 dc 3e 47 b1 cb bc d6 b4 2f bd
       0.37872157 0.4300042 -0.024864806 -0.042897068
000350 d2 19 5e 3e 69 dc c0 3e 6c 8c a4 3e 35 08 bf 3e
       0.21689537 0.3766816 0.32138383 0.3731095
000360 be b0 d7 3e 34 cd 81 3e f7 49 c9 3e be d9 27 bd
       0.4212703 0.2535187 0.39314243 -0.04097914
000370 6c a8 ae be bf a5 d2 3e 4e 32 cd 3e 2c ab d6 3e
       -0.3411287 0.4114208 0.40077442 0.4192747
000380 e5 f7 a8 3d 99 bc b7 3e 6f d9 0e 3e bb e9 9d be
       0.08250407 0.35886076 0.13950132 -0.30842385
000390 fe 93 95 3e bd df 38 be 47 4b bb 3e 5f 32 08 3f
       0.29214472 -0.180541 0.3658087 0.5320186
0003a0 98 f1 09 be a5 4d c3 3c c8 3c cb 3e 1d 8d 7d be
       -0.13471067 0.023840735 0.3969481 -0.24760862
0003b0 ae da 04 3f 1c 01 76 3e 7b 48 c4 be 31 1d c6 bd
       0.5189618 0.2402386 -0.38336548 -0.096735366
0003c0 6b d6 01 3e a8 02 f0 be 9a b0 a1 3d 6c 76 28 3e
       0.1267945 -0.46877027 0.07895012 0.16451424
0003d0 24 85 33 be 0d 4f ad be ce be e1 3e 96 e7 2d bc
       -0.17531258 -0.33849373 0.44090885 -0.010614296
0003e0 fb 0a 7b 3d b0 e3 cb be d0 6d a3 be 15 71 8d bd
       0.06128977 -0.3982215 -0.31919718 -0.06906334
0003f0 23 40 74 3c a7 4b 06 bd 23 37 17 be 12 65 14 bd
       0.0149078695 -0.03278699 -0.14767127 -0.0362292

mu.tmlp.net.0.bias f4 [64]
000000 cf f9 91 be 81 91 70 3e d8 89 85 3c 7d 77 e8 3e
       -0.285109 0.23493005 0.01630108 0.45403662
000010 5c 62 2b be 38 eb 8b 3d 80 d9 4f 3e b5 7c c5 3e
       -0.1673674 0.06831974 0.20297813 0.38571706
000020 32 6c f8 3e c3 6a a8 be 63 3d e6 3e ed 46 a2 3e
       0.48520046 -0.32893953 0.4496871 0.31694737
000030 b7 80 07 3c e6 62 9d 3e 23 1f d7 bd e5 ee 0b 3d
       0.008270434 0.30739516 -0.10503986 0.034163374
000040 c6 a8 82 3e 9e bb 6b bd 9b 3a 6e be c8 ef be be
       0.2551939 -0.057551973 -0.23264544 -0.37292314
000050 35 a3 39 3e 25 5e 65 be f9 24 1e be b2 7a e3 be
       0.18128665 -0.22399195 -0.15443791 -0.44429547
000060 cb 0e 66 3e 5b 3e b5 3e 34 33 0b bd 9d 78 35 be
       0.2246658 0.35399136 -0.033984378 -0.17721792
000070 b9 9b fb 3e 81 97 9a bd e5 e8 b3 3e 25 c8 b9 3e
       0.49142244 -0.07548428 0.35138622 0.3628551
000080 18 3e 22 be 43 ad 69 3e 51 2f bd 3d ea a1 60 be
       -0.15844 0.2282 0.092375405 -0.21936765
000090 96 9b e0 be 8f d9 ad 3e bf 2c ce be b8 7f 31 3e
       -0.43868703 0.33955047 -0.40268514 0.17333877
0000a0 28 a9 bd bd 8b d7 67 be be 8c 1b bd c2 17 2f be
       -0.092607796 -0.22640817 -0.03797602 -0.17098907
0000b0 42 94 8c be dc 95 ae 3d 49 8b 72 3e d6 b7 91 be
       -0.27456862 0.08524677 0.23685946 -0.28460568
0000c0 73 b9 d8 bd b3 50 86 be 42 12 95 be 0e e7 cf bc
       -0.10582247 -0.26233444 -0.29115492 -0.02537873
0000d0 61 c5 b4 be 86 96 86 3e 65 71 97 be 06 86 d1 be
       -0.35306838 0.26286715 -0.295787 -0.40922564
0000e0 f7 f4 68 bd 79 11 87 be b2 15 fe 3d d2 f4 e7 be
       -0.05687424 -0.26380518 0.12406482 -0.4530397
0000f0 f3 40 96 be cc 37 4e 3d 05 e2 9b 3c 16 4c a1 3e
       -0.29346427 0.05034618 0.019028673 0.3150336

mu.tmlp.net.2.weight f4 [64, 64]
000000 cf 42 01 bd d5 1d 72 3d 89 be 3e bd f9 33 00 bd
       -0.031557854 0.05911048 -0.046568427 -0.031299565
000010 4e f8 c9 bd 88 2e 0b bd 95 18 43 3c 6f fd c9 3c
       -0.098618135 -0.033979923 0.011907716 0.02465698
000020 08 32 35 3d b2 ec a2 bc 33 c3 9e 3c 87 4e 3d bd
       0.044237167 -0.019888256 0.019380188 -0.046217468
000030 29 dc b9 bd c4 f3 92 bd b9 a0 c7 3c 32 6a 37 3d
       -0.09075195 -0.07175401 0.02436863 0.04477901
000040 e7 e7 a2 3c a2 fb ab bb ce 64 86 3d 7b 19 c3 be
       0.01988597 -0.005248503 0.06562196 -0.38105378
000050 ab d9 20 39 9e 7d 82 bd 0d 54 85 bd 38 cd d9 3c
       0.00015339877 -0.06371616 -0.06510172 0.026587114
000060 cb ff 6b 3d 0d 25 bb bc 92 46 6d 3d 5a 50 9a bd
       0.05761699 -0.022844816 0.05792863 -0.07534857
000070 45 5c 16 3b e5 0d c7 bd 65 db 01 bd ce d6 1a 3e
       0.002294318 -0.09719447 -0.03170337 0.15121004
000080 01 2b 07 be 41 48 a7 bd be 8f 69 3c ed 3e 0e be
       -0.13199998 -0.08168078 0.014255462 -0.13891192
000090 2d 3f 6a bd 8b 40 59 3b 17 b8 10 be 5b 00 a4 3d
       -0.057189155 0.0033150043 -0.14132725 0.0800788
0000a0 df b7 83 3d ac 81 1b be 48 7f e5 bd 39 c7 a6 3c
       0.06431555 -0.15186185 -0.112059176 0.020358669
0000b0 97 6e ab bd 36 b5 0d 3e ef d1 fb bc 89 63 ac 3d
       -0.08370703 0.13838658 -0.030739753 0.08417422
0000c0 0d 8c 94 3d cd 24 2e 3d 41 19 cc 3d ee 70 4b 3d
       0.07253275 0.042515565 0.09965754 0.049668245
0000d0 66 2d 14 be 3f 43 8b bd 1f 37 8e 3c 88 d3 71 3d
       -0.14470443 -0.067999355 0.017360268 0.059039623
0000e0 2a c3 23 3e 9a 0a 96 bd 42 ae 85 3d 96 e9 98 be
       0.15992418 -0.07326241 0.06527378 -0.29865712
0000f0 00 84 c7 3d 7e 99 d8 3d 64 8f 1f bd 46 c8 b1 bd
       0.09741974 0.10576151 -0.038955107 -0.08680777
000100 d4 a0 31 be ab ab 0d bd 0a ca 6b 3d 2f 95 a1 bc
       -0.17346507 -0.034587543 0.057565726 -0.019724457
000110 4c 12 aa be 69 ef 8e 3d 6c 4b b9 bc 83 ea 1c 3b
       -0.33217084 0.069792576 -0.022618972 0.002394349
000120 99 63 e4 3d 0f c6 44 bf 8f 6f aa bb 90 cc 36 bc
       0.11151809 -0.76864713 -0.005201287 -0.01115717
000130 32 3d 1c be fb 07 2a 3c d6 32 73 be b0 ea 98 bd
       -0.15257719 0.010377879 -0.23749861 -0.07466638
000140 24 fe 3d 3c 74 64 38 be a2 46 1a 3e 34 e7 82 3d
       0.011596236 -0.1800707 0.15066007 0.06391755
000150 8d 46 25 bd 2b c6 7f 3c 47 9b 7c 3d 4c 6f ba bd
       -0.040350486 0.015611212 0.06167152 -0.091032594
000160 7b bc 11 3e 69 2b cc 3c 69 d0 f5 bd af 3b a7 3c
       0.14232056 0.024923043 -0.12002642 0.020414202
000170 63 ce 0c 3e a3 a4 0c be 01 45 e8 bc dd 10 2e 3e
       0.13750605 -0.13734679 -0.028353216 0.1699862
000180 29 6d a9 be e3 fd 0e 3e e3 71 91 3d a3 a5 ca bd
       -0.33091095 0.13964038 0.071018 -0.09894874
000190 9c 6f a6 3e 48 21 d5 bd 33 d0 83 be 82 b7 a6 bb
       0.32507026 -0.104067385 -0.2574478 -0.005087794
0001a0 c0 30 bb bc a0 45 a1 be 2c 8e cb 3d 28 6e 30 3d
       -0.022850394 -0.31498432 0.099392265 0.043073803
0001b0 bd ad 0e bd dc ac 20 3e 0b 30 00 be 1c 0c 53 3e
       -0.03483366 0.1569094 -0.12518327 0.20610088
0001c0 fa af 1d 3d a6 b3 9c 3d 36 0c ad 3d 89 9b bc 3e
       0.038497902 0.07651453 0.08449595 0.36837414
0001d0 64 ed b3 bd b8 6a bb 3d e3 2c 0d bf 5b a5 e8 be
       -0.08785513 0.09151214 -0.55146617 -0.45438656
0001e0 0d dd a1 3d 4d fc 3e bd 18 73 9a bd 1b 8a 68 be
       0.0790349 -0.04662733 -0.07541484 -0.22708933
0001f0 cc 0b ca bd a9 b4 22 be 38 c8 90 bd 2b f4 09 3e
       -0.09865531 -0.15889229 -0.07069439 0.13472049
000200 00 19 ab bd fb e0 d5 bd 1c 80 ca 3d 29 17 ba 3d
       -0.08354378 -0.10443302 0.09887716 0.09086449
000210 5d 89 12 be 72 46 b0 bd c1 41 a7 3d 4a d9 9c bd
       -0.14310212 -0.086071864 0.081668384 -0.07658632
000220 35 35 07 be 2b ff f6 bd d9 92 9e 3d e3 18 43 bd
       -0.1320389 -0.12060388 0.07742853 -0.047631156
000230 26 c9 cd 3d 36 64 84 bd 3c 02 18 3e 77 2c 4d 3e
       0.10048132 -0.06464426 0.14844602 0.20036493
000240 de c0 70 3d 05 41 a8 3d 55 ae 19 3e 2d fc a5 bd
       0.058777682 0.082155265 0.15007909 -0.08104739
000250 52 94 43 bd 3e 54 8c bd 8d c2 84 3d 03 61 dc 3c
       -0.04774887 -0.068520054 0.0648242 0.026901728
000260 31 79 29 3d eb c5 e6 bd d7 43 ef 3d aa f0 a3 3d
       0.041375343 -0.112682186 0.11682861 0.080048874
000270 e6 de 02 be 26 1d cd 3d 11 3b 22 bd cd 08 1b 3d
       -0.12780342 0.10015325 -0.03960711 0.03785019
000280 fb 85 39 3e d7 87 79 3d aa dd 91 3c 92 ce 40 bd
       0.18117516 0.060920563 0.017805893 -0.047072
000290 c7 9b 99 3c da f0 8c bd df ce 1d 3e 6e ad 8b 3d
       0.018751038 -0.06881876 0.15410946 0.068201885
0002a0 98 6d 6d bd 07 92 35 3e 9b 88 e5 3d 6d 2e 6f bc
       -0.057965845 0.17731486 0.11207696 -0.014598471
0002b0 2b ba d9 bd 90 ac a8 3b 88 e1 03 bd 00 99 e9 3d
       -0.10631212 0.005147524 -0.032197505 0.114061356
0002c0 ac 9f bc 3d e1 01 ad 3a 36 42 cd bd f2 66 4b bc
       0.092101425 0.0013199412 -0.10022394 -0.012414681
0002d0 6f a5 07 3e 0e ac ca bd 08 e9 0a 3e 55 a4 11 3d
       0.13246702 -0.09896098 0.13565457 0.03555711
0002e0 06 3e 16 3e a8 c8 6d 3e 70 bf b5 bd 6d df 1e be
       0.14672098 0.23221076 -0.088744044 -0.15514918
0002f0 20 4f 33 be 93 19 90 bd 76 c3 64 3d 02 02 ee 3d
       -0.17510653 -0.07036128 0.05585047 0.11621477
000300 26 48 b1 bc 1a 9c 94 3d d9 db 25 be 71 63 f0 bd
       -0.021640848 0.072563365 -0.16197146 -0.11737717
000310 30 f7 44 bd cf 6a 3b bd 49 d5 05 bd f7 db 29 be
       -0.0480873 -0.045756157 -0.032674108 -0.16587816
000320 2a 37 d0 bc 79 f3 23 3e 3f 8e 35 3d 24 49 09 3d
       -0.02541693 0.16010846 0.04432511 0.033517018
000330 1a 5a e5 3d 22 8d 2b be aa 3b 2f 3e 39 3b 6f 3d
       0.11198826 -0.16753057 0.17112604 0.05840609
000340 f3 02 6e 3d 23 01 43 be fc 54 bc bd f2 a0 42 3e
       0.05810828 -0.19043402 -0.09195897 0.19006708
000350 02 c2 ef 3d 63 23 8f bd 9f 42 e5 3c b4 53 1a 3d
       0.11706926 -0.06989171 0.027985869 0.03767748
000360 ae b6 e4 bc 92 aa 3c bd c9 05 af 3d 41 53 42 be
       -0.02791914 -0.046061106 0.08546025 -0.18977071
000370 09 b6 91 3d d6 dc 89 3d 27 b4 8f bd 36 71 4a 3d
       0.071147986 0.06731574 -0.07016783 0.049424373
000380 c9 f8 56 3d de a6 b4 bd 04 ae 14 3e 9f 35 3c be
       0.052483354 -0.0882089 0.14519507 -0.1837983
000390 76 bf 64 bd 26 d7 c0 bd af a0 1b be e4 90 8b 3d
       -0.055846654 -0.09416036 -0.15198015 0.06814745
0003a0 91 2c 67 3c 19 92 00 bd c4 2b 83 3d c6 e1 d5 3b
       0.014109747 -0.03138933 0.06404832 0.0065271584
0003b0 c4 8a 4d 3d 19 80 b7 3d 77 45 7a bd ed 59 a9 bd
       0.050181165 0.089599796 -0.061101403 -0.08269105
0003c0 b2 ac 17 be e0 44 2a 3e 9d fe 5e 3e 31 49 1b 3d
       -0.14811972 0.16627836 0.21776815 0.037911598
0003d0 98 70 13 3e 67 63 0a 3e 08 51 51 3d dc 55 18 3e
       0.1439842 0.13514481 0.051102668 0.14876503
0003e0 77 61 f6 3d cc 47 33 be 73 7b 5c bd 01 e5 b0 3d
       0.12030309 -0.17507857 -0.053828668 0.08637429
0003f0 b7 b4 b9 bd 3e 7c 6e 3d 4b da bc be b0 6d 46 3c
       -0.09067672 0.058223955 -0.36885294 0.0121111125

mu.tmlp.net.2.bias f4 [64]
000000 40 aa c6 3d 0b ea 26 3e 89 0d 98 bd 7e 11 76 bb
       0.09700441 0.16300218 -0.074244566 -0.0037547047
000010 32 73 9d bd ce 7a 9f bc ef af 1a bd 3d 21 35 be
       -0.076879874 -0.019467738 -0.03776544 -0.1768846
000020 97 3b 3c 3d d6 eb a8 bd a0 3e 16 3d 99 60 9b 3d
       0.045955267 -0.08248107 0.036680818 0.07586784
000030 d3 ca 05 be fd 3a ca 3d 22 e3 0c be 0e 70 a7 3d
       -0.13065653 0.09874532 -0.1375852 0.081756696
000040 90 c4 b4 3a e8 72 1a 3d e4 f6 b9 3c 61 e9 88 3d
       0.001379149 0.03770724 0.022700734 0.066851385
000050 f8 f8 ff 3d 1e 6a 98 bd c7 4d a4 3c 88 a9 7b bd
       0.12498659 -0.07442115 0.020056618 -0.061440974
000060 7c a9 e2 3d 60 80 42 3d 36 dd f6 3c 8e f3 9d bd
       0.11067483 0.04748571 0.030134778 -0.0771247
000070 0e db 83 bd 89 a2 b6 bd d4 63 5c bd 4f ba 81 bd
       -0.06438266 -0.0891772 -0.05380614 -0.06334364
000080 11 ea c4 bd b0 8b 04 be 2a 1a 04 be 24 f1 f8 bc
       -0.09614957 -0.12943912 -0.12900606 -0.030388422
000090 a1 f5 92 bd 67 66 21 bd b8 d8 11 3d 6b c2 ef bd
       -0.07175756 -0.0394043 0.03560707 -0.11707004
0000a0 b1 10 80 3d 22 21 f9 bd cc 25 2d 3d d7 81 fe bd
       0.06253184 -0.12164523 0.042272374 -0.12427109
0000b0 67 20 98 bd 49 ec 75 3d 07 6a d6 bd 6f b4 b0 3d
       -0.07428055 0.060039792 -0.10469442 0.08628165
0000c0 d8 23 44 bd 39 5a d9 bc 88 94 e8 bd ee 9d a4 3d
       -0.047885746 -0.02653228 -0.11356455 0.08037935
0000d0 0a b7 1f be 87 97 08 3e d8 bb 64 3d d2 15 58 3d
       -0.15597168 0.13339053 0.055843204 0.052755184
0000e0 b5 15 be bd 6c bc 9a bd 90 9e 94 3d c8 52 0b bd
       -0.09281484 -0.0755547 0.07256806 -0.034014493
0000f0 9d d6 1c be a3 c3 a8 3c 80 77 00 3e 7e 3a b4 bd
       -0.15316243 0.0206011 0.12545586 -0.08800219

mu.tmlp.net.4.weight f4 [1, 64]
000000 41 b9 10 3d 84 cd 9a 3e c7 20 9c 3d b6 e0 a4 bd
       0.035332922 0.3023492 0.07623439 -0.08050673
000010 34 83 3c bd d7 00 08 bd 89 52 a3 bc 86 91 a3 bd
       -0.046023563 -0.033203926 -0.019936817 -0.07986741
000020 3d 10 6c bd 53 71 01 bd 37 43 9e 3e 1b 2a 6a be
       -0.057632674 -0.031602215 0.30910656 -0.22867624
000030 fc 07 e1 b7 b2 c3 a9 bd d3 34 40 be 37 98 55 3d
       -2.6825808e-05 -0.08289279 -0.18770151 0.052147117
000040 7e 89 4a 3e bb fd 01 bc 61 86 88 be 10 11 3b 3d
       0.19779012 -0.007934029 -0.26665023 0.04567057
000050 2f f2 b0 3c 68 59 f4 bc f9 b6 a5 3d e0 98 e4 3e
       0.021599857 -0.029827788 0.0809154 0.44647884
000060 54 a6 30 bd fa 42 a6 bc b1 7f 6e 39 a5 00 af bd
       -0.043127373 -0.020295609 0.00022745017 -0.08545045
000070 6c 44 79 bc 16 17 7c 3d 20 70 7f 3e ea f0 9a 3d
       -0.015214067 0.061545454 0.24945116 0.07565482
000080 7f 76 22 bd af 04 ea bd 57 4f 95 bd 34 65 96 bd
       -0.039663788 -0.114266746 -0.072905235 -0.07343522
000090 76 83 cb 3d 9b 69 a1 bc 58 6f 76 bd 93 c7 88 bd
       0.099371836 -0.019703677 -0.06016478 -0.06678691
0000a0 65 ee 36 be 20 c8 a5 38 bf ba ae 3d 79 2d 2c bd
       -0.17864378 7.905089e-05 0.08531713 -0.042035554
0000b0 1d 50 e5 3d c7 42 ba bc 29 80 06 3c da 29 ad 3d
       0.11196921 -0.02273692 0.008209267 0.08455248
0000c0 76 20 ac b8 ce 31 68 bd 89 f6 65 bd 4b 26 38 bd
       -8.2076454e-05 -0.056688122 -0.056143317 -0.044958394
0000d0 6b 39 f7 bc df da b5 bc 8d fa 14 bf 4b c8 15 3d
       -0.030178746 -0.022199092 -0.5819481 0.036567967
0000e0 7d cf 15 be 79 67 2f 3e 7d 09 72 bd ea 6f cc 3d
       -0.14629932 0.17129315 -0.05909108 0.099822834
0000f0 99 ce 45 3e bb 93 74 3b ee 24 eb bd 66 6f c3 3d
       0.19317092 0.00373195 -0.11481653 0.09542732

sigma.tmlp.net.0.weight f4 [64, 5]
000000 78 57 3f 3e 3c 0a 1b be 4b 76 36 bd cc 5e 9f 3e
       0.1868571 -0.15140623 -0.044546407 0.31127012
000010 5a 45 15 be 23 7e 02 3e bb a5 d4 be e9 bb c9 3e
       -0.14577237 0.1274343 -0.41532692 0.39401177
000020 41 61 65 3d 01 be 5d bd e9 a4 50 be 5b 08 3f 3e
       0.05600095 -0.05413628 -0.20375408 0.18655531
000030 b2 73 ac be 0b c4 22 3e 85 0f 06 be 9e c6 ae be
       -0.3368202 0.15895097 -0.13091858 -0.34135908
000040 be 85 d5 3e 44 a6 98 be 80 5c 07 3e d0 35 a1 3e
       0.417036 -0.2981435 0.1321888 0.31486368
000050 e8 01 e3 3d c2 19 de be 07 2d 0c 3e a6 85 89 be
       0.11084348 -0.43379027 0.13689052 -0.26859778
000060 6b 3d b1 3e 73 59 db be d0 86 fc be e9 64 36 3e
       0.3461717 -0.42841682 -0.49321604 0.17811932
000070 fe d0 40 3e 09 9a 8f 3e 96 8c 9a be 93 35 cc 3e
       0.18829724 0.28047207 -0.30185384 0.39884624
000080 65 d0 83 3d 5d b8 f9 be ce eb 2c be d1 c0 79 3e
       0.064362325 -0.4877347 -0.16886827 0.2438996
000090 a0 75 8e be 08 ae d0 3e f5 7b ab 3e d1 2e ab 3d
       -0.27824116 0.40757775 0.3349301 0.08358539
0000a0 c2 50 98 3c 06 c3 7f be a4 45 9a be 87 dc a4 be
       0.018593196 -0.2497674 -0.30131257 -0.321995
0000b0 8d 5f 06 3e 96 32 6b 3e 63 11 b3 3e 3d 6f 8e 3e
       0.13122387 0.22968516 0.34974203 0.27819243
0000c0 f1 42 f2 be 50 75 a3 be 47 f8 9c 3d 3b ba 79 3e
       -0.47316697 -0.3192544 0.07664543 0.24387448
0000d0 27 d9 67 3e 9c c4 f7 bd 02 f1 cf be cf 3a af 3e
       0.22641431 -0.12098047 -0.40613562 0.34224555
0000e0 d1 b2 db 3d 60 f3 5a be 77 69 39 3c eb f1 b9 bd
       0.10727466 -0.21381903 0.011316649 -0.09079345
0000f0 fe 17 1d 3e b9 d4 35 3d 9b 3a a9 be aa 35 22 3c
       0.15341184 0.04439232 -0.33052525 0.00990049
000100 ff ff cc 3e 2f 72 99 be 80 01 89 be 7e 95 94 3d
       0.4003906 -0.29969928 -0.26758957 0.07255076
000110 bf c1 ec bb c5 4e 08 be f2 10 2e be 7e 9e b8 3e
       -0.007225245 -0.13311298 -0.16998652 0.3605842
000120 37 36 bb 3d 4e 31 36 be 12 6d 89 3e 53 28 60 be
       0.091412 -0.17792246 0.26841027 -0.21890382
000130 61 24 a0 be 75 32 1e be 9a 96 fe bd 99 67 87 3e
       -0.31277755 -0.15448935 -0.12431069 0.26446226
000140 53 19 ef 3e 72 5d 05 be 86 2b e9 3e 1e af 8f be
       0.46699008 -0.13023928 0.45541018 -0.2806329
000150 5e 4f a2 be 60 e0 e2 3e 29 4c 66 3d bb 28 c5 be
       -0.31701177 0.4431181 0.056224976 -0.38507637
000160 e5 9d b4 3d 10 9c ea be 35 55 bb 3d 39 98 05 bf
       0.088191785 -0.4582219 0.09147111 -0.521854
000170 b8 2d db 3e 60 f6 1f be 14 b3 ab be 09 e4 58 3e
       0.42808318 -0.15621328 -0.33535063 0.21180739
000180 02 fa 2f 3e ec 33 7b be 67 09 8e 3e 57 ed c6 be
       0.17185214 -0.24531525 0.27741548 -0.3885295
000190 a6 7e 25 be 2e d5 ad 3e 38 28 ae 3e 85 ed b8 3e
       -0.16161594 0.33951706 0.3401506 0.36118713
0001a0 b7 86 a3 3e 1e 6e 8d bc 33 45 cb be 86 67 d1 bd
       0.31938717 -0.017264422 -0.39701232 -0.10224824
0001b0 bb f5 66 bd 04 9a 88 3e 31 2c 75 be 46 af a4 3b
       -0.05638669 0.26680005 -0.23942639 0.005025777
0001c0 cd 34 84 3e 24 1a 35 3e 53 31 d2 be ca 96 2e be
       0.25821534 0.17685753 -0.41053256 -0.17049709
0001d0 eb dd 2f be fd 29 cd 3e 82 15 00 3e 95 fc 91 3e
       -0.17174499 0.40071097 0.12508205 0.28513017
0001e0 96 db 05 bf 9e 25 5b 3d 89 67 61 3d 85 71 95 3e
       -0.52288187 0.05350267 0.05503038 0.2918817
0001f0 6f 14 c3 be 89 be d1 be 9b f1 43 bd 6b a6 8a be
       -0.38101527 -0.4096568 -0.047837835 -0.27080092
000200 39 db 50 3e 10 bc b4 be 64 a7 97 bd 4e 2a 8b bd
       0.20396127 -0.3529973 -0.07404974 -0.06795178
000210 55 c2 38 3e a9 fc b0 3d 7a 5c 8e 3e 77 2a a7 3e
       0.18042882 0.08641941 0.2780493 0.32649586
000220 a7 f5 dd be cb de c9 bd 97 09 f1 3e 42 6c c6 be
       -0.4335148 -0.098569475 0.4707763 -0.3875447
000230 4b ca 45 be d7 13 c0 3c 4d f0 ec 3a 84 97 ee be
       -0.1931545 0.02344696 0.0018076986 -0.46599972
000240 cb 09 64 3e d6 92 42 3d d1 f4 a1 be 8c cb a5 3e
       0.2226936 0.047503315 -0.31632093 0.32381856
000250 27 f0 6e 3e 6c 76 a5 3e b4 df a9 3e 81 9e 4d 3d
       0.23333798 0.3231691 0.33178484 0.05019999
000260 91 54 af bd 32 35 38 3e 81 af d2 3e c0 78 81 bd
       -0.08561052 0.17989042 0.41149524 -0.06321859
000270 f3 be 07 3e 07 c0 a6 3e 2e e0 c3 be 96 25 08 3e
       0.13256435 0.3256838 -0.38256973 0.13295588
000280 f8 ad 8c be 51 13 e8 be 75 bb 1a be 01 5b e2 3d
       -0.27476478 -0.45327237 -0.15110572 0.11052514
000290 57 b7 7b 3e 23 fc 96 3e 3e 8e 25 bc 3e 2a 71 be
       0.24581657 0.2948924 -0.010104714 -0.2355127
0002a0 ca 69 05 bf 60 0b 84 3e bc 35 07 3d e3 7b 06 3e
       -0.52114546 0.25789928 0.03301023 0.13133197
0002b0 e0 ff 93 3e 38 59 01 be ff ea 69 be 72 d4 1d 3e
       0.28906155 -0.1263169 -0.2284355 0.15413073
0002c0 cc 40 8c be a7 41 3a 3e b6 78 3b be 66 72 99 be
       -0.27393186 0.18189107 -0.18307766 -0.29970092
0002d0 34 83 35 be bd d0 36 3e 8d ab a6 3e c8 36 7e be
       -0.17725831 0.17853065 0.32552758 -0.24825585
0002e0 0e 3f 00 3e 04 44 79 3d 56 18 6c 3d 4c 30 f8 bb
       0.12524053 0.06085588 0.057640396 -0.007574117
0002f0 c1 c9 bf 3e d0 72 9b 3e c1 57 2f bd dd 29 2f be
       0.37458614 0.30361032 -0.042808298 -0.17105813
000300 89 3e f4 bd dc 11 04 be 4b 16 e1 be e3 17 70 be
       -0.1192599 -0.12897438 -0.4396232 -0.23446612
000310 3a f1 c5 be 55 f2 32 3e 69 ab 9a 3d 1b e5 18 3d
       -0.38660604 0.17475255 0.07552225 0.037327867
000320 fd c8 06 bf 9c 5a 7d 3d 90 8b e0 3d f4 af ab 3e
       -0.52650434 0.06185399 0.109641194 0.3353268
000330 50 f4 7a 3c dc 2a 01 bf dc aa d9 3d e4 bd cd 3e
       0.015317038 -0.50456023 0.10628292 0.40183938
000340 9e ee d6 3e 3f f2 2a be 82 07 a8 3e 03 cf c1 3d
       0.41978925 -0.16693972 0.32818228 0.094633125
000350 7b c0 26 be ea be a8 3e 38 0c d5 3e de 63 76 be
       -0.16284363 0.32958156 0.41610885 -0.24061534
000360 62 ad ad be 37 f2 fc bd 60 ef 9c be c8 90 ac bd
       -0.33921343 -0.12350886 -0.3065138 -0.08426052
000370 ee b1 d7 3e 84 b2 06 bf 55 e2 96 be 14 36 50 be
       0.42127937 -0.52616143 -0.29469553 -0.20333129
000380 73 55 19 be ad 04 91 be c1 b2 b0 bb 03 fe b9 be
       -0.14974003 -0.2832388 -0.005392403 -0.36326608
000390 af e9 c1 bd ae 67 f7 3e 77 c9 f3 3d 9d b3 93 be
       -0.094684 0.4832129 0.11903661 -0.28847972
0003a0 b1 04 43 3d d2 b7 19 bd 36 4f 0f bd 69 89 7d be
       0.047611896 -0.03752882 -0.03498765 -0.24759449
0003b0 81 ce 4f bd 4a 61 b5 3e 8b 63 b9 be d9 a8 8c be
       -0.050734047 0.35425788 -0.36208758 -0.2747257
0003c0 93 d9 35 bd ba 8b 4e be 51 dd ed 3e 99 8d 40 3d
       -0.044396948 -0.20170489 0.46457914 0.047010038
0003d0 aa 4d bf 3c 26 de ae bd 10 35 26 bd 18 42 c9 3b
       0.023352463 -0.08538465 -0.040577948 0.006141912
0003e0 3e d4 02 be b9 e8 20 be e8 18 5a bd a8 af 27 be
       -0.12776276 -0.15713777 -0.05324641 -0.16375601
0003f0 14 77 24 be 50 07 0e bd 09 04 7f bc 30 e3 80 be
       -0.1606105 -0.034674942 -0.015564927 -0.2517333

sigma.tmlp.net.0.bias f4 [64]
000000 10 81 81 3b c7 fb 39 be 78 a1 9c 3d e8 d5 ee 3e
       0.003952153 -0.18162452 0.07647985 0.46647573
000010 cd a9 1c bc 52 54 72 be 5b 43 0c 3e 40 e8 61 be
       -0.009561968 -0.23664978 0.13697569 -0.22061253
000020 de 81 f5 bb b1 52 87 3d 71 98 52 3e 96 21 ac bc
       -0.007492288 0.06607569 0.20565964 -0.021012109
000030 59 16 e1 be a4 47 2a 3e 93 55 dc 3e e9 f7 44 be
       -0.43962362 0.16628891 0.43034038 -0.19235195
000040 f5 f9 8a 3e 11 4e ae be 7d ea 3c 3e 05 98 01 3f
       0.27143827 -0.34043935 0.18448825 0.5062259
000050 9c 94 82 3e 7b eb a6 be 64 7e f5 3d f9 54 2b bf
       0.25504005 -0.32601532 0.11986998 -0.66926533
000060 19 36 20 be 16 37 5a be b9 b4 a6 3e 74 9b c2 3e
       -0.15645637 -0.21310076 0.32559755 0.38009226
000070 5b 21 bc be 8d 47 aa 3e e9 9b 8c 3e 46 81 a7 3d
       -0.36744198 0.33257714 0.274627 0.08178954
000080 43 e4 37 be ed 95 bb 3c ed 21 ed 3e 93 bb d4 3e
       -0.17958169 0.022898639 0.46314946 0.41549358
000090 30 f0 8a 3e 50 c8 95 be f0 26 01 bf 1b 90 82 3e
       0.27136374 -0.2925439 -0.5045004 0.2550057
0000a0 c1 f5 b9 3e de 01 ae 3e 33 c4 79 be e4 9e db 3d
       0.36320308 0.339858 -0.2439125 0.10723665
0000b0 1f 1d 1c be f6 cf b3 bd 7a a7 dd 3e 30 c3 a4 be
       -0.15245484 -0.087799 0.43291837 -0.32180166
0000c0 3d 1c 10 bf a1 2b 21 3e aa ce d2 3e 47 23 07 3e
       -0.5629309 0.157393 0.41173297 0.13197051
0000d0 ae 75 5a be f3 5b 16 be 24 6c 58 3d 7d 78 f9 bc
       -0.21333954 -0.14683513 0.052837506 -0.030452961
0000e0 c6 03 79 3e 2c 48 c8 3e f5 cd d2 39 c3 ba 52 3e
       0.24317846 0.39117563 0.0004020777 0.20579056
0000f0 d2 7f 9f bd 97 ce ad be d1 8b a2 be 18 39 63 bd
       -0.07788052 -0.33946678 -0.31747296 -0.05547437

sigma.tmlp.net.2.weight f4 [64, 64]
000000 4a 03 cb 3d 78 de c5 bc f7 8c 37 bc 5e c9 3c 3c
       0.09912737 -0.024153933 -0.011203042 0.011522619
000010 3d 16 cf 3c 5f cd 8a bd 82 61 33 3d 3d ae de 3d
       0.025279159 -0.06777453 0.043794163 0.10873077
000020 db a7 ad bd 19 98 42 bd d6 0e 15 3e 52 c3 60 bd
       -0.084792815 -0.047508333 0.1455644 -0.054873772
000030 a8 c6 85 bd 6c ed 45 3e 39 7c 06 3e cb a5 80 3d
       -0.06532031 0.1932885 0.13133325 0.062816225
000040 f5 eb 06 3e a5 3a 8a 3d 6b 7b 08 3e c2 43 06 3e
       0.13175948 0.06749467 0.1332833 0.13111785
000050 a5 cf 36 bd be ac 06 be 22 5b 99 3d f9 a9 0b 3c
       -0.04463162 -0.13151833 0.07488085 0.008524411
000060 af fd 14 3c 82 78 2e bd 57 08 ec bc 0b 13 9f 3d
       0.009093686 -0.042595394 -0.02881257 0.07767304
000070 e4 86 8e 3b 8a a8 b1 3c c5 c6 13 3e 72 3a a9 bd
       0.0043495763 0.021686811 0.14431293 -0.08263101
000080 b6 38 27 3c 35 f1 30 3c 00 f2 bb 3c 60 e9 33 bc
       0.010206392 0.010799696 0.022942543 -0.010980934
000090 9c 8f 03 3d a7 4e 95 bd e9 5c 1a 3d b7 18 88 3d
       0.03211938 -0.07290392 0.037686262 0.06645339
0000a0 8a 25 1e 3e 73 d2 42 bd ad dc ac 3d d3 e6 c9 bc
       0.15444008 -0.04756398 0.08440528 -0.024646198
0000b0 84 d3 36 be 14 e6 b6 3c 19 fa e4 3d e7 0d 02 be
       -0.17854124 0.022326507 0.11180515 -0.12700616
0000c0 96 b5 1f be 31 aa 96 3d 53 35 69 bc 57 ff 96 bd
       -0.15596613 0.0735668 -0.014233905 -0.07372921
0000d0 36 37 26 be 70 38 fa 3c 1f 26 c7 3d ba 59 d5 3d
       -0.16231999 0.03054449 0.09724068 0.104175046
0000e0 09 6a 88 3d 77 a9 ce 3d 4e d2 fa 3d 09 b1 00 3e
       0.066608496 0.100909166 0.12247144 0.12567534
0000f0 b7 cb 6f 3d 6a 39 13 bc 17 75 ec bd 1a 45 8d 3d
       0.058543887 -0.008985857 -0.115457706 0.06897946
000100 b8 7c ef 3d f0 ce 47 bd 64 d4 ab bd 1e cc f6 3d
       0.1169371 -0.048781335 -0.0839012 0.12050651
000110 4a 45 f2 bd 28 fb 8c bd ec b0 75 bd 1c f9 4c 3d
       -0.11829622 -0.06883842 -0.05998318 0.050042257
000120 56 df d3 bd b6 d6 c4 bd 80 ec fd 3a 60 69 a3 3c
       -0.10345332 -0.09611265 0.0019372851 0.019947708
000130 00 3a f2 39 d0 2e ea bc e0 d7 4d bd 7e 28 b7 3d
       0.0004620105 -0.028586775 -0.050254703 0.0894327
000140 78 bb 82 bd b8 1f 06 3d 20 ce 3a bd 0c 02 b2 bd
       -0.06383413 0.032745093 -0.045606732 -0.08691797
000150 e0 01 35 bd fa f2 bc bd 0a c0 b7 3d 54 df 4c 3d
       -0.04419124 -0.092260316 0.089721754 0.05001767
000160 e0 3c eb bb 20 37 48 bd 68 77 75 3d f8 9c b4 bd
       -0.0071788877 -0.048880696 0.059928328 -0.08819002
000170 44 32 4c 3d ea 7f f9 bd 0c 96 1a bd 16 0f ed bd
       0.049852625 -0.12182601 -0.037740752 -0.11575143
000180 cc ff 42 3d ec 9b 11 bd 44 4c 51 3d 88 30 bf bd
       0.04760723 -0.03554909 0.051098123 -0.093354285
000190 10 5c 41 bd 7e 3f 8d bd 78 12 f4 bd e8 6b 9b 3c
       -0.04720694 -0.06896876 -0.11917585 0.018972352
0001a0 44 02 3c 3d 6c e8 aa bd 06 fc b8 bd ac 71 38 3d
       0.0459006 -0.08345112 -0.09032445 0.04503028
0001b0 28 0d 3b 3d c0 3e 57 3d 50 d0 b6 3c 44 7c 61 3d
       0.045666844 0.052550077 0.022316128 0.05505015
0001c0 a8 9f ba 3c 02 19 c6 bd 90 6a 7a 3c f8 54 b7 3c
       0.022781208 -0.096727386 0.015284196 0.022379383
0001d0 e6 24 c4 bd 94 45 35 3d 20 e2 c7 bb 18 4e be bc
       -0.0957735 0.044255808 -0.0060999542 -0.023230597
0001e0 d2 81 f9 bd 16 cb 8b bd 1c b2 40 bd 3a 98 fb 3d
       -0.121829644 -0.06825845 -0.04704486 0.12284894
0001f0 ec 8c da bd 74 62 4a 3d 00 9c c3 39 70 75 87 bd
       -0.1067141 0.0494103 0.00037309527 -0.06614196
000200 ca cb 09 3e 72 90 c2 3d 6f 94 e5 bc 58 b2 41 3e
       0.13456646 0.09500207 -0.02802488 0.18915689
000210 f3 5b fd be bf a7 35 3e 5b 1c d0 3d 52 73 0a 3e
       -0.49484214 0.17739771 0.101616584 0.13520554
000220 03 95 9a 3c 51 ee cf bb 6c 68 b8 3c 9c 34 2a 3d
       0.018869882 -0.006345548 0.02251073 0.04155408
000230 71 83 5a be 25 6b b8 bc 30 2e 80 bd e9 4d 72 3c
       -0.21339203 -0.022512028 -0.062588096 0.014789083
000240 88 ae a6 bd 15 f4 3f bc 7e ab f0 3b 4c ef 68 3d
       -0.08138758 -0.011715909 0.007344662 0.056868836
000250 a5 fd 44 3d 3e af 87 bd 92 ad 87 3d d5 52 e7 3e
       0.048093457 -0.06625222 0.06624903 0.45180383
000260 06 66 a8 bd bc 78 b3 bd 60 ec cc bc 26 7d c8 bd
       -0.082225844 -0.08763263 -0.025015056 -0.09789495
000270 8a e7 12 3d af a7 de bd 34 0f 51 be 24 52 7c bd
       0.035865344 -0.10871827 -0.20415956 -0.061601773
000280 ea 76 35 3e 6b 3f 06 be 00 b1 b8 bd 54 2a 51 bd
       0.17721143 -0.1311013 -0.09018135 -0.051065758
000290 d9 4e aa bd e7 e7 6c 3e b8 e3 f3 3d 15 a7 02 3e
       -0.0831582 0.23135339 0.11908668 0.12759049
0002a0 b3 81 3c bc b4 6f 0d 3e e6 f6 c6 3d 11 c6 85 bc
       -0.011505532 0.13812143 0.09715061 -0.016329797
0002b0 97 1e e6 3d 3e 80 4a 3d e3 b6 88 bc 98 36 19 3e
       0.11236303 0.049438708 -0.01668877 0.14962232
0002c0 5d 7d 91 3e b9 2b b0 3d 1f cb 36 3c b7 c6 f8 bc
       0.28415957 0.086020894 0.011156826 -0.030368192
0002d0 8d 17 0d 3e 5f 3f ac 3d f6 85 9f 3d 95 cc 4a be
       0.13778515 0.084105246 0.07789223 -0.19804604
0002e0 2e fd a0 3c 24 37 f6 bd 3b 84 83 3d 43 6e de bd
       0.019651975 -0.12022236 0.06421705 -0.108608745
0002f0 67 5d 32 3e 7c c4 a9 bd bf 6a 1a 3d f8 ef a2 bd
       0.17418443 -0.082894295 0.037699457 -0.07955927
000300 a1 58 5a bd bc 2a c2 3c 00 c7 ca 3d 89 98 fc 3c
       -0.05330718 0.023702018 0.099012375 0.030834453
000310 75 88 be bd 51 37 8f 3e 94 8b 0b be 63 22 18 3e
       -0.09303371 0.2797189 -0.13627464 0.14856867
000320 e9 52 cc 3d 5f 5f 68 bc 4c 56 ac bc b7 14 26 be
       0.09976751 -0.0141828945 -0.021037243 -0.1621884
000330 45 f2 16 bd 0f eb e3 bd 0f 6b 5c 3c 52 ec 0b bf
       -0.03685214 -0.11128818 0.013453259 -0.5465747
000340 04 f7 b0 bc 53 e1 33 be ab e9 00 be 68 ad 3c be
       -0.021602161 -0.17566423 -0.12589137 -0.18425524
000350 75 d8 3d bc c5 f8 21 3e d6 65 32 3e f3 d8 89 3d
       -0.011587252 0.15817554 0.1742166 0.06730833
000360 89 9f fd 3d 52 68 0d 3d ce 45 a6 3d b0 1b 11 3d
       0.123839445 0.034523316 0.08118783 0.035426795
000370 9c e1 3a 3e 2f 85 01 3e 2e 8e 6f 3d 48 14 08 3e
       0.18250126 0.12648462 0.058485202 0.13288987
000380 84 24 aa 3d 3d c2 aa bc 97 ed 0a be 6a 97 68 be
       0.08307746 -0.020844573 -0.13567196 -0.2271401
000390 05 44 2e bc 5f d0 81 3d 2b a1 32 bd 04 1f bc bd
       -0.010636334 0.06338572 -0.043610733 -0.09185603
0003a0 06 2b a6 3c 4e 40 11 3e 53 53 0d 3e 8d 76 c3 3d
       0.020284187 0.14184687 0.13801317 0.09544096
0003b0 4a 2c 02 be 43 22 99 bd 56 57 08 be 63 4f 81 3d
       -0.12712207 -0.07477238 -0.13314566 0.0631397
0003c0 8e 04 84 3e 59 da e2 bd 33 cd 08 bf 3c 35 0b be
       0.25784725 -0.11076803 -0.5343811 -0.13594526
0003d0 39 fa 76 3e 80 05 f2 3d 03 31 81 3b 78 63 4b bd
       0.2411889 0.11817455 0.00394261 -0.049655408
0003e0 28 dc 50 3d be e7 65 be 9b 12 08 3e eb 98 98 bd
       0.050991207 -0.22451684 0.13288347 -0.07451042
0003f0 3c 60 78 ba 0e 7f d9 bd 53 64 d6 3d bb 61 f3 3d
       -0.0009474789 -0.10619937 0.10468354 0.11883875

sigma.tmlp.net.2.bias f4 [64]
000000 3b 38 c1 3d 9e 79 a3 bd e6 1c e1 3c 13 ea 2b be
       0.09434553 -0.07982181 0.0274796 -0.16788511
000010 c4 df 87 3d 57 52 41 3d 85 c1 50 bd bc fb 54 bd
       0.06634477 0.047197666 -0.050965805 -0.051997885
000020 ba f9 93 bd 75 da a2 3c 6c c9 0a be d8 47 8b 3d
       -0.07225366 0.019879559 -0.13553399 0.068008125
000030 98 68 91 3d f9 74 e4 3d 46 2a f1 bc e3 b3 f4 3d
       0.07100028 0.11155123 -0.029439103 0.11948373
000040 ec 58 ba 3d 91 d1 2a 3e 1a 68 0e 3e 77 75 57 3d
       0.09098992 0.16681506 0.13906899 0.052602258
000050 63 b7 51 3c 43 98 c1 bd e5 ad 23 3e f1 76 f1 3d
       0.01280007 -0.0945287 0.15984304 0.117902644
000060 07 c1 7c bd c5 9f 44 3d a8 ed ce 3d ac c2 eb bd
       -0.061707523 0.04800393 0.10103923 -0.1151174
000070 b1 e8 9a bb b3 d5 4f bd c0 35 3b 3d 4f f6 90 bd
       -0.004727446 -0.05074091 0.045705557 -0.0707823
000080 92 38 f9 bb 5a f5 06 3e f8 b0 df bd c8 e2 0c 3e
       -0.0076056207 0.13179532 -0.10922426 0.13758385
000090 66 2c 44 bc 81 44 74 be f4 74 88 3c e5 36 a6 3b
       -0.011973476 -0.23854257 0.01665733 0.005072462
0000a0 3c df 61 bd 29 da c9 3d e1 2b 93 bd 3e 9f be bc
       -0.055144534 0.09856064 -0.071861036 -0.023269292
0000b0 71 30 2c 3e 97 41 38 bd 0e 13 cb 3d 06 b4 a8 bc
       0.16815354 -0.044984426 0.09915744 -0.020593654
0000c0 4f 52 8e bd 0b 4e 0f 3e 33 8c 5c 3d 8e 3d 88 bc
       -0.06949293 0.13994615 0.053844642 -0.016630914
0000d0 bb 0d b8 bc 2d cc a1 bd 1c 97 19 bd d0 03 9a 3d
       -0.022467485 -0.079002716 -0.037497625 0.075202584
0000e0 bc 6c 06 3e 3c 0e 12 bd f4 45 b5 bc 2c 48 11 3e
       0.13127416 -0.035658106 -0.022128083 0.14187688
0000f0 c7 02 f9 bc 9e 5e a9 3b d2 cf e8 3d 16 ac 01 be
       -0.030396832 0.00516875 0.113677636 -0.12663302

sigma.tmlp.net.4.weight f4 [1, 64]
000000 44 49 a8 bd 90 cf 1e 3c 40 30 4e 3e e2 cb a0 3e
       -0.08217099 0.009693041 0.20135593 0.3140555
000010 a9 4a 0c be da eb 04 be 2c 6c ad bd a5 db 15 3d
       -0.13700356 -0.12980595 -0.08467898 0.036586422
000020 68 f8 ba bd cc 57 90 3e 04 5e 6d 3e 16 01 0f 3e
       -0.09129411 0.28191984 0.23180395 0.13965258
000030 cb 94 c8 3c 6a a9 30 be eb e4 05 be 5f e3 1e be
       0.024485013 -0.17252126 -0.13075607 -0.15516423
000040 58 bd ec bd e9 ed b8 bc 08 fc be bd 0c ac 35 3d
       -0.11559552 -0.022574382 -0.09325415 0.04435353
000050 be 79 17 be 76 fa a0 bd 4e 71 1d be e4 27 1d be
       -0.14792535 -0.07860272 -0.15375254 -0.15347248
000060 b1 46 91 3d 8e 02 d5 bd dd 09 ac 3d d8 55 3c 3e
       0.070935614 -0.10400878 0.08400319 0.18392122
000070 50 6b fd 3d 76 ed 0e be 64 61 ba 3d b3 f1 dc 3c
       0.12373984 -0.13957772 0.09100607 0.02697072
000080 ca 06 40 be 8d 69 32 be 80 49 a0 bc 08 4f e6 bd
       -0.1875259 -0.17423077 -0.019566298 -0.11245543
000090 29 62 e6 3d 64 fc 20 3e 98 3c 2f 3d b4 e1 06 be
       0.11249191 0.1572128 0.042782396 -0.13172036
0000a0 bc 11 4d 3d 07 ba da 3b 6e 93 88 3d 60 72 b1 bd
       0.05006574 0.006675008 0.06668745 -0.086643934
0000b0 dc b6 c8 bd c8 6a da 3d 09 e9 25 be 01 3f d0 bd
       -0.09800503 0.10664898 -0.16202177 -0.10168267
0000c0 86 55 1b be 05 5b 1c be 2d de 40 bd 7b 5e 93 3c
       -0.15169343 -0.15269096 -0.047086883 0.017989388
0000d0 aa ab c2 bd 35 7e fb 3d d7 88 00 be 18 cf b5 3c
       -0.095053986 0.122799315 -0.125522 0.022193477
0000e0 39 17 85 bd 16 5b 13 3e 66 bb 0a be d4 a1 2b be
       -0.0649857 0.14390215 -0.1354805 -0.16760951
0000f0 ad b5 2d 3e 8c 5f 60 3e bb af 1d be 70 92 ee 3d
       0.16963835 0.21911448 -0.15399067 0.116490245
